Best_Black_BG/Best_Deblurr_model.pt (torch, 24465 bytes, 26 tensors)

weight f4 [3, 3, 1, 1]
00000000: 0000 803f 0000 0000 0000 0000 0000 0000
00000010: 0000 803f 0000 0000 0000 0000 0000 0000
00000020: 0000 803f
1.0 0.0 0.0 0.0 1.0 0.0 0.0 0.0
1.0

bias f4 [3]
00000000: 1dc9 e5be 92cb dfbe 17d9 cebe
-0.4488 -0.4371 -0.404

weight f4 [3, 3, 1, 1]
00000000: 0000 803f 0000 0000 0000 0000 0000 0000
00000010: 0000 803f 0000 0000 0000 0000 0000 0000
00000020: 0000 803f
1.0 0.0 0.0 0.0 1.0 0.0 0.0 0.0
1.0

bias f4 [3]
00000000: 1dc9 e53e 92cb df3e 17d9 ce3e
0.4488 0.4371 0.404

weight f4 [3, 3, 3, 3]
00000000: be1b 5ebc 6038 153e 9c07 f8bd 99e0 1cbe
00000010: cc9e cfbd ac55 453e 42d2 b03d 5847 983c
00000020: 2d0f d9bd b9b8 b23d e8bf 3f3e d402 a9bd
00000030: 8d23 4c3d 8e6c 8abc 64d9 4c3d 8404 0cbe
00000040: 5cdd f1bd 728e 713d ccd3 afbd 811b 073e
00000050: 7ead 0cbe 6728 f0bd 2032 31be 7103 01be
00000060: 9273 853d 0911 9abd 4977 223e 6576 98bd
00000070: 7523 943d bc93 9b3d 3dd6 883b d80a f63d
00000080: 1852 0abd aada debd e2dd 0a3c 5445 d3bd
00000090: 9c08 2d3e 6338 41be 4cc3 e1bc d292 1d3d
000000a0: 030d 1e3d 3da6 2ebd ce2e 93bd 7966 2dbd
000000b0: 2ef2 3c3e d892 9fbd 8f07 fc3d 4733 913d
000000c0: 407b 89bc 84f7 00be 325a 073d 075d 9cbd
000000d0: f697 cfbd 06b2 ebbc 55eb d6bd 55d2 413e
000000e0: ddaa d0bd 75e4 383e f27e e6bd 127c b1bd
000000f0: 9d30 9fb9 7640 0abe 641f 32bd 6b33 4a3c
00000100: 4e27 0dbe 4222 453d dcff d83c 2bba 263e
00000110: 57c7 f8bc 4aba 37be 7f08 a13b f64d 123e
00000120: bfe2 313c 11fd db3d 4e31 16be 962e 2cbe
00000130: 3502 17be 7038 e6bd 6359 fbbc a70c ebbc
00000140: c8aa 9d3c
-0.013556419 0.14572287 -0.121108264 -0.15320052 -0.1013771 0.19270962 0.086338535 0.018588707
-0.10598598 0.08726639 0.1872555 -0.082524925 0.04983859 -0.016897466 0.050012007 -0.13673598
-0.11809799 0.058973737 -0.08585319 0.13194086 -0.13738057 -0.11726456 -0.17304277 -0.12598969
0.06516184 -0.075227804 0.15865816 -0.07444457 0.072333254 0.075965375 0.00417593 0.12013787
-0.033769697 -0.108815506 0.008475753 -0.10315958 0.16897815 -0.18869166 -0.027558945 0.038470097
0.038586628 -0.042639006 -0.07186662 -0.042334054 0.18451759 -0.0779168 0.12306129 0.070898585
-0.016782403 -0.1259442 0.033045 -0.07634931 -0.10136406 -0.028771412 -0.10494105 0.18927892
-0.101888396 0.180559 -0.11254682 -0.08666243 -0.00030363063 -0.13501152 -0.043486968 0.012341361
-0.13784525 0.048128374 0.02648919 0.16281955 -0.03036849 -0.17942157 0.004914343 0.14287552
0.010857283 0.10741628 -0.14667246 -0.16814646 -0.14746936 -0.11241233 -0.030682271 -0.028692557
0.019246474

bias f4 [3]
00000000: 9559 07be 400e 5fbe b496 d03d
-0.13217767 -0.2178278 0.10184994

weight f4 [3, 3, 3, 3]
00000000: 9f8c 2e3e cedf 533d c1ff 203e 81f0 35bd
00000010: a2b0 18be 8a64 f53d c3b7 003e e26c b93d
00000020: 3d7f 41bd 002b 41be 3259 c6bd 6e5b febd
00000030: 8fbc 293c 8dcd 053e 12e9 4cbe b6d9 2dbe
00000040: 0989 0abe daf0 d13d 411a 18be 4240 293e
00000050: 0ba5 58be 93cf 053e 907c 263e 657f a6bd
00000060: dc0e 363e aff3 7b3c 3470 8ebd 87cc 283e
00000070: f027 7f3d 9de8 dbbb 0550 c2bc 6937 1d3d
00000080: 48ca 1d3e 00ea 92bc a6c8 363e e8f2 0cbe
00000090: eded 4ebe f67b f33b 2bfa 9bbd 0c08 debd
000000a0: a3fe bfbd e0b8 ae3d 4a68 153d 1085 00bd
000000b0: e6ad 1dbe 7cef 2b3e f3e7 02be 3bb7 7e3c
000000c0: 1275 66bd d310 c7bc 88a6 203e 430e e73d
000000d0: e89d ffbc fe2e e4bd 54aa 973d 1ed9 ad3d
000000e0: 93f6 b33c d489 8fbd 8c6e 203d 577e ff3d
000000f0: 9f0d 3fbd feec 203d c360 153e b338 e13c
00000100: ee10 c8bd 2f7b 263d 7cc1 15be cc7c 243d
00000110: 3342 1cbe b7d1 e93d 89c8 bc3d 83b3 abbd
00000120: 80ad ddbd f4cf 2f3e 2f83 613d b917 863c
00000130: 8fb4 45bb 8348 d73c 061a 07be 1ac5 5a3e
00000140: 5e02 f0bd
0.1704583 0.05172711 0.15722562 -0.044418816 -0.1491113 0.11982067 0.125701 0.09053971
-0.047240485 -0.1886406 -0.096849814 -0.124197826 0.010359897 0.13066693 -0.20010784 -0.16977581
-0.13528837 0.10251017 -0.14853765 0.16528419 -0.21156709 0.13067465 0.16258454 -0.08129767
0.17779106 0.015377923 -0.06954995 0.16484271 0.062293947 -0.0067110793 -0.023719797 0.03838292
0.15409195 -0.017933846 0.17849979 -0.13764536 -0.20207949 0.007430549 -0.07616075 -0.108413786
-0.0937474 0.08531356 0.03647641 -0.0313769 -0.15398368 0.16790575 -0.12783794 0.015546615
-0.05626399 -0.024300015 0.15688527 0.11282017 -0.031203225 -0.111417755 0.074055344 0.084886774
0.021968162 -0.070087105 0.039167926 0.12475269 -0.04664385 0.039288513 0.14587693 0.027492857
-0.09768854 0.04064482 -0.1462459 0.040158078 -0.15259628 0.11416953 0.092179365 -0.083838485
-0.10824108 0.17169172 0.055056747 0.016368734 -0.0030167436 0.026279693 -0.13193521 0.21364251
-0.117192015

bias f4 [3]
00000000: 937f 283d f2a9 8ebd 476a 3b3e
0.04113729 -0.06966008 0.1830226

weight f4 [3, 3, 3, 3]
00000000: 4fe9 6abc 053a 0abe 6b60 c2bd 6aee 5b3d
00000010: 49d1 843d 30b2 b6bd dc70 a1bc edf4 6a3d
00000020: 245c 933d 7612 4e3e 1b3a e6bd fcfc debc
00000030: 8ce6 ddbb b50c 113e a844 b9bd 1601 1ebe
00000040: 1769 d23c ecd8 d13d e4a9 913c 136a cc3d
00000050: 9f54 0cbe 4615 303e aae2 83bd 2873 573e
00000060: 5d11 583e 120c ff3d b0fa 98bd 00f7 343e
00000070: c84a 2a3e 6a1b 13bd 5707 24be 074b 063e
00000080: 179f f73d 6fd6 c2bd bfbd afbc ad75 9d3d
00000090: cbbd 02be 627a 31be 0a1e 2fbd 7713 ea3d
000000a0: 4588 8cbc eec2 83bb a92f 9c3d ccec a1bd
000000b0: 545b eabd ea79 473e b6e5 1ebd 7040 0b3e
000000c0: 5b8f 483e 2eaf 363e 0509 2b3e f854 003c
000000d0: a14a 3dbd 6182 da3d ff12 533d 6d0e 97bd
000000e0: ec4d 8cbd 6037 233e 824f 18be 8711 f43d
000000f0: 0f41 86bd 5695 1e3e 804d b9bd de24 25be
00000100: 711b 97bd 4cdd b2bd fd96 8bbd 4a9b babd
00000110: 123c 333e 62a0 dc3c 2651 51bc 4ba6 a73d
00000120: 981d 753d e8e4 3ebd face 3d3e 26f7 5c3e
00000130: 0ca4 c03d cdd5 453e 738b 14be 5fe1 d23d
00000140: 4745 45bd
-0.014337852 -0.13498695 -0.094910465 0.053694166 0.064852305 -0.08920705 -0.019707136 0.057362486
0.07195309 0.2012423 -0.112415515 -0.027220242 -0.006771868 0.14165004 -0.09046298 -0.15430102
0.025684876 0.10246453 0.017781205 0.099811696 -0.13704155 0.17195615 -0.06439717 0.21040022
0.21100374 0.12453474 -0.0746969 0.17672348 0.1663009 -0.035914816 -0.16018425 0.13114558
0.12090891 -0.09513556 -0.021452783 0.076884605 -0.12767713 -0.17331842 -0.042753257 0.11429494
-0.017154822 -0.00402104 0.07626278 -0.079064935 -0.11443201 0.194801 -0.03879329 0.135988
0.19585936 0.17840263 0.1670266 0.007832758 -0.04621375 0.10669399 0.051531788 -0.073757984
-0.068508 0.15939093 -0.1487408 0.119174056 -0.06555378 0.15486655 -0.09047985 -0.16127345
-0.07378281 -0.08733615 -0.06815908 -0.0911165 0.17503384 0.026931945 -0.012775695 0.08186015
0.059842676 -0.04660502 0.18535987 0.21578655 0.094062895 0.1931984 -0.1450632 0.102968924
-0.04816177

bias f4 [3]
00000000: 3458 2c3c 2a9b 683e 9c92 eebd
0.010519076 0.2271544 -0.11649057

weight f4 [3, 3, 3, 3]
00000000: f9e8 93bd bda6 2c3c d482 bfbd bc86 81bd
00000010: 4853 5ebe cde1 6abc 8873 afbd b23f 27be
00000020: af19 203e cab1 4dbe bd2d 8c3d 63f5 0dbe
00000030: bfb2 83be 4b5a 003e b7d8 283e 6d72 24be
00000040: 3ad9 2bbd 04f2 393c 78d6 07be 4e51 f73d
00000050: 9b4b d3bd 3252 823d 1ed2 053e 4c87 273e
00000060: c946 47be ed6f 97bc 1026 dfbc d423 b5bd
00000070: 8f21 02be 054e 06be e139 edbd 1bbf ee3d
00000080: 1a3e 9bbd 0dc1 23be 6231 22bd 2878 2cbc
00000090: 427d 93bc 8a05 24be 2d7d 293e ea19 2cbe
000000a0: 1c04 c23d 8686 853c aead 003e 9421 3dbd
000000b0: 491e 203e f4df c1bd 45dd e5bb 36fe ac3d
000000c0: 4ce7 4a3d 825e c2bd 596a 513d d27e e6bd
000000d0: c544 073b 15f5 063e a2ae c8bb 1728 9e3d
000000e0: e6b5 0bbd a061 9cbd 74d2 35be 1e24 2e3e
000000f0: f653 0e3d 2c65 333e d3d1 14be 582d ff3d
00000100: 7b4b 093e 89f2 cd3d 8722 f43c f939 383d
00000110: fc29 363d cffe 093d 3903 01be ddb4 943c
00000120: 7a19 d8bd e736 413e 8817 123e 9bf9 00bd
00000130: 6c66 3fbe b047 00be 10fd c0bb d99b 84bc
00000140: 7e94 8fbd
-0.072221704 0.0105378 -0.09351125 -0.06324527 -0.21711457 -0.014336062 -0.08566958 -0.16332892
0.15634798 -0.20087352 0.068446614 -0.13863139 -0.2572231 0.12534444 0.1648892 -0.16059275
-0.04195521 0.011349205 -0.13265407 0.120760545 -0.10317155 0.06363334 0.13068435 0.16360205
-0.19460596 -0.018485988 -0.02723983 -0.08844724 -0.12708114 -0.131157 -0.11583305 0.11657544
-0.07580204 -0.15991612 -0.039597876 -0.010526694 -0.018004064 -0.16017738 0.16551657 -0.1680676
0.0947344 0.016299497 0.12566254 -0.0461746 0.15636553 -0.09466544 -0.007014903 0.084469244
0.04953699 -0.09490682 0.05112681 -0.11254658 0.0020640355 0.13179429 -0.0061243335 0.0772249
-0.03410902 -0.07635808 -0.17756063 0.17005965 0.03474804 0.17519063 -0.14533167 0.124598205
0.134077 0.100560255 0.02980162 0.044977162 0.044473633 0.03369027 -0.12598886 0.018152649
-0.10551734 0.188686 0.14266789 -0.031488042 -0.18691415 -0.12527347 -0.0058895424 -0.016187595
-0.070107445

bias f4 [3]
00000000: 89be 0bbd 7459 983c 29ac 3abe
-0.034117255 0.018597342 -0.18229736

weight f4 [3, 3, 3, 3]
00000000: 679b c6bd 95ef 98ba b345 97bd 63a1 4bbe
00000010: eb70 fbbd 6b18 4ebe 3b08 8d3d aa7d b33d
00000020: d94d 33be d965 cebd aa17 c03d 5bd0 593d
00000030: a024 a23d 7f79 df3d ea7e 6e3e 559f a63d
00000040: 7466 c03a afa8 1c3c 9e67 a93d aeb7 323e
00000050: 0a5b 363e c42f 923d ae5d 2bbe 3bce dcbd
00000060: c11c 083d baa0 cd3d ae25 e3bc 27f0 6ebb
00000070: 40f4 023d 0f63 f8bd 6d62 c13d 7599 0cbd
00000080: a9e3 5d3c 4de1 5b3e 7c89 e3ba 0fae 42be
00000090: 8d9a 3a3e 0774 083e 282c f33d 2eb0 873a
000000a0: b213 e43d 6a1c 923c b171 9bbd 02ee 08be
000000b0: ecae 373e 2ffd a53d 8b41 34be 7951 d33d
000000c0: 36d1 853c 1b0a 383e 1d87 cb3d 0e4f d63d
000000d0: 7530 253e 6780 11be d6e1 63be 68bd 103e
000000e0: 43fc 90bd b4f5 f7bd bf61 573d f7e0 22bd
000000f0: 6f21 883c 2ce7 ec3d b8f5 87bc 2705 343e
00000100: 23d6 83bd 0434 ae3d 44aa e4bc 5e54 72bd
00000110: e70d edbd f55f 483e ff1b 633d 2604 9c3d
00000120: 3561 38be 8e59 0fbe 96eb b53d a537 98bd
00000130: 4fd1 193c 47cc a1bc 12bf 93bd 26dc 393e
00000140: c45a 0bbd
-0.096976094 -0.0011668081 -0.07386341 -0.19885783 -0.12277397 -0.20126502 0.068863355 0.08764203
-0.17510165 -0.1007802 0.093795136 0.05317722 0.07917142 0.109118454 0.23290601 0.08135859
0.0014678971 0.009561702 0.082717165 0.1745288 0.17808166 0.07138017 -0.16734955 -0.10781523
0.033230547 0.10040422 -0.027727928 -0.003645906 0.031971216 -0.12128269 0.09442601 -0.034326036
0.013543048 0.21472664 -0.0017359699 -0.1901171 0.18223019 0.13325511 0.118736565 0.0010352188
0.11136569 0.017835815 -0.07590044 -0.13372043 0.17937821 0.081049316 -0.17603128 0.10318274
0.016335111 0.17972605 0.0993788 0.10464297 0.16131766 -0.14209138 -0.22254118 0.14134753
-0.07079365 -0.12107411 0.052583452 -0.039765324 0.016617505 0.1156753 -0.01659666 0.1758009
-0.06437328 0.08506015 -0.02791322 -0.05916249 -0.11574917 0.19567855 0.05544662 0.07617979
-0.18005832 -0.13999006 0.08882825 -0.07432488 0.009388282 -0.019750727 -0.07214178 0.18150386
-0.034022108

bias f4 [3]
00000000: 4969 603e cd81 3abd b317 753d
0.21915163 -0.045533944 0.059837054

weight f4 [3, 3, 3, 3]
00000000: 7664 883d 655c 3d3d 580a 8cbd 277a db3c
00000010: fb5a 17be e99e 2d3e b00f d43d a795 1ebe
00000020: acf4 0f3e 9739 203e 3ba4 4f3e a57a 0abd
00000030: 0356 473e 4b08 08bd 5a57 22be 48c1 01be
00000040: 550a f03d 8a7f d13d 8134 3c3e e989 023e
00000050: 0751 d73d 0b9b 08be 8368 59bd 1d4f d03d
00000060: e75d 02be a6c5 0ebe 8e96 eebd 4f0f e03d
00000070: ec1e 1abe f840 393e a8af 2b3e 4a5b 08be
00000080: a130 493d 22a3 9fbd b818 27bd 569a 163e
00000090: 22d5 9c3d f4ea 84bc 79d9 02be 0b0b 3fbe
000000a0: bffb a3bd a889 393e 587a d8bd 65a4 c4bd
000000b0: 4e62 07be a6c5 18be ce0a 53bd 7a17 afbd
000000c0: 305d 803d d443 093e 46d7 79bd b76d af3d
000000d0: e991 1bbe 0452 643b 941a 0abd d2a7 08be
000000e0: 1e3e d8bc 4d73 ecbd ae2a 003e abb8 79bd
000000f0: dead 9cbb 2dea 00be eccc f3bd 1aa7 d3bd
00000100: 3ada 9fbd ce3e bebd 140e 57bd 0ac4 033e
00000110: 259f 4abe 3c6c 3b3e 13c7 a3bd d11f b03b
00000120: 16ae d9bd 6f87 f63c 054f 233e 8a74 b83c
00000130: 3769 12bd 08cb 46be a06b 03be f76a c3bc
00000140: 7205 903d
0.066597864 0.046230692 -0.068379104 0.026791645 -0.147808 0.1695515 0.10354555 -0.15486775
0.14058179 0.15646969 0.20277493 -0.03380837 0.19466405 -0.033211034 -0.15853634 -0.12671387
0.11720721 0.10229404 0.18379404 0.12747921 0.105135016 -0.13340394 -0.053078186 0.1017134
-0.12731133 -0.13942584 -0.1164981 0.1094042 -0.15050858 0.1809119 0.16766226 -0.13316074
0.04911864 -0.07794787 -0.040795058 0.14707312 0.07657839 -0.016225316 -0.12778272 -0.18656556
-0.08007001 0.18118918 -0.1057021 -0.09601668 -0.13221094 -0.14919147 -0.051523976 -0.085494
0.06267774 0.1340478 -0.060996316 0.08565848 -0.15192379 0.0034838924 -0.033716753 -0.13345268
-0.026396807 -0.115454294 0.12516281 -0.06096713 -0.004781469 -0.12589331 -0.1190432 -0.103346065
-0.07805295 -0.09289323 -0.05250366 0.12867752 -0.19787271 0.18303007 -0.07996955 0.0053748866
-0.106289074 0.030093877 0.15948112 0.022516508 -0.035744872 -0.19413388 -0.12834024 -0.023854716
0.070322886

bias f4 [3]
00000000: 783c 543e 0512 97bd 16a5 a53d
0.20726192 -0.07376484 0.08088128

weight f4 [3, 3, 3, 3]
00000000: 6c05 5c3e 27dd cdbd e245 833d 7b8a bcbd
00000010: 0fd6 9b3d 33c7 283e 6a52 83bd 5ea0 053e
00000020: 53e9 11bd 42dd ea3d 8139 33be 6f23 9dbd
00000030: 4200 d3bd dbaa b2bb 9089 a53d e3d2 c8bc
00000040: 5333 b53d 1a49 36be 9a73 253e ecb7 8ebd
00000050: 9a4c d73d e511 ebbd 5ab8 fa3d c0c9 a53d
00000060: e31a 043e dc23 4c3e 261f 053e f305 68bd
00000070: fa65 f93d ad71 eb3c 3301 433e fbf2 1dbe
00000080: 8e70 1bbe ab2f 423e ab8f 1c3e bbab fb3d
00000090: 42ab 8d3d 746b 2a3e f6d2 ef3c 4821 1b3e
000000a0: fb54 a7bc 474b a93d f60b d43d 31ff 36be
000000b0: 02a9 093d a3fa 113d 7277 213d ecb3 bc3c
000000c0: 2d4e 0ebe 8f74 a83c ea3d 303e 391c 463e
000000d0: ea99 07be b258 dfbc 2391 28bd 613f 053e
000000e0: d284 8d3d d42e a33c 77a3 5c3d dc8b d8bd
000000f0: 7751 04be 0d6d 023d d702 d13d 703d 3f3e
00000100: 4ecd febd be17 adbc a9a4 fabd 0a1c fc3d
00000110: 382f 0cbe c25b 373e 86dd 6cbd bb98 ea3d
00000120: e15d d1bd bf5f afbd 28f1 2e3e 6cc2 243e
00000130: 150e a13d cfd5 143e fe09 0abe 7a79 63bc
00000140: 82b2 40bd
0.21486443 -0.10051947 0.064098135 -0.092061006 0.07609188 0.16482238 -0.064122036 0.13049456
-0.035622906 0.11467983 -0.17502405 -0.07672774 -0.103027835 -0.0054524965 0.080828786 -0.024514621
0.0884768 -0.17801324 0.1615738 -0.06968674 0.105126575 -0.114780225 0.122421935 0.080951214
0.12900881 0.19935554 0.13000163 -0.0566463 0.121776536 0.028740728 0.19043426 -0.15424721
-0.15179655 0.18963496 0.1528918 0.12288614 0.069174305 0.16642553 0.029275399 0.15149415
-0.020426264 0.08266311 0.10353844 -0.17870785 0.033608444 0.035639416 0.039420553 0.023035012
-0.13897009 0.020563392 0.17211118 0.19346704 -0.13242307 -0.027263973 -0.04115404 0.13012458
0.06910099 0.01991979 0.05386683 -0.10573551 -0.12921701 0.03184228 0.1020562 0.1867578
-0.124415025 -0.021129485 -0.12238438 0.123100355 -0.13689888 0.17906097 -0.05782845 0.11454912
-0.10222984 -0.08563184 0.17084181 0.16089791 0.07864014 0.14534687 -0.13480374 -0.013883943
-0.04704524

bias f4 [3]
00000000: cfa6 a0bd 0057 e8bd 4935 3cbc
-0.07844316 -0.11344719 -0.011487314

weight f4 [3, 3, 3, 3]
00000000: 366a 0abe bfb1 36be 720d 93be f72b 4d3d
00000010: bc38 be3d 33e7 1d3e 6f15 26be 848a 2b3e
00000020: f4c4 4d3e 2e04 9abd 42ec afbe 44d8 233d
00000030: 121d f7bd fee8 84be caf6 4abe 1eae ee3d
00000040: 38ef 10be dc6a 073e dcd7 47be 7141 193b
00000050: 4648 f13d 8b99 fc3d aa5d 0e3e 9512 813d
00000060: 9473 1b3e a208 1cbd 80e1 f73d 81c5 aa3d
00000070: c869 48be 7241 27be 744d b7bd ddbb 6abc
00000080: 606e bdbc c6ea e03d 5395 443e 423b 383e
00000090: de8b 0a3e e189 4f3e d3f7 f33c 1b9b 963d
000000a0: 5cab c8bc e7cc bfbd 2162 a4bc e09d 633e
000000b0: 5e50 4d3e d36b fa3c 4014 b4bd f015 e5bd
000000c0: b55e 94bd 139f 663d d74f ed3d 7afe 623e
000000d0: a4d8 3dbc 42d6 0ebe 0e58 4a3e f6fc abbd
000000e0: 6efa 60bd 80ba bb3c 097e 0b3e 7f08 223e
000000f0: 7517 fc3d c1e2 80bd 9b78 41be 77cb 4a3e
00000100: 3a6f 3b3c a8c8 663d 9ed0 2a3e 3cf8 dc3d
00000110: b7ac 7ebd 8c6d 06bc 5add e83d f1db 2c3e
00000120: cf10 f73c 6790 e6bc 372c b4bd 476c cc3d
00000130: 567f 82bd ac96 333e 4437 683e 7a11 c9bd
00000140: c72e 68bd
-0.13517079 -0.17841242 -0.28721195 0.050090756 0.09288165 0.15420227 -0.16219114 0.16752058
0.20094663 -0.075203285 -0.34359938 0.04000117 -0.120660916 -0.2595901 -0.19820705 0.11654304
-0.14153755 0.13224357 -0.19515938 0.0023384953 0.11781363 0.123339735 0.13902918 0.06302372
0.15180808 -0.03809417 0.121035576 0.08338452 -0.19571602 -0.16333559 -0.0895032 -0.014327017
-0.02312392 0.109822795 0.19197588 0.17991355 0.13529918 0.2026744 0.029781258 0.07353803
-0.024495773 -0.09365254 -0.020066323 0.22228193 0.20050189 0.030568993 -0.08792925 -0.11185825
-0.072446264 0.05630405 0.11587494 0.22167388 -0.011587296 -0.1394892 0.19760153 -0.08397858
-0.05492633 0.022916079 0.13622297 0.15823554 0.123091616 -0.0629325 -0.18893664 0.19804178
0.011440093 0.056343704 0.16681144 0.107895344 -0.062176432 -0.008204829 0.113703445 0.16880776
0.030159382 -0.028145028 -0.08797496 0.0998159 -0.06371944 0.17537946 0.22677332 -0.098177865
-0.056685235

bias f4 [3]
00000000: 925d 953d 3448 423d ac2c 2e3e
0.07293238 0.04743214 0.17009228

weight f4 [3, 3, 3, 3]
00000000: e6c7 da3e 51f9 f93e bf00 aa3e 88ed 4e3d
00000010: 9bae 1a3e 2f9b ecbc af55 1c3e 8403 c33e
00000020: 086a 02be 1f44 413e dba7 133e 7837 c93d
00000030: 4bd8 3bbd 0a6e d33c cd79 373e cfa8 0dbe
00000040: 44f9 22be ec7a e8bc b10e bfbd 99ae f73d
00000050: c4a7 ea3b 1896 0ebe 7e22 233e bbf9 8ebc
00000060: ae53 443e 0063 39bd 7008 533e 325f 33be
00000070: 9e88 1cbf 7432 07bf 9ed6 0f3f 62a6 f73e
00000080: 2cdd 123f 5d22 733e 34c9 f6bd e4fd 833b
00000090: b397 413d 026f 38be f405 1c3e 5dec 1dbe
000000a0: c31b a1bd 825c 2ebe 158d e93d 73b2 b9bd
000000b0: b4df 3dbe 5afb 22be b0cd 103e 7ff3 06be
000000c0: 523a 19bd 87ca 303c f2fe ab3d e1e0 03be
000000d0: 6013 e93b e46b 8a3d b29d a0be 8f45 3f3f
000000e0: 42b2 033f 2ba5 a83e ff50 393f 4ff0 383f
000000f0: 2c24 f1be a631 013f d65f 5c3d d2d9 633e
00000100: 9c18 be3c 0bc7 6bbd aa7b 9c3d e8fd b23d
00000110: dd75 d2bd 377b 113d 27d6 b5bd 84d1 363d
00000120: 845d 98bd b99b 513e 8b40 b93d 70e8 e9bc
00000130: 40a5 90bd dac5 4cbd c6bc 013d f2a0 723d
00000140: 3f47 6f3d
0.42730635 0.48823026 0.33203694 0.050519496 0.15105669 -0.028882591 0.1526706 0.3808862
-0.1273576 0.18873642 0.144195 0.09825033 -0.04586057 0.025809307 0.17917557 -0.13833927
-0.159154 -0.028378926 -0.09328974 0.12093849 0.0071611125 -0.13924444 0.15931126 -0.017453065
0.19172546 -0.04526043 0.20608687 -0.17516783 -0.6114596 -0.5281136 0.56186855 0.48369128
0.5736873 0.23743577 -0.12050095 0.004028069 0.047263812 -0.18011096 0.15236646 -0.15422197
-0.07866623 -0.17027476 0.114038624 -0.090672396 -0.18542367 -0.15916196 0.14140964 -0.13178824
-0.037409134 0.010790474 0.08398236 -0.12878753 0.0071129054 0.0675886 -0.31370312 0.74715513
0.51443875 0.32938513 0.72389215 0.7224168 -0.4709791 0.5046638 0.053802334 0.2225106
0.023205094 -0.05756287 0.076407745 0.08739835 -0.10276387 0.035517897 -0.08878737 0.044633403
-0.07439712 0.2046956 0.09045514 -0.028553218 -0.07062769 -0.049993373 0.03167417 0.05923552
0.058417555

bias f4 [3]
00000000: cc57 ae3d 419b 423e 6d59 ebbd
0.0851284 0.19004537 -0.11491666

weight f4 [3, 3, 3, 3]
00000000: d313 4cbe 321d 863c 62b1 48bc 9951 183d
00000010: 8d44 003e 651b 3e3d 93a6 fdbd d9a1 39be
00000020: ab68 e2bd d8c5 f9bd 09f7 173b a2f8 5ebe
00000030: 56f1 e1bd 0ea2 1dbe 2d4d 0bbe 8dd8 0fbe
00000040: 5fd1 2c3c f7e2 d83d cfc9 d8bd 48ed bbbd
00000050: 69d7 b53d 2461 9bbd fee4 9abc e883 b2bd
00000060: 8192 a73d b880 823d 91b8 ca3d e150 10be
00000070: 3092 39be 43f1 193e 90af 30bd 50e3 d5bc
00000080: 880e a73d 291b f43c 5842 e0bd 744a 56be
00000090: a21c e9bd 3b88 dc3d 1408 973c d4ab d03d
000000a0: 92f7 783d 68e7 c83d 6dfd d63d ea49 a3bd
000000b0: 1659 f93d 7ac8 993d a178 f5bd 0abe 0e3e
000000c0: 6281 153e cfd8 9ebd 90bb 1cbc 3e04 35be
000000d0: 28e9 9abd c08a cb3d b0fe 5ebc 51cb a6bd
000000e0: 7074 39be 690f 05bd afa9 6cbd 5b6f 26be
000000f0: b20b 4dbe 8b9e 043d ed69 da3d 54a4 533d
00000100: 8e39 b13d eb48 46be 76cd 09be 969a 0b3c
00000110: de50 2ebe 6cb9 a33d 0332 103d b3c4 41bd
00000120: 7856 40be 2445 0dbd e6f1 113e 273d 13be
00000130: a6e4 a63d 80d8 f0bd af6a 3c3d 6efc 34be
00000140: 40da a63d
-0.19929437 0.016371343 -0.012249323 0.037187193 0.1252615 0.046412844 -0.12385287 -0.18128146
-0.1105512 -0.12195939 0.0023188016 -0.21774533 -0.11032359 -0.1539385 -0.13603659 -0.14047451
0.010547965 0.10590165 -0.10585367 -0.09176117 0.08878977 -0.075868875 -0.01890802 -0.08716565
0.0818224 0.063722074 0.098984845 -0.14093353 -0.18122172 0.1503344 -0.04313618 -0.026109368
0.081570685 0.029798107 -0.10950154 -0.20926839 -0.113824144 0.107681714 0.01843647 0.101890236
0.060782976 0.09809762 0.10497556 -0.07973082 0.12175195 0.07508941 -0.11985899 0.13939682
0.14600137 -0.07756197 -0.009566203 -0.176774 -0.07564002 0.09938574 -0.013610527 -0.08144248
-0.18110824 -0.0324854 -0.05777901 -0.16253416 -0.20023993 0.03237776 0.10664735 0.051670387
0.08653556 -0.19363753 -0.13457283 0.008520743 -0.17023036 0.07994351 0.035203945 -0.047306728
-0.18782985 -0.034489766 0.14252433 -0.14378797 0.0814908 -0.11760044 0.04600018 -0.1767442
0.08147097

bias f4 [3]
00000000: 7903 053e a8e3 06bd 14d6 e3b8
0.12989606 -0.032931954 -0.00010864079

weight f4 [3, 3, 3, 3]
00000000: 8611 eabd e61f ee3d 7e43 07be 2183 d8bd
00000010: 00fa 5f3c 0db3 c6bd af9d 233e 2ddc 2e3e
00000020: 90f2 24bc 8766 033e 0625 08be 786b b13c
00000030: 9bd8 053e f178 433e fbca 293e e08f d2bd
00000040: 1f27 2fbe 62e2 28be 7025 713c 0d8b 07be
00000050: 004f d83b 50d5 63bd e89e aabd c27e a33d
00000060: 886a d73c 10e9 283d 1013 2fbe fd8f f8bd
00000070: 08f4 20be 6354 3e3e 5807 1ebd 79c9 20be
00000080: ec8a 453d c05c eabd 0cea 333d 39b6 02be
00000090: 89a7 203e 04e9 58bd e917 2ebe 20e6 7abc
000000a0: ec26 2dbe 6cf1 033d 7268 13be ec20 22bd
000000b0: 0021 6ebb 859f 063e a3c5 44be 1263 25be
000000c0: 4c4f 34bd 908c 5b3c cba5 abbd 5f08 0ebe
000000d0: 5240 fb3d 0b4a 193e 17b3 313e bc8c 4d3d
000000e0: 2f0e 1c3e 200b f6bc dcc8 fcbd c183 b4bd
000000f0: 008f 0d3b 9a7e a0bd 33c9 f9bd dce4 1bbd
00000100: a330 0a3e ac44 26bd 30af 013c e5d6 033e
00000110: 1390 40be 58ed 85bd 3c50 87bd a7b7 9ebd
00000120: bd8e 1d3e 168a f0bd 75f3 10be 1c5c 40be
00000130: c925 3d3e 8d79 033e 1e0b 3fbe 0861 b1bc
00000140: b314 26be
-0.114291236 0.11627178 -0.1320934 -0.10571886 0.0136704445 -0.0970212 0.1597812 0.17076178
-0.010067597 0.1283208 -0.13295373 0.02165769 0.1307091 0.19089104 0.16581337 -0.10281348
-0.17104767 -0.16492608 0.014718398 -0.13236637 0.0066012144 -0.055623353 -0.0833109 0.079831615
0.026295915 0.04123789 -0.17097116 -0.121368386 -0.1571809 0.18586878 -0.038581222 -0.15701856
0.04822819 -0.11443472 0.043924376 -0.12764825 0.1568891 -0.052956596 -0.17001309 -0.015313655
-0.16909379 0.03221266 -0.14395311 -0.039582178 -0.0036335588 0.1314679 -0.19216017 -0.16151074
-0.044020936 0.013400212 -0.08381232 -0.13870381 0.122681275 0.14969651 0.17353474 0.050183043
0.15239786 -0.030034602 -0.123429984 -0.088141926 0.0021600127 -0.07836647 -0.12196579 -0.038060054
0.13495116 -0.040592834 0.007915303 0.12874945 -0.1880496 -0.0653941 -0.066071 -0.07749873
0.15386482 -0.11745088 -0.14155371 -0.18785137 0.18471445 0.12839337 -0.18656585 -0.021652713
-0.16218834

bias f4 [3]
00000000: 36f5 1cbe 7e03 cebd f882 a33c
-0.15327916 -0.1005926 0.019959912
