Results/16.04.2025.pt (torch, 26487 bytes, 30 tensors)

weight f4 [3, 3, 1, 1]
000000 00 00 80 3f 00 00 00 00 00 00 00 00 00 00 00 00
       1.0 0.0 0.0 0.0
000010 00 00 80 3f 00 00 00 00 00 00 00 00 00 00 00 00
       1.0 0.0 0.0 0.0
000020 00 00 80 3f
       1.0

bias f4 [3]
000000 1d c9 e5 be 92 cb df be 17 d9 ce be
       -0.4488 -0.4371 -0.404

weight f4 [3, 3, 1, 1]
000000 00 00 80 3f 00 00 00 00 00 00 00 00 00 00 00 00
       1.0 0.0 0.0 0.0
000010 00 00 80 3f 00 00 00 00 00 00 00 00 00 00 00 00
       1.0 0.0 0.0 0.0
000020 00 00 80 3f
       1.0

bias f4 [3]
000000 1d c9 e5 3e 92 cb df 3e 17 d9 ce 3e
       0.4488 0.4371 0.404

weight f4 [3, 3, 3, 3]
000000 33 99 d5 bd 51 85 47 bd 7d 8b b5 bd 41 ad 89 bd
       -0.10429611 -0.048711125 -0.08864496 -0.06722499
000010 24 2e 17 3e a1 e8 2d 3e e5 6c 71 3d 5d 15 41 3e
       0.14763695 0.16983272 0.05894174 0.18855806
000020 ed 3a f6 3c 89 f8 ce 3d 2e 12 43 3e 43 26 26 3e
       0.030057395 0.10105998 0.19049904 0.16225533
000030 de 45 9d 3d fe ca 20 3e 5a 4c 8b bd 09 6e 25 be
       0.07679342 0.15702435 -0.06801672 -0.16155256
000040 0a 4f 97 bd d7 e8 3a 3e cc f6 b9 bd cd 86 02 be
       -0.073881224 0.18252884 -0.09080276 -0.12746735
000050 11 a6 11 38 c2 88 8b bd 71 93 32 3e 5e b8 02 bc
       3.4725355e-05 -0.06813194 0.17439057 -0.007978527
000060 99 1e 19 be d8 3b 20 bd 39 b9 2d be 38 23 a0 3b
       -0.14953078 -0.03911957 -0.16965188 0.004887011
000070 1c ac 13 3e 00 6a 1d 3e e7 71 fe 3d e5 47 c9 3d
       0.14421123 0.15372467 0.12424069 0.09828166
000080 7d 1b 19 be 07 95 a7 3d aa 86 fb 3d 50 5f 33 3d
       -0.14951892 0.081827216 0.122815445 0.04379207
000090 9b 34 06 3e 18 ba 38 be 51 7d 5c bd 32 c8 20 3e
       0.13106005 -0.18039739 -0.05383045 0.15701368
0000a0 39 c1 0e be b1 f0 9f bc 90 b7 a0 3d 5e 2b 2c 3e
       -0.13940896 -0.01952395 0.07847512 0.16813418
0000b0 03 21 8c bc e4 bf cf 3d f7 ee 2a be a7 61 de 3b
       -0.017105585 0.10144022 -0.1669272 0.0067865434
0000c0 5e 60 80 bd 7a 21 cc bc 85 04 c1 3c 51 e1 25 bc
       -0.062683806 -0.024918307 0.023561725 -0.01012452
0000d0 57 37 12 3d 9a 51 ab bd 7e c8 0a be 58 71 01 be
       0.035697307 -0.08365174 -0.13553044 -0.12640893
0000e0 9a 78 2f be 7e ac 33 3e 63 40 e7 3c ce e3 33 3e
       -0.1713585 0.1754627 0.028228944 0.1756737
0000f0 24 a7 23 3e 18 f4 a2 bd 4f 80 13 bd 20 c4 5a bc
       0.15981728 -0.079567134 -0.036011036 -0.013352424
000100 77 6f ad bd 8e bd 9e bc 52 5d 07 be 47 e5 07 3d
       -0.08468526 -0.019377496 -0.13219193 0.03317764
000110 58 4c 32 3e 05 27 40 be ea 45 16 3e 8e a7 3f 3e
       0.17411935 -0.18764885 0.14675108 0.18716261
000120 9f b4 00 be 92 92 cc bc 5a ac 0a bd 9b e0 20 3e
       -0.12568901 -0.024972234 -0.033855774 0.1571068
000130 21 d6 7d 3c a7 bf d5 bc 5f 10 29 be 03 b1 04 3e
       0.015492947 -0.026092364 -0.16510151 0.1295815
000140 4f 20 38 be
       -0.17981075

bias f4 [3]
000000 8b 90 48 3e a2 ba f6 bd 34 4b c6 3c
       0.19586389 -0.12047316 0.024205782

weight f4 [3, 3, 3, 3]
000000 d6 63 6f 3d 65 86 21 3e ea 04 9c bc 90 5d 0e be
       0.05844482 0.15773924 -0.019045312 -0.13902879
000010 5a 6e 4d 3d 47 b3 29 bd bb f8 19 be f9 14 e7 3d
       0.050154068 -0.041430738 -0.1503629 0.11283297
000020 12 8b 30 3e d9 a9 72 3d c4 c8 ee bd 69 04 85 bd
       0.17240551 0.05924401 -0.11659387 -0.06494982
000030 36 7b 2d 3e 37 52 52 3d 53 73 74 bb 53 1e 36 3e
       0.16941532 0.051347937 -0.0037300184 0.17785005
000040 bf ed 6d 3d 92 a4 50 3c ae 69 45 3c 44 16 26 be
       0.05808806 0.012734549 0.012049122 -0.16219431
000050 70 fb b2 3d 3f fa b5 3c f3 79 aa bd 2e 63 72 bc
       0.08739364 0.022214053 -0.08324041 -0.014794154
000060 4f fd 3e be be 66 47 bc 60 48 b9 bd d4 6c 1f be
       -0.18651317 -0.012170492 -0.090470076 -0.15568858
000070 cc f9 39 3e cc ee fb bd e8 67 d2 3d b9 3c 22 3e
       0.18161696 -0.12301406 0.10273725 0.15843476
000080 91 58 93 bd 4c 42 11 3d 7a 7c af 3d 9f 3c 1d bd
       -0.07194627 0.035463616 0.08568664 -0.03838789
000090 74 ad 27 be 23 08 cf 3c e1 d7 fa 3c 81 e7 22 3e
       -0.16374761 0.025272435 0.030620517 0.15908624
0000a0 d0 ab 9b 3c b3 57 19 be fb 5c f8 bd aa 50 22 3e
       0.019002825 -0.14974861 -0.121271096 0.15851083
0000b0 b0 67 0e bc d0 b6 f1 bd 0b fc 38 3e 91 a4 18 bd
       -0.008691713 -0.11802447 0.18064897 -0.037266318
0000c0 cb 68 1f be 93 13 09 bd 40 a2 34 be 2e 80 ab 3b
       -0.15567319 -0.033465933 -0.17640018 0.005233786
0000d0 3c 36 14 3e 3b bc 94 bd 47 ff 39 be 86 ab 61 3a
       0.14473814 -0.072624646 -0.18163787 0.0008608628
0000e0 75 e9 ef b9 c8 a5 27 3e ed 18 e0 3c d8 a2 3e bd
       -0.0004575957 0.16371834 0.027355636 -0.04654202
0000f0 e6 f1 10 be 0d 35 33 bd 7a 49 af bb f1 33 65 be
       -0.14154777 -0.043751765 -0.0053493353 -0.22383095
000100 33 c4 6b 3d ed 4c a8 3a 1a 32 4f be ff 05 3d be
       0.057560157 0.0012840308 -0.20233956 -0.18459319
000110 34 4e 8c bd d2 83 8e bc d6 32 51 3d 09 7e b7 bc
       -0.068508536 -0.017396841 0.05107387 -0.022398965
000120 a0 05 bc bd ee 8c 35 bd a0 5e 13 3e b3 96 3e be
       -0.091807604 -0.044323854 0.14391565 -0.18612175
000130 06 20 21 be 5a d9 93 bd 54 33 3d 3d 09 8a 18 3e
       -0.15734872 -0.07219191 0.04619153 0.14896406
000140 15 db f7 3d
       0.121023335

bias f4 [3]
000000 76 b3 25 bd f1 5f d9 bc 4e 68 e7 bd
       -0.04045435 -0.026535006 -0.112991914

weight f4 [3, 3, 3, 3]
000000 c9 c6 30 bd 2a 95 9b 3d a6 b7 2d 3e 3e f1 74 bd
       -0.043158326 0.0759681 0.16964588 -0.05980038
000010 a9 91 84 bd 22 47 32 be 3e fc 00 3d d5 48 c5 3d
       -0.06473095 -0.17409948 0.031490557 0.09633032
000020 ca 99 f2 bd 30 10 8e 3d db fa cb 3c 92 79 4b 3e
       -0.11845739 0.06936681 0.02489989 0.19870594
000030 3e 8c 21 3e 2c 90 38 3e 65 a2 45 bd 3f f4 c5 3c
       0.15776154 0.18023747 -0.048250575 0.024164317
000040 97 23 45 3e f6 1d f7 bc 7a 8b eb bd fd f6 e9 bd
       0.19251858 -0.030165654 -0.115012124 -0.114240624
000050 ed 23 ff bd c7 29 39 be 23 2d 55 bd ab c7 eb 3d
       -0.12458024 -0.18082343 -0.052045 0.11512693
000060 5a 78 1b bd 16 9e 27 3d f4 13 73 b9 23 87 a0 bc
       -0.037956573 0.040922247 -0.00023181719 -0.019595688
000070 86 d2 af bd 6b e0 d1 3d e0 cb 3a 3d 6d 19 bb 3c
       -0.08585076 0.102478825 0.045604587 0.022839272
000080 9d a9 31 be 4b 0d c6 3d 98 3e 05 3e 0c 6c 0d 3e
       -0.17349859 0.09670504 0.13012159 0.13810748
000090 24 d8 c1 3c b7 cc 0e be 99 c3 07 be eb f8 7d 3d
       0.023662634 -0.1394528 -0.13258208 0.062004965
0000a0 ae 45 24 3e a8 c1 ae bd 7d f0 01 be 67 44 aa bc
       0.16042206 -0.08533031 -0.12689395 -0.02078457
0000b0 eb 15 2e be 3e 2a da bd ed 81 7f bd fe 44 94 3d
       -0.17000549 -0.10652588 -0.062379766 0.07239722
0000c0 bd 24 e5 3d b7 ab 94 3d ba ac 03 3d 6a a0 a3 bd
       0.11188648 0.072593145 0.032147147 -0.07989581
0000d0 08 42 90 bd f8 2b 6a 3d 49 a6 37 be 51 d1 11 3e
       -0.070438445 0.057170838 -0.17934527 0.14240004
0000e0 7e 56 38 3e 97 e6 ac 3d 2c b7 34 3c ea de 12 be
       0.18001744 0.08442419 0.01103 -0.14342847
0000f0 3c 85 d9 3c 60 a4 bb 3b 99 dc 08 3c 3c 04 3c bd
       0.026552789 0.005726382 0.008353376 -0.045902476
000100 1a ca 3a 3e f2 d7 27 3e de 01 e4 3d 21 5d df bb
       0.18241158 0.1639097 0.11133169 -0.0068165218
000110 ec 76 d5 3d 79 70 11 3e f7 3b 20 3e 93 8f 37 3e
       0.10423073 0.14203061 0.15647875 0.17925863
000120 26 12 33 be 79 f3 44 be 7a 32 34 bd f7 86 b8 bd
       -0.17487392 -0.19233502 -0.04399345 -0.090101175
000130 5a 7c 98 bd 2f c9 c5 bd b3 fa e5 bd 61 8b 95 3d
       -0.07445593 -0.09657513 -0.11229458 0.07301975
000140 71 2c 2c be
       -0.16813828

bias f4 [3]
000000 b1 6f c6 3d 47 87 3a be d8 43 02 be
       0.09689272 -0.18215667 -0.12721193

weight f4 [3, 3, 3, 3]
000000 36 75 ae bd 5c 43 5e be 78 ce 4f be 58 9f 06 be
       -0.0851845 -0.21705383 -0.20293605 -0.13146722
000010 9e 59 de bd 7b b0 38 3d b8 c0 2b be e4 c2 93 bd
       -0.10856937 0.04509018 -0.16772735 -0.07214907
000020 41 b5 4b be 63 c7 21 3e 98 84 71 bd 09 f0 96 3c
       -0.19893362 0.15798716 -0.058964342 0.018425005
000030 9f 18 ce bd 94 f7 12 3d 15 b1 6c bd d0 94 d8 bd
       -0.1006329 0.03588064 -0.057786066 -0.10575259
000040 a9 54 23 3e 29 4a 2c bd 09 48 00 bd df 09 a3 bc
       0.15950264 -0.042062912 -0.031318698 -0.019902168
000050 bd 23 9e bd d9 34 07 be 82 58 ef 3d 53 89 df bd
       -0.0772166 -0.13203754 0.116868034 -0.109148644
000060 56 27 d9 3c 42 3e 1e be 0f 92 3a be 98 01 bc bd
       0.026508015 -0.15453437 -0.1821978 -0.091799915
000070 6f 2b f1 3d 3a 08 06 3e 69 8c 20 be f1 98 38 3e
       0.117758624 0.13089076 -0.15678562 0.18027093
000080 05 c0 2a be 4c 82 65 3d 12 e7 20 3e 19 46 76 3d
       -0.16674812 0.056032464 0.15713146 0.060125444
000090 69 92 3b be 05 16 2a be 83 ae 25 3e 57 c0 14 3e
       -0.1831757 -0.16609962 0.16179852 0.14526497
0000a0 d5 d3 f1 3d 57 be 21 be fb 9c 8e bd 4f 73 05 bd
       0.11807982 -0.15795265 -0.069635354 -0.03258067
0000b0 97 27 28 bd 58 b4 e3 3a cf 46 2c be fb 01 b5 3d
       -0.04105338 0.0017372472 -0.16823886 0.08838268
0000c0 ab 17 19 be b2 27 2e be 7d f5 2d be 84 f3 06 3d
       -0.14950435 -0.1700733 -0.16988178 0.03294708
0000d0 44 56 0d 3e da 96 a9 bc 13 95 12 3e 4c 6d 8d bd
       0.13802439 -0.020701814 0.1431468 -0.06905612
0000e0 b1 e4 92 bd f4 6c 3c 3e 71 97 43 3e 5f 21 64 3d
       -0.07172526 0.18400937 0.19100739 0.055695888
0000f0 d9 8e af 3d 5d bc ca bb 66 f8 38 3e 4c 9a 39 be
       0.08572168 -0.0061870054 0.18063506 -0.18125266
000100 ff e1 0f 3e 65 47 1d 3e 65 12 a4 bd c9 0e 34 3d
       0.14051054 0.15359266 -0.08011321 0.043959413
000110 2a 1f 55 3d da e3 2f 3e e7 94 09 be ed 84 3d 3d
       0.052031673 0.17176762 -0.13435708 0.046269346
000120 a7 4d 57 bd 31 ca 2a 3e 6a b1 8b 3d 06 86 bb 3d
       -0.05256429 0.16678692 0.068209484 0.09156422
000130 d9 61 15 3d 68 25 f0 3d 81 6a c6 bd a6 aa cd bd
       0.036470268 0.11725885 -0.09688283 -0.10042314
000140 3c 35 f1 bd
       -0.11777732

bias f4 [3]
000000 82 7f ac 3c 71 c4 3a 3e 18 31 26 be
       0.021056894 0.18238999 -0.16229665

weight f4 [3, 3, 3, 3]
000000 22 62 9b 3d 23 08 94 3d c7 ea 23 be 86 ae 05 3e
       0.07587077 0.072281145 -0.16007529 0.13054857
000010 f4 52 9c bd c9 4d 15 be c3 f4 15 be fe c3 a8 bc
       -0.076330096 -0.14580454 -0.1464415 -0.020601269
000020 08 50 c7 bd 79 89 e0 bd 89 9b 30 3d a4 68 20 3d
       -0.097320616 -0.10963721 0.04311708 0.039162293
000030 af b5 15 bb d1 9e 4f bd 83 0e 36 be 27 54 27 3c
       -0.0022843888 -0.05068857 -0.17778973 0.010212935
000040 76 b4 8b 3d 02 6b 2d 3e fd 66 04 bd bd 23 72 bc
       0.068215296 0.16935351 -0.03232478 -0.0147790285
000050 a1 8d aa 3d 62 eb f5 3d 94 06 3f 3d 24 c2 41 3e
       0.08327795 0.12007786 0.046637133 0.18921715
000060 34 b4 14 be 4a 4b 9a 3d b1 9e 35 3e a9 c5 2d 3e
       -0.14521867 0.075338915 0.17736317 0.16969933
000070 25 ed ab 3d f3 85 f8 bc cd c2 98 bb 4b 18 6e 3d
       0.08394841 -0.03033731 -0.004661894 0.058128636
000080 dc 27 5b 3d c2 5b 25 3d 4d 0f 64 3e 9c 88 27 3e
       0.05350481 0.04037071 0.22271462 0.16360706
000090 9a 38 df bd 93 87 ab bd f0 ac 56 bc c9 8b ab bd
       -0.10899468 -0.08375468 -0.013102755 -0.08376271
0000a0 3e 22 54 bd 80 17 e4 3d 3a 2c 09 be af 54 17 3e
       -0.05179047 0.11137295 -0.13395777 0.14778398
0000b0 d2 f1 91 bd b3 22 21 be 64 1a 56 3c e3 85 db 3d
       -0.07126202 -0.15735893 0.013067815 0.10718896
0000c0 1c 2a 3b be 7c 69 3c be 64 b4 1c 3d ce 95 4e 3d
       -0.18277782 -0.18399614 0.03825797 0.050435834
0000d0 46 b2 88 bd f1 12 06 3d c8 62 01 bd 21 1f 32 be
       -0.06674628 0.032732908 -0.031588346 -0.17394687
0000e0 f2 2c 16 be fe 0c 0c bc 9e db 21 3d 95 25 08 bd
       -0.14665583 -0.008548019 0.039516084 -0.033238966
0000f0 ce e0 03 be cb ca 1c be 2c 86 c6 3d f8 41 35 bd
       -0.12878725 -0.15311734 0.0969356 -0.044252366
000100 eb b2 e2 bd 29 ae 04 3e fa 8b e3 bb ce 0f 15 3d
       -0.11069282 0.12957062 -0.0069441767 0.036392026
000110 ab e3 6b bd 6d a7 f3 3d b7 09 15 bd 53 4a 3f 3e
       -0.057590168 0.11897168 -0.036386218 0.18680696
000120 1e c5 28 3e 2e af b9 bd 78 19 ee bd d6 ae 01 3e
       0.16481444 -0.09066616 -0.116259515 0.12664351
000130 f1 cc 60 bc fc 1e 30 be 27 b3 41 3e 48 17 2c bc
       -0.013720737 -0.1719932 0.18915997 -0.010503598
000140 dc 9b 9d bd
       -0.076957434

bias f4 [3]
000000 48 b0 55 3d eb 3d 11 3e e2 57 39 3e
       0.052170068 0.14183776 0.18099931

weight f4 [3, 3, 3, 3]
000000 8b 69 48 bd 74 76 fc 3d 54 e2 e1 bd f9 cd d4 bd
       -0.04892878 0.12327281 -0.11029497 -0.10390849
000010 6c 5d 18 3e 5b e5 4f 3d 81 66 49 be cf d4 84 3d
       0.14879388 0.05075584 -0.19668008 0.064859025
000020 43 66 ec 3d 0c 79 3b be 80 46 00 be d0 24 d1 3d
       0.115429424 -0.18307894 -0.12526894 0.102120996
000030 6d b9 db bd 29 60 d5 3d 33 b8 3f bd e4 66 23 3d
       -0.107287265 0.10418732 -0.046806525 0.039893046
000040 f1 44 5b 3d ea 7d c1 bd 12 e1 09 be 97 95 a3 bd
       0.053532545 -0.09447844 -0.13464764 -0.079875164
000050 e8 89 21 3e 78 c8 31 3d 2a 4c d7 bc 88 32 9f bd
       0.15775263 0.043404073 -0.026281435 -0.0777331
000060 2a 33 2e bc 82 c8 f2 bd 62 52 ed 3d 96 4f 21 be
       -0.010632316 -0.1185465 0.11587979 -0.15753016
000070 3e 29 2d 3d 22 8f a9 bd d9 97 49 3e dd 56 e1 bd
       0.04227566 -0.082792535 0.19686832 -0.11002896
000080 50 e0 33 3e 80 af 91 bd 63 0b c4 bd ab b9 86 3d
       0.17566037 -0.07113552 -0.09572484 0.06578382
000090 7c 65 7b bc eb f2 ee 3d 97 be 23 3e 02 43 f4 bd
       -0.01534402 0.11667427 0.15990673 -0.11926843
0000a0 e2 79 8f bd 16 6e 2b 3e c6 a9 54 3d b0 56 d8 bd
       -0.07005669 0.16741213 0.05191972 -0.10563409
0000b0 43 07 75 3c 7a 74 32 3e 73 31 f4 bd bd b5 53 3d
       0.014955345 0.17427245 -0.11923494 0.05168699
0000c0 4f d0 25 3e 0e 4a c7 3c 87 ce 08 be f2 a3 24 3e
       0.16192745 0.024327304 -0.13360034 0.16078165
0000d0 6b 0b 0f 3e fc 5b d8 3c 44 c5 07 be 0d 22 2b 3e
       0.139692 0.026411049 -0.13258845 0.16712208
0000e0 1a 9c 1d bd 77 26 2a 3e aa 7d a6 3c 50 62 ea 3d
       -0.03847895 0.16616236 0.020323593 0.11444533
0000f0 3c a5 20 be 33 42 0d 3e ef 68 33 3d 0c 1c 8d 3d
       -0.15688032 0.13794784 0.043801244 0.06890115
000100 4f f6 b8 3b 44 cd 88 bd ff 5e af bc 24 b9 33 be
       0.0056445966 -0.06679776 -0.021407602 -0.17551094
000110 69 eb 1b be 18 dc a3 3b c4 f0 2d be a3 f0 40 be
       -0.1522652 0.0050006025 -0.16986376 -0.18841796
000120 73 5e 92 3d 9b 51 cd 3d 28 ec d1 bd 8b ad 19 3e
       0.07146921 0.10025331 -0.10250121 0.15007608
000130 1b 4a a8 3d 86 be 8b 3d 30 2f dd bc 17 94 c5 3d
       0.082172595 0.06823449 -0.02700004 0.096473865
000140 d6 32 04 3e
       0.12910017

bias f4 [3]
000000 cc b9 61 bd 5d 1d 97 bc 68 3d a9 bd
       -0.05510883 -0.018446619 -0.082636654

weight f4 [3, 3, 3, 3]
000000 96 58 f5 bd a7 c8 1d 3e 9c b4 ff 3d cd 08 88 bb
       -0.11979787 0.15408574 0.124856204 -0.0041514398
000010 7c c3 26 be c9 11 0e bd f1 a7 78 bc 5e a8 5b bd
       -0.16285509 -0.03468493 -0.015176759 -0.053627364
000020 b8 12 0f 3d 4d cb f9 bc 95 5c 42 be 13 eb 54 3d
       0.03492996 -0.03049245 -0.1898063 0.051981997
000030 80 34 44 be 0d fe f0 3d 22 c8 0a 3d 9b 7c 15 3d
       -0.19160652 0.11767206 0.033882268 0.036495786
000040 76 c8 8a bd 01 36 d5 3d ee f4 20 3e 4c 20 cc bd
       -0.06776516 0.10410691 0.15718433 -0.09967098
000050 e4 dc 1d 3e 9a 8c ae bd e7 0d 19 bc 84 f1 f9 bb
       0.15416294 -0.08522911 -0.0093416935 -0.007627668
000060 e1 6b 39 3d 39 7c e5 bd 90 31 0e 3e 9a ae 11 3e
       0.045268897 -0.11205334 0.13886094 0.14226761
000070 cf 9a db bd 4e 43 2f 3d bb 51 11 3e 4a 8e a2 3c
       -0.10722887 0.042788796 0.14191334 0.01984324
000080 7a f6 23 3d 9f 7a 41 be c8 2b 26 3e 1d 5b d8 3d
       0.04002998 -0.18894432 0.16227639 0.105642535
000090 e5 9f 20 be 49 ab 15 3e 6e 43 3a 3e 77 2c 30 be
       -0.15685995 0.14616121 0.18189785 -0.17204462
0000a0 74 dd 44 3d 62 42 5d 3d e3 43 4a 3c 14 5b 0c be
       0.048062757 0.054018386 0.012345287 -0.13706619
0000b0 9a c9 df bc 28 82 1c be c8 11 2b 3d 6c a9 a2 bd
       -0.02731781 -0.15284026 0.041765004 -0.07942471
0000c0 03 68 13 be 37 33 ae bc d6 47 b3 bc 5e 53 c2 bd
       -0.14395146 -0.021264656 -0.02188484 -0.09488557
0000d0 d2 1f c1 3d 3d 7e db bd a8 16 69 bd 7c 2c 1d be
       0.09429897 -0.107174374 -0.056906372 -0.15349
0000e0 95 98 bb 3d 2c 50 eb bd 66 13 3c 3d 25 7a a2 3c
       0.09159962 -0.11489901 0.045916937 0.019833634
0000f0 0f 33 f9 bd 67 2b b8 bd 2e 14 d8 3d 96 f6 65 3d
       -0.12167942 -0.08992653 0.10550724 0.056143366
000100 45 b0 13 bd f2 f2 1d be 57 3d 12 be 33 dd db bd
       -0.036056776 -0.15424708 -0.14281212 -0.1073555
000110 12 a0 ac bd 2c db 3b be 87 08 cf 3d 73 fb aa bd
       -0.084289685 -0.18345326 0.10109048 -0.083487414
000120 6d db f4 3d 0d b7 74 bd c7 9f 42 3e 6e 11 fb bd
       0.11955915 -0.059744883 0.19006263 -0.12259184
000130 84 2b fd bd 91 9f d5 3d 48 11 0c 3d 93 3b 16 3d
       -0.123618156 0.104308255 0.03419617 0.03667791
000140 b5 51 94 bc
       -0.018105367

bias f4 [3]
000000 df aa c2 3d 1b 1a 29 be 16 b5 fa bd
       0.09505247 -0.16513865 -0.12241571

weight f4 [3, 3, 3, 3]
000000 b6 b4 8e 3d eb 8c ec bd 59 e9 0d 3e c8 23 c3 bd
       0.069680616 -0.115503155 0.13858546 -0.09528309
000010 5c b2 6a bb 21 5f 31 be f2 e8 03 be 45 92 65 bd
       -0.0035811877 -0.17321445 -0.1288183 -0.056047697
000020 d3 2e da 3d 99 d6 e5 bd af a5 58 3d b1 3c 3c bd
       0.10653462 -0.11222572 0.052892383 -0.045956317
000030 62 82 1c be 50 79 4b bd 2d a1 ca bb 19 6d 29 3d
       -0.15284112 -0.04967624 -0.0061837644 0.04136381
000040 e2 d3 16 be f2 b1 3f be ac 1b 91 bd ff 21 28 3e
       -0.14729264 -0.18720224 -0.07085356 0.16419218
000050 36 1e f8 bd 89 4f b9 bc 73 b6 3e 3d 3c 5a e7 3d
       -0.12115137 -0.022620933 0.046560716 0.11296508
000060 78 60 8c 3d a6 54 3e 3e b3 aa e3 3d b8 31 21 3e
       0.068543375 0.18586978 0.11116543 0.15741622
000070 81 7e 91 3d 44 51 da 3d 05 a5 3b 3d 65 a3 1a 3e
       0.07104207 0.106600314 0.04581167 0.15101393
000080 3a 17 0c bd fe a1 28 3e 52 27 03 3e 5e f5 8a bd
       -0.034201838 0.16468045 0.12807968 -0.06785081
000090 5f 5d 64 3d be d2 9d bc 1d 3e 3a 3e c8 11 cd 3d
       0.055753108 -0.019265529 0.18187757 0.10013157
0000a0 fe f9 34 3d c2 f6 33 3e 7c 6c e9 3d e3 cb ea bd
       0.044183724 0.175746 0.11397645 -0.114646696
0000b0 1f e6 16 3e bf 5f 99 bd 33 5b 30 3e 61 a4 0b be
       0.14736222 -0.07488965 0.1722229 -0.13636924
0000c0 8c 8f a5 3d be 1a 93 3b 01 b1 14 3c 63 41 ae bd
       0.0808402 0.004489272 0.009075404 -0.08508565
0000d0 b9 a9 5d bd 59 e0 10 bc 7b 00 12 3e c2 11 86 bd
       -0.05411694 -0.008842551 0.14257996 -0.06546356
0000e0 a4 cd cd 3d 96 6f 9a 3c 0c 32 13 3e 61 a5 2f 3e
       0.100489885 0.018852036 0.1437456 0.17152931
0000f0 40 90 0a 3e a3 db 93 bd 93 2c 18 bd 2a 41 30 be
       0.1353159 -0.07219627 -0.037151884 -0.17212358
000100 b1 64 89 3b 96 76 23 3d 9f ac 40 3d 0c 4e 46 3c
       0.0041929116 0.039908014 0.047039624 0.012103569
000110 fc a8 72 bd 9e f0 30 3d c0 85 4c bd b9 04 6c 3d
       -0.059243187 0.04319822 -0.04993224 0.05762169
000120 c9 7d a5 3d 9a 16 a3 3d 6d 3d 1f be 49 6d a1 3c
       0.08080632 0.07963295 -0.15550776 0.019705432
000130 e6 af af bd fb d1 d7 39 1c a0 8e 3c 71 00 ed bd
       -0.08578472 0.00041164443 0.01741033 -0.1157235
000140 14 56 e0 bc
       -0.027384795

bias f4 [3]
000000 4c 5a 83 3a 42 17 10 be c3 57 49 be
       0.0010021417 -0.14071372 -0.19662385

weight f4 [3, 3, 3, 3]
000000 5c 3f 11 3e ed 44 29 bc b0 4d 77 3d 98 a8 3e 3e
       0.14184326 -0.010331375 0.060376823 0.18619001
000010 f2 80 8f bd 9c e1 72 bd 83 b3 df bd 3a 14 ff bd
       -0.07007016 -0.05929719 -0.10922911 -0.1245503
000020 4b 98 35 3e b1 6f b8 bd d2 b9 a8 bd 82 9f 49 3e
       0.17733876 -0.090056784 -0.082385674 0.19689754
000030 f3 4f 6e 3d 0f 20 be 3c 8f d9 21 3e 84 af 89 3d
       0.058181714 0.023208646 0.15805648 0.0672293
000040 d3 1e 29 bd 93 f9 e9 bc 3e e0 fa bd 5f 7d 29 be
       -0.041289162 -0.02856139 -0.12249802 -0.16551732
000050 bb ed 38 be 01 39 47 ba 23 e5 f4 3c d0 03 06 3e
       -0.18059437 -0.0007599742 0.029894417 0.13087392
000060 95 7c 7f 3c 3a d7 1f be ea 6f 2c be e5 eb 81 3d
       0.0155936675 -0.15609446 -0.16839567 0.063438214
000070 3f 39 38 be af 62 3e 3e f5 07 86 3d fd cb 2a 3e
       -0.17990588 0.18592332 0.065444864 0.16679378
000080 42 4e e8 3d cf 4a 97 bc a2 da 14 3e e3 33 0d be
       0.113430515 -0.018468289 0.14536527 -0.13789324
000090 57 fb 0f 3e a2 f1 35 be 10 43 3a 3e 70 c4 06 bd
       0.14060722 -0.17767957 0.18189645 -0.03290218
0000a0 2e e5 41 bc 32 96 96 3d ef 42 00 be 6a da e9 3d
       -0.011834426 0.07352866 -0.12525533 0.11418612
0000b0 b7 7f f7 3d 75 b7 1c 3e 0b fd 2b 3e 61 50 e4 bd
       0.120849065 0.15304358 0.16795747 -0.111481436
0000c0 9d 77 91 3d a0 47 1a 3e c7 3e 25 3e 5b c6 0d bb
       0.071028925 0.15066385 0.16137229 -0.0021633122
0000d0 81 85 44 be 10 25 fa bd 3c 5f 3a 3d a8 8c 2c 3e
       -0.19191553 -0.122141 0.04550098 0.16850531
0000e0 4d bd 70 bd 6a c5 21 3e e2 b8 eb bd b9 ce 84 bd
       -0.05877428 0.15797964 -0.11509873 -0.06484742
0000f0 cb 84 83 3d be 7b 1a be 8c 15 eb bd ea 12 41 3e
       0.064218126 -0.15086266 -0.11478719 0.18854871
000100 c6 85 20 be d0 ed c8 3d 8d ff ad 3d 7b 94 06 3e
       -0.1567603 0.09810984 0.08496008 0.13142578
000110 4c 6a 31 3e ca b1 ac bd 69 68 c4 3d d9 be 16 3d
       0.17325705 -0.08432348 0.09590227 0.0368031
000120 8d cd 4c 3e e8 9e c3 3c 13 7a 65 bd d4 f8 a3 bd
       0.20000286 0.023879483 -0.056024622 -0.080064446
000130 56 f1 19 3e ca 31 a7 3d aa 7c dc bd ab f0 90 bd
       0.15033469 0.081637934 -0.10765965 -0.07077154
000140 fc 73 28 bd
       -0.041126236

bias f4 [3]
000000 bb 66 fc 3d b9 6f 0a bd 4b e4 0a 3d
       0.12324282 -0.033797953 0.033909123

weight f4 [3, 3, 3, 3]
000000 56 54 e3 bc 20 7b c2 3d 21 e9 25 be 35 79 99 bd
       -0.027750175 0.094961405 -0.16202213 -0.074938215
000010 8f f2 fb bd 10 6b f9 bd bb 5a 3e bc b7 34 e0 bd
       -0.12302124 -0.12178624 -0.0116183115 -0.109475546
000020 54 8d 3f be 68 95 63 bd 56 de 0a be cf ab 08 3d
       -0.18706256 -0.055562407 -0.13561377 0.033366974
000030 15 a3 ea bc d8 aa 90 3a 22 7e 04 be 3b b4 13 be
       -0.028642217 0.0011037244 -0.12938741 -0.14424221
000040 bb 76 e8 bd 64 ba 1b 3c 25 e6 05 bd 75 e7 3b 3e
       -0.11350771 0.009504888 -0.032690186 0.18350013
000050 23 30 3c 3e 24 8d c0 bd ca a2 29 3e 34 44 2b be
       0.18377738 -0.094019204 0.16566005 -0.16725236
000060 97 ca 01 be 7c 12 16 be 5d c9 04 be 2c 1a 06 3e
       -0.12674938 -0.14655489 -0.12967439 0.13095921
000070 c9 f7 63 bd a9 1b 10 3d 13 0a 0e bd d7 7a ef bd
       -0.05565623 0.03518263 -0.034677576 -0.11693352
000080 1a 56 9c bd fc 8b 67 bd d5 30 a6 3d 6c 23 79 3d
       -0.0763361 -0.056529984 0.08114783 0.060824797
000090 e2 0e af bd c1 a3 ca 3d e7 3b 05 be 60 dc 43 3e
       -0.085477605 0.09894515 -0.13011132 0.19127035
0000a0 94 1d 10 bd 69 46 f9 3d 8b 57 25 3e 6d 38 8e 3c
       -0.035184458 0.12171633 0.16146676 0.01736089
0000b0 09 7c 0b be 5a c4 39 be c0 e1 06 3e fa 85 93 3d
       -0.13621534 -0.18141308 0.13172054 0.072032884
0000c0 27 58 3f 3d a4 fe 3f 3e f5 97 37 be 0d ab 09 3e
       0.046714928 0.18749481 -0.17929061 0.13444157
0000d0 11 ab e5 bd c0 3a 3e 3e 97 0a fa 3b f6 6e 23 be
       -0.11214269 0.18577099 0.007630657 -0.15960297
0000e0 d2 0b 1d 3e 4a 81 27 be 6e bc 7e 3d d1 48 9e bd
       0.1533654 -0.16357914 0.06219142 -0.077287324
0000f0 aa 73 90 3d 28 af 87 3d 00 4d 15 3e d8 0c 01 3c
       0.07053311 0.06625205 0.14580154 0.007876597
000100 ed 6a 6c 3c fb 54 c2 3d 76 be b4 3d eb 8c 81 3d
       0.01442979 0.09488865 0.0882539 0.06325706
000110 2c ca 13 3d 6a e0 4e bd 4c a1 45 bc ed 7e d5 3d
       0.036081478 -0.050506987 -0.012062382 0.104246
000120 8c 0b a1 3a 59 0f dc bd 94 16 04 bc 62 58 16 3e
       0.0012286766 -0.10745115 -0.008062024 0.14682153
000130 e2 fb ba bd cb 9e 34 3e 25 9b d1 3d 35 79 f8 bd
       -0.09130074 0.176387 0.102346696 -0.121324934
000140 c4 90 12 bd
       -0.03578259

bias f4 [3]
000000 ff 9d 33 3d aa 6d 9e 3d 93 3e e9 bd
       0.04385185 0.077357605 -0.11388888

weight f4 [3, 3, 3, 3]
000000 c0 f3 6b 3d 58 39 01 3e a0 c8 f8 3d a9 c3 42 3e
       0.057605505 0.12619531 0.12147641 0.19019951
000010 a4 b7 c5 bc 43 6e 09 be e5 cf 20 3e fc 52 cc 3d
       -0.024135418 -0.13420968 0.15704305 0.099767655
000020 a3 c2 38 be b7 81 7a 3d d7 96 1b be 81 7d 39 b8
       -0.18042998 0.061158862 -0.1519426 -4.422432e-05
000030 68 bc d2 bd 7e 3f bc bb 1b 18 b7 bc f6 98 81 ba
       -0.10289842 -0.0057448735 -0.022350362 -0.0009887505
000040 68 7f 93 3d 02 58 14 3d d5 12 2d bd 9e 0f 1a 3e
       0.07202035 0.036216743 -0.042254288 0.1504502
000050 60 8f 3d bd 78 ee f8 3d 14 f4 da 3d 98 91 34 be
       -0.04627931 0.12154859 0.106910855 -0.17633665
000060 9f bd c2 bd 42 02 0b 3e cf a4 13 3e 6c 40 01 bc
       -0.095088236 0.1357508 0.14418338 -0.0078888945
000070 4e 4b 0c be 17 1d 4f bd 4d 83 05 3e 3c e9 85 bc
       -0.13700601 -0.05056485 0.13038369 -0.016346566
000080 f6 66 89 bd a4 78 a0 3d 81 f5 36 be c1 e1 14 3e
       -0.06709091 0.078355104 -0.1786709 0.14539243
000090 34 2c d8 bd 85 5c e5 3d 87 d1 1f 3c ec e9 2d 3e
       -0.10555306 0.11199287 0.009754545 0.16983765
0000a0 43 fc 22 3d 75 dc 34 be d1 f2 b8 3d a7 cd d0 bd
       0.039791357 -0.17662223 0.090306886 -0.10195475
0000b0 11 71 0c 3e 2c 95 9a 3d 98 ca 01 be f0 0d 7f bd
       0.13715006 0.075479835 -0.1267494 -0.06226915
0000c0 3e a1 a4 3d 9c 3a 0a 3e 6e c3 11 3e b9 85 18 3c
       0.08038567 0.1349892 0.14234707 0.009309226
0000d0 51 23 f5 3d 78 fc b4 bc bb bd b4 3b cd 2c 82 bc
       0.11969627 -0.022093043 0.0055157817 -0.015890503
0000e0 75 9d c4 3c 7e 5e 03 be 36 7a 3f 3e 7f 31 02 be
       0.024000863 -0.12829015 0.18698964 -0.12714194
0000f0 c4 16 63 3d 02 15 03 bd 79 4a 13 3d 20 be bc 3d
       0.055441633 -0.032002456 0.035959695 0.09215951
000100 9d cc 0b bd 09 be 01 be 2a 44 83 bd 00 74 d5 bd
       -0.03413068 -0.12670149 -0.06409486 -0.10422516
000110 8f ce 19 bd f0 80 b9 bd b2 a7 0d be f5 bb 84 3c
       -0.037550505 -0.09057796 -0.13833502 0.016202906
000120 8f 3b 24 be 4f 42 f0 3d f5 f8 f0 bd b3 f9 42 bc
       -0.16038345 0.11731397 -0.11766235 -0.011900353
000130 79 61 6d 3c e4 5f 6c bd de 51 20 be 5a 81 89 3c
       0.014488571 -0.057708636 -0.1565623 0.016785312
000140 43 d2 1e bd
       -0.03877474

bias f4 [3]
000000 84 b8 00 3e 57 5b ec 3d fa 7e 46 3e
       0.12570387 0.11540859 0.19384375

weight f4 [3, 3, 3, 3]
000000 dc 7a a3 bd 9a 49 92 3d 71 d9 21 be f5 62 30 3e
       -0.07982418 0.07142945 -0.15805604 0.17225249
000010 2e 69 2b be c0 4a 13 3e 5f 63 cc bd 34 80 1c be
       -0.16739342 0.14383984 -0.09979891 -0.1528328
000020 86 f9 2e be c4 75 39 be 5c 33 bb bd f1 b0 44 be
       -0.17087373 -0.1811133 -0.091406554 -0.19208123
000030 42 3e 08 be 94 de f7 bd 8a 96 28 3e 7d d7 0b be
       -0.13305 -0.12103 0.16463676 -0.13656421
000040 d5 bf 14 bc 07 c3 a3 3b 9d 79 24 bd 16 4d 33 3d
       -0.009078939 0.0049976143 -0.040155042 0.043774687
000050 c3 9b 2d be 2f f0 ab bd 5a 71 f5 bd da f8 6d 3d
       -0.1695395 -0.08395421 -0.11984511 0.05809865
000060 e8 2c b6 bc c2 6d a7 3c 41 1e a5 bd 29 70 25 bc
       -0.02223821 0.020438079 -0.08062411 -0.010097542
000070 d8 b8 b2 bd 52 83 da ba 5e 1c 0d 3e 7e 6e 1e 3e
       -0.087266624 -0.0016671217 0.13780352 0.15471837
000080 73 c4 83 3d d0 e1 49 3e 27 b6 1b be 41 ce 50 3d
       0.06433954 0.19715047 -0.15206204 0.05097795
000090 01 9c 0a 3e b1 b0 16 3e c9 76 20 be cb 9d d3 3c
       0.13536073 0.1471584 -0.15670313 0.025832077
0000a0 69 41 24 be 05 7b 22 3e 71 96 26 be 0a da 98 3d
       -0.16040577 0.1586724 -0.16268326 0.07463463
0000b0 ff ff 08 be ac c6 49 3e e5 ff ab 3d 9b a1 2e be
       -0.13378905 0.19704694 0.083984174 -0.17053835
0000c0 16 2e c6 3d 43 e3 60 3d 93 b4 2c be 34 3a 95 bd
       0.09676759 0.054904234 -0.16865759 -0.07286492
0000d0 17 2e 1c 3e 84 0b 06 3e 18 4a 03 be ef d7 2e be
       0.15251957 0.1309033 -0.12821233 -0.1707456
0000e0 2f 93 8c 3d 81 4c 17 3d f3 23 e2 3d 33 03 0a 3e
       0.068640105 0.036938194 0.11042013 0.13477783
0000f0 d5 ef d8 bd 2e 54 b2 3d 76 71 d7 bd 87 90 c8 bd
       -0.10592619 0.08707462 -0.10519688 -0.097931914
000100 f8 33 d5 3d a7 46 e5 bd 1c 7f 59 3d 06 74 27 be
       0.10410303 -0.111951165 0.053099737 -0.16352853
000110 22 54 6f 3c 10 b6 4a bc 30 b8 29 be f8 cd 11 3d
       0.014607461 -0.012372509 -0.16574168 0.035596818
000120 4a 4b bd bd d4 4b c8 bd fa de 02 3d ce 9c 1d 3e
       -0.09242876 -0.09780088 0.03195093 0.15391847
000130 c3 ee d3 3d 95 65 06 3e 74 9e 17 be 4b 10 b5 3d
       0.103482746 0.13124688 -0.14806539 0.08840998
000140 9a f0 b4 3d
       0.088349536

bias f4 [3]
000000 b3 66 c2 3d 1d 71 2e bd 9b dc 43 3e
       0.094922446 -0.042588342 0.19127123

weight f4 [3, 3, 3, 3]
000000 82 95 e6 3c 8e 46 12 be 32 0d 32 3e a4 21 dd bd
       0.028147463 -0.14284727 0.17387846 -0.10797432
000010 03 de 3b be d8 42 1f 3e 61 36 0d 3d 79 6c ca bd
       -0.1834641 0.15552843 0.034475688 -0.09883971
000020 35 38 07 3e 4c 4c 04 3d f9 b1 02 be 36 10 c7 3c
       0.13205035 0.032299325 -0.12763204 0.024299722
000030 5c 16 16 be 5b 2f 16 be 6d a3 27 bb 96 e1 c6 bd
       -0.14656967 -0.14666502 -0.0025579587 -0.09710996
000040 17 c0 94 3d 13 9a 19 3d 09 c1 bc bc 9b a3 45 bd
       0.07263201 0.037500452 -0.023041265 -0.04825173
000050 d3 18 04 3c 16 b0 4e 3d eb cd 21 3e c4 fe fd 3d
       0.008062559 0.050460897 0.15801208 0.12402108
000060 44 5c 06 be 30 8f 69 bc 8f fb 17 be 28 07 04 be
       -0.13121134 -0.01425533 -0.14842056 -0.12893355
000070 86 18 37 3d 05 f8 a4 bd 9e 57 10 3d c1 cd ee bc
       0.04470112 -0.080551185 0.03523981 -0.029150845
000080 73 e8 08 be 24 3b 45 3e c1 b1 39 3e af 14 1d be
       -0.13369922 0.19260842 0.18134214 -0.15339921
000090 be 3c 34 3e 5b 30 01 3e d7 af 1d 3e 01 17 6d bc
       0.17601296 0.12616102 0.15399109 -0.014470817
0000a0 36 15 29 bd f0 5d 3c 3e 53 2b 36 bb 87 f5 28 bc
       -0.041279994 0.1839521 -0.002779682 -0.0103124445
0000b0 79 b9 26 3e b7 99 00 3e 61 0d 07 3e d6 f0 43 3e
       0.1628169 0.12558638 0.13188697 0.1913484
0000c0 af 33 40 3e ba a8 b9 bd 45 f5 2d 3e 91 21 09 3e
       0.18769716 -0.09065385 0.16988094 0.13391711
0000d0 e0 d3 14 3d 2b 03 54 3c 52 8d 40 3e a8 eb 5f 3d
       0.036334872 0.012940208 0.1880391 0.0546681
0000e0 d4 96 28 3e 41 80 cd bd 88 e1 81 bd 0f c7 97 bd
       0.16463786 -0.10034228 -0.06341845 -0.07411014
0000f0 ca c4 c7 bd d4 78 13 3d c5 62 fc bc b9 4e 78 3d
       -0.097543314 0.036003903 -0.030808816 0.06062195
000100 b6 d7 97 bc 7c 05 18 3e bf 0b 4a 3e 42 98 48 3e
       -0.018535476 0.14845842 0.19731043 0.19589332
000110 f6 91 fe 3d 81 26 16 3e 0e 77 91 bd 93 20 34 be
       0.124301836 0.14663126 -0.07102786 -0.17590551
000120 70 aa c0 bc a8 15 d1 3a 8a 9a 1e bd 15 61 e4 bd
       -0.023518771 0.0015951889 -0.0387216 -0.111513294
000130 b3 ae c4 bd 57 58 ba 3b 2a 8d 0a 3e 82 09 e2 bd
       -0.09603634 0.0056868005 0.13530412 -0.1103697
000140 cf 64 b1 3d
       0.08661806

bias f4 [3]
000000 9f d4 84 3c ce 0b c2 3d 30 cf e1 bd
       0.016214667 0.09474908 -0.11025846
