Results/EDSR_SSIM_model.pt (torch, 26579 bytes, 30 tensors)

weight f4 [3, 3, 1, 1]
00000000: 0000 803f 0000 0000 0000 0000 0000 0000
00000010: 0000 803f 0000 0000 0000 0000 0000 0000
00000020: 0000 803f
1.0 0.0 0.0 0.0 1.0 0.0 0.0 0.0
1.0

bias f4 [3]
00000000: 1dc9 e5be 92cb dfbe 17d9 cebe
-0.4488 -0.4371 -0.404

weight f4 [3, 3, 1, 1]
00000000: 0000 803f 0000 0000 0000 0000 0000 0000
00000010: 0000 803f 0000 0000 0000 0000 0000 0000
00000020: 0000 803f
1.0 0.0 0.0 0.0 1.0 0.0 0.0 0.0
1.0

bias f4 [3]
00000000: 1dc9 e53e 92cb df3e 17d9 ce3e
0.4488 0.4371 0.404

weight f4 [3, 3, 3, 3]
00000000: bd3d f1bd 73fc df3d d7da 45bc 0d9e 05bd
00000010: 2a31 58bd 3257 cc3d 240d 6b3d af16 293e
00000020: 5839 d93d 3e9c 363e 9ae0 613d 978a 933d
00000030: 48df 1bbd 697e 5abd cde1 f3bc 7123 0d3e
00000040: 6dc5 5bbb 548a d5bd 3fe2 fabd 9aea 63bd
00000050: c31a 1dbd 8778 f33d 13fb cd3d 1420 38bd
00000060: 3f23 553e 162c 793e ff30 433e be25 1abe
00000070: a8e8 1f3e 53df 913c 3afc e73d 6829 563d
00000080: b00a ca3d 8f77 af3d 1b9d d0bd 5e50 0d3c
00000090: d50b a03d 6d71 f73d 96d2 173d 1c36 e23d
000000a0: ca8a 3abd 451f f7bd 7584 453d c3c2 11bd
000000b0: e604 c1bb 6737 a03d b1e4 4e3d 1f5e e1bd
000000c0: 6e27 0bbe 4150 3a3d dad6 f03d 159a ae3d
000000d0: f590 bd3d f247 93bd 4383 49bc dc7b c8bd
000000e0: 8a21 8b3d af06 343d 074a 59bc 3d0a a5bd
000000f0: 6341 3d3d 8f91 f93d 2cfe d13d ed48 103d
00000100: 82ac fb3b 658a 903d 8a31 a03d cd70 8dbd
00000110: 2dde aa3d 1651 8dbd d243 02be e652 503d
00000120: e5c3 efbd b22d abbd 73ed 203e 8340 ac3b
00000130: a10b 163e c377 52bd a109 b2bd c32f 323e
00000140: 87f1 b0bc
-0.11779354 0.10936823 -0.012076101 -0.032621432 -0.05278126 0.09977569 0.05738558 0.1651256
0.106066406 0.17833039 0.055145837 0.07204168 -0.038054734 -0.05334321 -0.029770756 0.13783051
-0.0033534423 -0.104267746 -0.12250184 -0.055643655 -0.0383556 0.11888223 0.10057654 -0.044952467
0.20814227 0.24333224 0.1906166 -0.1505346 0.15616095 0.017806685 0.11327405 0.05228558
0.0986532 0.08567726 -0.101862155 0.008625118 0.07814757 0.12082181 0.037066065 0.11045477
-0.045542516 -0.12066511 0.048222024 -0.03558613 -0.0058904765 0.07823067 0.050511066 -0.1100428
-0.1358926 0.045486692 0.1175973 0.085254826 0.09256164 -0.07191457 -0.012299362 -0.09789249
0.067935064 0.043951686 -0.013262278 -0.080585934 0.046204936 0.12185966 0.102535576 0.035225797
0.0076804766 0.07057647 0.07821949 -0.06906281 0.08343158 -0.069002315 -0.12721184 0.050860308
-0.11707286 -0.08358325 0.1571558 0.005256714 0.14652874 -0.051383745 -0.08693243 0.17401032
-0.021599544

bias f4 [3]
00000000: 9fad 953c 83dc 7abd ef0c 34be
0.018271266 -0.061245453 -0.17583059

weight f4 [3, 3, 3, 3]
00000000: 1886 0fbd 1030 e9bd 5888 2fbe 7346 49be
00000010: 1d88 ebbd 0208 19be a444 ba3d d696 ecbd
00000020: feee 05be a375 65bd 748a e8bd 4fa7 a8bd
00000030: 6abe 20bd be55 1ebe 9a16 bebd 6d24 e23d
00000040: 7228 163e b0cd 5a3c 0f68 dcbd e029 163e
00000050: 93e3 01be 909e 5e3e a385 093d d95e eb3d
00000060: 0290 3d3e d4bb 233e 02c0 21be ad29 febb
00000070: 510c 3fbd fa76 2ebe 62d9 5dbe dd1f 833d
00000080: 1d30 98bd 283d 37be 9e8c 8f3d ecb9 083e
00000090: 1216 17bd 724d a3bd fc0b 10be 969f 48bd
000000a0: ca5b 11bc 70d0 193e b0f6 a5bd 1b5b 35be
000000b0: 646a 473c d528 533d 7c98 3abc ceb3 37bc
000000c0: ddf3 2dbe 9eac b13c 1765 a7bd b2c7 0dbe
000000d0: 5113 803d 97c3 4d3e 1f27 cc3c c6b7 633e
000000e0: 4b66 90bc 7c5c 923e 7b72 853e e69f 253e
000000f0: 4a8d 0fbe 6002 09be b7f5 ff3d ec59 74be
00000100: 9f24 983d 51b1 6e3d 87fd c13d bcfa f9bd
00000110: d539 903d 504a 30be f4ec d9bd 0062 263e
00000120: 4168 17be 1401 b13d 5428 b23d d67d 88bd
00000130: defe b5bd faf1 59be 65e3 c43b 3d50 8f3c
00000140: 57dd 54be
-0.03503999 -0.1138612 -0.17141855 -0.1965578 -0.11500571 -0.14944461 0.090951234 -0.11552207
-0.1307945 -0.05602039 -0.11354533 -0.082350366 -0.039244093 -0.15462396 -0.09281655 0.11042104
0.14663866 0.013354704 -0.10762035 0.14664412 -0.12684469 0.21740174 0.03357471 0.114927
0.18511966 0.1598962 -0.15795901 -0.007756433 -0.046642605 -0.17037573 -0.21664956 0.06402562
-0.07431052 -0.17894423 0.070092425 0.13352174 -0.036886282 -0.07973756 -0.14067072 -0.048980318
-0.008871982 0.15020919 -0.081036925 -0.17710535 0.012171362 0.051552612 -0.011388894 -0.011212302
-0.16987558 0.021688756 -0.08173578 -0.13845709 0.06253684 0.20094143 0.024920998 0.22238073
-0.017626902 0.28586185 0.26063904 0.16174278 -0.14018741 -0.13379812 0.12498038 -0.23862427
0.0742886 0.05827457 0.09472185 -0.12206027 0.070422806 -0.17215848 -0.10640898 0.16248322
-0.14785863 0.08642784 0.08699098 -0.06664626 -0.08886503 -0.21283713 0.006008553 0.017494315
-0.2078756

bias f4 [3]
00000000: 2cff 913c d1dc 24bd 6388 a3bd
0.01782187 -0.04024965 -0.07984998

weight f4 [3, 3, 3, 3]
00000000: 93c0 a2bd 9475 f0ba 2507 bc3c 965d c4bc
00000010: f27c 2f3e f33d 0dbe 1108 d33c edca 253e
00000020: 9926 42bc 804c ed3d bd7d 823c 11ce 803d
00000030: 00b6 0a3e 1718 253d f5c1 55be e4b4 10be
00000040: 8476 7fbd b348 893d 6b81 353e 297a 333e
00000050: 2477 403e 8e44 4d3e 2789 b93d 5868 f1bc
00000060: 137f 2e3d ac53 b7bd cf9e bc3d fb68 4e3e
00000070: cb46 013d 62f9 f33d ac1b 223e 634c 0d3e
00000080: 6ad3 873d 09d7 753e 1e3f c7bd 994b 16bc
00000090: 73ed 233b 2e04 eb3d 3638 47bd b440 06bc
000000a0: 2273 1e3e 6800 dbbc 089e 83bd c102 9abd
000000b0: 8d6f 43be f768 033e 5387 11be 7e65 c43d
000000c0: baae 3c3d 00ed 50bc 6f35 e5bd 37e6 0ebe
000000d0: 1131 30be 851e 3dbe bb15 82bd 5a81 283e
000000e0: 78d2 fdbd 0af9 663d acce 0cbd 6f3c 4fbd
000000f0: 27a3 c03d fb3e 3fbd 34a7 b43b 7c1a cb3d
00000100: 9ae3 fc3c a907 b83d 8f58 3dbe f0fe 563e
00000110: e3f5 7c3d 42da 093e c931 f43d 3668 b63d
00000120: d7a0 e1bd 9cae 833b 08b3 39be 1296 edbd
00000130: 487f d53d e62f 02be d547 13be 6e75 11be
00000140: 3633 893d
-0.07946887 -0.0018345588 0.022952626 -0.023970407 0.17137507 -0.13793163 0.025760682 0.16190691
-0.011850023 0.11586857 0.015929097 0.06289304 0.1354599 0.040306177 -0.2087477 -0.14131504
-0.062368885 0.067033194 0.1772515 0.17527069 0.18795449 0.20045683 0.09059363 -0.0294687
0.042601656 -0.08951506 0.09209978 0.20157234 0.031561654 0.119128 0.15830868 0.1379867
0.06632121 0.2400781 -0.097288355 -0.009173297 0.0025013357 0.114754066 -0.04863759 -0.008194137
0.15473607 -0.026733592 -0.064266264 -0.075200565 -0.19085522 0.1283301 -0.14211778 0.095896706
0.04606507 -0.012751818 -0.11191832 -0.13955007 -0.17206217 -0.18468674 -0.06351801 0.16455594
-0.12393659 0.056389846 -0.034376785 -0.050594743 0.09406119 -0.046690922 0.005513096 0.09917161
0.030870248 0.08985836 -0.18490814 0.20995688 0.061757933 0.13462165 0.11923558 0.089065954
-0.11017006 0.004018618 -0.18134701 -0.11600889 0.104246676 -0.12713584 -0.1438287 -0.14204952
0.06699221

bias f4 [3]
00000000: ebaf 353e 24ff 2dbe de8c e43b
0.17742889 -0.1699186 0.0069748005

weight f4 [3, 3, 3, 3]
00000000: 0bd5 193e 16b7 c33d 1f90 8dbd 220f 3bbe
00000010: 0030 12be db12 2e3e d801 ad3c 8ce8 85bd
00000020: b0c6 3ebd 50be 3f3d 58b9 d83c 00fa 41bb
00000030: cae6 d83d f60b 13be d1b4 023e c417 7c3d
00000040: 3073 453c f015 663c 0532 333e 4a03 a73d
00000050: b362 23be 6bb2 3c3e 3aab 37be dee8 df3d
00000060: c70f 3f3e b55b 0bbe 850c 183e ed5d 7e3e
00000070: 49d1 a53c 5619 373c a90e f43d 15ad 783e
00000080: 541b 153e 1fca 9f3c c506 ce3c dc31 b83b
00000090: 16f2 9ebd 4095 143d 2a3f 563c 5b87 883e
000000a0: d506 343e d3d0 223e b40d 863e 0472 523c
000000b0: 8a90 7a3e d41b ac3d a6b0 eebd 0e02 93be
000000c0: b693 17bd ab5e 37be 7022 70be 8ced 9dbc
000000d0: f151 34be ef1e 0f3d b8d8 883e 15a0 d73c
000000e0: ba0b 9b3d 9cb8 3c3d 6853 353e 6dd7 a83c
000000f0: e164 e33d f979 e5bd e0c1 8e3d 6e38 3b3e
00000100: 3deb 4a3d ac7c 92bd 7a41 45bd d9ec 953d
00000110: f222 b8bd 44f5 b5bc 43dd 2d3e bbb7 343d
00000120: 4c56 6ebe 10ce c0bd 4b58 eabd fe5f 06bd
00000130: eab8 8fbe 8eaa 5a3d 5a05 94bd 2c2b 7fbe
00000140: fab7 4a3d
0.15022676 0.09556405 -0.069122545 -0.18267491 -0.14276123 0.1699938 0.021119043 -0.065384954
-0.046576202 0.046812356 0.026455566 -0.0029598475 0.105908945 -0.14360031 0.12764288 0.061546102
0.012051389 0.014043316 0.1749955 0.08154924 -0.1595562 0.18427436 -0.17936411 0.10933088
0.18658362 -0.13609202 0.14848526 0.24840517 0.020241397 0.011175474 0.11916859 0.24284776
0.14561206 0.019505559 0.025149712 0.005621178 -0.07761018 0.03627515 0.013076583 0.26665768
0.17580731 0.15899973 0.2618233 0.012844566 0.244692 0.08403745 -0.11654787 -0.28712505
-0.037006103 -0.17907207 -0.23450637 -0.01927831 -0.17609383 0.03494161 0.26727843 0.02632145
0.07570596 0.046074495 0.17707598 0.020610536 0.111032255 -0.11204905 0.069705725 0.18283245
0.049540747 -0.071526855 -0.048158146 0.07320566 -0.0899104 -0.022211678 0.16978936 0.04412053
-0.23275107 -0.09414303 -0.11442622 -0.03280639 -0.28070766 0.05338531 -0.07227583 -0.24918813
0.04949186

bias f4 [3]
00000000: a53a 09be a7d2 033e bc94 cdbd
-0.13401277 0.12873326 -0.100381345

weight f4 [3, 3, 3, 3]
00000000: b016 2fbc 6af1 9c3d 1662 abbd 52b0 f63d
00000010: 061c 913d 7095 5e3d 3b62 343e 6cf6 cabd
00000020: c5d8 183e 247f ebbd c8d4 e1bd 0d86 1abe
00000030: e0cb 67be 3592 92be 1f73 1bbe ac93 9abd
00000040: a2d2 27be 21ca a6bc 9bbc 2ebe 00ee b8bd
00000050: 039d 60bc 2e41 16be 92a0 343d 7b0e 2ebe
00000060: 1e21 113e 706f fbbd fa5f 42be add6 0f3e
00000070: 28ea aebd 3065 083c 608b f13b 9bcb 9cbd
00000080: 3ea6 8d3d 6e0b c03d a65c c53d 65f2 9cbd
00000090: 66ff 72bd 2288 5cbe 48e2 ec3d 2739 1cbe
000000a0: ba23 30be e0d2 26be b646 003e bd7a 5dbe
000000b0: ff11 6fbd 19f7 05be 31f5 2cbe 5deb 76be
000000c0: 4c60 30be a46b 3bbd 1a9a 8abe c37f c6bb
000000d0: 6dfe 07be e37c 5dbe 3e7b b53d 76d3 e0bd
000000e0: d6b0 1ebe f16e 0b3e 50a6 25be d233 bb3d
000000f0: 1169 e1bd 4a22 c83d 2858 d33c ff41 2b3e
00000100: 81e7 7a3e 2c5f 7e3d 589e a13d c239 943e
00000110: ee17 093e c424 773d 3f5e 633d 6a72 2f3e
00000120: ad69 3c3e db82 15bb 376b 2e3e 95ef ea3d
00000130: 489c 6a3d 0316 9f3e ba32 143e 6a40 423d
00000140: 32cb f83d
-0.010686561 0.076632336 -0.08368318 0.12045349 0.07085423 0.054341733 0.17615597 -0.099102825
0.14926441 -0.114988595 -0.11026913 -0.15090199 -0.22636366 -0.28627172 -0.15180634 -0.075476974
-0.16388944 -0.020360054 -0.17064135 -0.0902977 -0.0137093095 -0.14673302 0.044098444 -0.16997711
0.1417279 -0.122771144 -0.18981925 0.14046736 -0.085407555 0.008324906 0.007371351 -0.07656022
0.06916474 0.0937718 0.09636812 -0.076634206 -0.0593256 -0.21536306 0.11566597 -0.15256177
-0.17201129 -0.1629138 0.12526974 -0.21628852 -0.05836677 -0.13082542 -0.16890408 -0.24113221
-0.17224234 -0.04575695 -0.27070695 -0.006057711 -0.1328065 -0.21629672 0.08861397 -0.10977833
-0.15497145 0.1361654 -0.16176724 0.09140743 -0.11006368 0.09772165 0.025798872 0.16724394
0.24502374 0.06210248 0.0789153 0.28950316 0.13388035 0.060337797 0.055509802 0.17133489
0.18399687 -0.0022813592 0.17033087 0.11471478 0.057277948 0.3107148 0.14472476 0.04742471
0.121481314

bias f4 [3]
00000000: cc94 803d 8547 313e 0d4d 59bd
0.06278381 0.17312439 -0.053051997

weight f4 [3, 3, 3, 3]
00000000: c491 273e 10eb 27be e2a1 083c 6e0a 2fbe
00000010: f3fb e93d adfa 2cbd 0e0d a6bd 13ed 113e
00000020: 3e7b 9b3d f694 37bd 82ae 4f3d 4096 bbbb
00000030: a9e9 ea3d 6add 3b3e 5e82 c23c 090a 183e
00000040: 4536 4b3e b0f4 df3d d7ea 01bd d8dc 70bd
00000050: 2e5a 10bd a7e4 2abc fc82 303e 7ae8 453e
00000060: 3c8a 5fbd 604d 15bd 095c 30be 5858 d23d
00000070: 10af c93d 0724 78bd 2ba5 e03d c126 733c
00000080: 2175 113e 77d1 4e3c 7636 09be 9781 2cbd
00000090: 0dc1 153d a5e5 e73d 156e 2a3e dda3 8cbd
000000a0: 794b e9bc fc4a 3a3d 3c46 983d f654 313e
000000b0: 209a ba3d 9aef 99bc d9c4 27bd a81e 0f3e
000000c0: 2809 273e 6af1 3a3d 1822 99bc cbec 163e
000000d0: d001 0bbe 8690 3e3e 41c4 5ebe 5c7a e2bd
000000e0: 85ed 6e3d 0ee2 123e 4cfd 393d c3c3 e23c
000000f0: 4497 0fbe e589 2e3d 7005 63be f8d8 843c
00000100: e457 ec3b 3e1b f93d 2fff f43d 7b20 3e3e
00000110: aa6b 26be 9714 9dbd 417f 0abd a5c0 95bb
00000120: 3f7f 0e3e d15e 01be 2c4b 873d 7488 dd3d
00000130: 1217 253e 3d9e 4c3e a15f 0d3e 841f 0d3e
00000140: 4b8c 313a
0.16364199 -0.16398263 0.008339377 -0.17093822 0.114250086 -0.04223125 -0.08107959 0.14250593
0.07591866 -0.044819795 0.050703533 -0.0057246983 0.114703484 0.18346182 0.023743805 0.14847578
0.19844921 0.10935342 -0.0317181 -0.058804363 -0.035242252 -0.0104304915 0.17237467 0.19326964
-0.05457519 -0.036450744 -0.17222609 0.102707565 0.09847844 -0.060581233 0.10969003 0.014840783
0.14204837 0.0126231825 -0.13399681 -0.042115774 0.03656106 0.11323098 0.16643555 -0.06867192
-0.028478371 0.045481667 0.07435271 0.17317566 0.09111428 -0.018791009 -0.040959213 0.13976538
0.16312087 0.045640387 -0.018693015 0.14738767 -0.1357491 0.18609819 -0.21754552 -0.110584944
0.058331985 0.14344046 0.04540758 0.027681237 -0.14022547 0.042611975 -0.22170043 0.01621674
0.007212626 0.12163399 0.11962735 0.18567078 -0.16252008 -0.07669943 -0.033812765 -0.004570084
0.13915728 -0.12633826 0.06606135 0.10817042 0.16122082 0.19982238 0.13806011 0.13781554
0.00067729194

bias f4 [3]
00000000: 0822 f63d 870d e8bd 9206 0abe
0.1201821 -0.11330705 -0.13479069

weight f4 [3, 3, 3, 3]
00000000: 9911 64bc 182a 033e c99a 64bd 74f4 b9bd
00000010: e7ae 3f3e 3c6c 253e 3412 023c 1879 c43d
00000020: ba76 9abd 5076 443e 0cba 10be 0de7 13be
00000030: f487 a1bd f0d3 fa3d 1294 b93d 2b40 96bd
00000040: 34e5 0c3e 3fa4 3bbc 4631 f33d 71c5 de3d
00000050: 22a6 963d 7f79 fb3d cbe8 ef3d 58f6 dabd
00000060: 8da7 4bbd dd16 373e bef3 ec3d df31 0ebe
00000070: 4ad0 97be b1cf 44bd 8fc8 bbbc d496 c33b
00000080: 917c 91bd 5d01 483d 326b 4ebc 55fa 6abd
00000090: 971d 163d 479e 9c3c 1f3d fb3d 17d3 36bc
000000a0: 6209 b3bd 4582 09be 7afa 99bd c0b9 03be
000000b0: 8908 153e 8928 fe3d a77d a93d 2f5d 7d3d
000000c0: 1641 dbba c307 ad3e 70c6 2e3d ad75 06be
000000d0: c07c b13d 557c 633e a4ae 52bd efc5 083e
000000e0: 4f59 2d3e 2946 6cbe 7437 0bbe 51a6 f53d
000000f0: b898 8ebd 8c52 2dbe 59d8 e63c bb7e 303b
00000100: 29d6 eb3d 139f 9a3d 3746 fa3d d8c2 3dbe
00000110: 64fc dfbd 5ee0 98bd 2512 08bd 81a8 f3bd
00000120: 378d 2dbe 6fb2 8ebd 2ff5 9ebe 4937 5abe
00000130: adb1 85be a2a0 92bd 32c5 913d d723 a03d
00000140: cb5f 31be
-0.013920211 0.12809026 -0.055811677 -0.09079829 0.18719064 0.1615457 0.00793891 0.09593409
-0.075421765 0.19185758 -0.14133471 -0.14443608 -0.07887259 0.12247455 0.09061445 -0.07336458
0.13759309 -0.011452734 0.118746325 0.10877503 0.07355906 0.12279033 0.117143236 -0.106915176
-0.049720336 0.17879815 0.11569928 -0.13886212 -0.296511 -0.048049632 -0.022922782 0.005968908
-0.07103837 0.048829425 -0.0125988 -0.05736764 0.036649313 0.019118441 0.12267517 -0.011158726
-0.08742024 -0.134286 -0.07518478 -0.12863827 0.14554037 0.12410075 0.082759194 0.061856445
-0.0016727771 0.33794984 0.042669713 -0.13130827 0.08666372 0.22215398 -0.05143608 0.13356756
0.169286 -0.23073639 -0.13595372 0.11994613 -0.069627225 -0.1692602 0.028179334 0.0026931006
0.11515457 0.07549872 0.12220424 -0.18531358 -0.109368116 -0.0746467 -0.03322043 -0.11897374
-0.169484 -0.06967627 -0.31046435 -0.21310152 -0.26112118 -0.071595445 0.0711769 0.07819336
-0.17321698

bias f4 [3]
00000000: ed6c 0ebe f4d3 233e 2329 b63d
-0.1390874 0.15998822 0.08894565

weight f4 [3, 3, 3, 3]
00000000: f4ea 4d3d ca0a a1bb a038 9cbd 11fd 543e
00000010: 01d2 2f3e 14d4 233e 358c 2bbb 96fc 363e
00000020: 0c2b edbc 709c 25be 3eaa 473e 3f9e 07be
00000030: d611 0fbe 9f06 54be 87ef 393d 76a9 7b3c
00000040: ec6b 6bbd 20eb bdbd ab54 a4bd b733 23be
00000050: 2c93 373d c474 adbd 36f8 813d 8da9 c23c
00000060: f774 003e f54a a7bd 1a3f b5bd 40fb f03a
00000070: 168e 4c3e 223b 0ebe eaa0 fabd 0568 f93d
00000080: ed04 ccbc 1969 603c 9355 c2bd b069 e83d
00000090: 5943 03bd 0304 d7bc e00b 87bd aac7 6ebc
000000a0: 36df 0bbe 322c 26bd 35a6 eabc 62d5 053d
000000b0: db97 973d 6865 eebd 6803 b53d f4c9 f53d
000000c0: 482e 03be 69e1 1abe 750b c13d 7f98 b23d
000000d0: c5a9 123e cc74 17be 527b 21be b9df 71bd
000000e0: e3b9 de3d 2bbe 45bd a916 57bd f75a 7abd
000000f0: 421a 523d 13be 02be 6186 7f3c 5f6c b8bd
00000100: 3e61 0d3e efa5 793c 1969 983d 017b a6bd
00000110: 12cb afbd d069 b53d db21 8fbd 0b51 bc3c
00000120: 7a19 75bd 3a9d 4e3d 278b c6bc 8d1a 73bd
00000130: 164b 6cbd 795d 36bd 778d 42bd d04f 863d
00000140: b8b2 a23c
0.050272897 -0.0049146162 -0.07627988 0.20799662 0.17169954 0.1599887 -0.00261761 0.17869791
-0.02895119 -0.16172957 0.19498536 -0.1324396 -0.13971648 -0.20705651 0.045394447 0.015360227
-0.05747597 -0.09273362 -0.08023962 -0.15937696 0.04481809 -0.08469537 0.063461706 0.023762489
0.12544619 -0.08168594 -0.08849926 0.0018385425 0.19976076 -0.13889745 -0.12237723 0.12178043
-0.024904693 0.013696932 -0.09488978 0.11348283 -0.03204665 -0.02624703 -0.06594062 -0.014573971
-0.13659367 -0.04056949 -0.028643707 0.0326742 0.07402011 -0.116404355 0.0883854 0.1200141
-0.12810624 -0.1512505 0.094260134 0.087204926 0.14322574 -0.14790648 -0.15769699 -0.05905125
0.10875299 -0.04827706 -0.052511845 -0.061121907 0.051294573 -0.1276782 0.015596003 -0.09005045
0.13806626 0.015237316 0.07441921 -0.0812893 -0.085836545 0.08858073 -0.06988879 0.022987863
-0.05983875 0.05044291 -0.024236275 -0.059351493 -0.057688795 -0.044522736 -0.047498193 0.06558192
0.01986061

bias f4 [3]
00000000: 1295 f139 6153 513e 0f73 903d
0.00046078168 0.20441963 0.07053196

weight f4 [3, 3, 3, 3]
00000000: a34b 0dbe ee3e 143c 5cc5 983c 2341 51be
00000010: 6c88 7fbe 95f7 25be 8350 3ebc 43f0 e6bc
00000020: c0ca 113b 7469 3c3e 969d 353e abbf 2a3e
00000030: e3b6 15be 0c72 dfbd cc5f 033e 063a 303e
00000040: 2d20 5bbd 7cdd 06be 7c5e 15be f735 c33d
00000050: 9f52 b03c d61b adbc d03a d8bc f248 ebbb
00000060: 237d b3bc cabd 1bbe 1837 17be c2e4 96bc
00000070: 520e c2bd 6880 78be f14a a23c e873 0bbe
00000080: 593e 39bd d1fc 99bd db91 203e 899c 443a
00000090: 93f0 c53d b4af 8f3d 402c e63d edcf 20bd
000000a0: 82c0 17be 354f 16bd dde1 64bd dfcc 9dbc
000000b0: 30ff 93bc 597d 5abd f15b fa3c 99b8 32be
000000c0: e89e 8b3d d0e1 b2bc 6169 b6bd 66a8 303d
000000d0: 74fd ca3d a2ce 36bd ba54 033e 6948 71ba
000000e0: 96a5 133e f900 cb3d e128 04bd 0e20 5ebc
000000f0: f9e4 aabd 84cc 8dbd b39f bdbd c1ed aaba
00000100: ec15 0a3e e35c 6f3c e403 0ebe 9e98 afbd
00000110: 4915 ecbd 59ef 3c3e 5adf c53d 7872 06be
00000120: 4013 86bd 3cc2 a7bc b11e e43d bc79 5abe
00000130: 853c 253c 2f83 db3d c0d2 893d d456 10be
00000140: b43a de3d
-0.13798384 0.009048207 0.018648796 -0.20435004 -0.24954385 -0.16207726 -0.011615875 -0.028190738
0.0022246093 0.18399602 0.17735896 0.16674678 -0.14620547 -0.109104246 0.12829512 0.17209634
-0.053497482 -0.13170427 -0.14586824 0.09531777 0.021523772 -0.021131437 -0.026395231 -0.0071803266
-0.021910256 -0.15209118 -0.1476711 -0.018419627 -0.09475388 -0.24267733 0.019811125 -0.13618433
-0.045225475 -0.07518924 0.1568064 0.0007500132 0.096650265 0.070159346 0.11238909 -0.039260793
-0.1481953 -0.03669663 -0.055879463 -0.01926273 -0.018066019 -0.053342197 0.03056142 -0.17453231
0.06817418 -0.021836191 -0.08906818 0.043129347 0.099116236 -0.044630654 0.1282529 -0.00092042104
0.14418635 0.09912295 -0.032265548 -0.013557447 -0.08344454 -0.06923774 -0.09258976 -0.0013040827
0.13484925 0.014609548 -0.13868672 -0.08574031 -0.11527497 0.18450679 0.096617416 -0.13129604
-0.065466404 -0.02047836 0.111386664 -0.213355 0.01008523 0.10718381 0.067296505 -0.14095622
0.108510405

bias f4 [3]
00000000: 6b38 453d ef9f 88bd 438b b53d
0.048149507 -0.0667113 0.08864453

weight f4 [3, 3, 3, 3]
00000000: d26d 9f3d 5855 a5bd 9334 f3bc bc23 07be
00000010: c8c0 bb3d d539 b23c 6293 7c3d a897 04be
00000020: f3bf 1d3e 3ad6 8bbc 7cc0 243e 8d34 aa3d
00000030: 526f 21be a905 0bbc 84d8 1bbd fe78 16bd
00000040: e610 113e 862d e83b aa0b 0ebe d962 b63d
00000050: 92f1 923d bc40 bfba 8b04 b33d 9b12 9ebd
00000060: 6ba7 353e 6870 b63c 8a99 463e 8ce6 9c3d
00000070: 3511 803d 78e2 323e 595c 10be 5875 2c3d
00000080: c180 f33d 07f4 1dbe 5975 a43d 70fc 6fbd
00000090: 2788 22bd 782e afb8 f411 023d ce51 023c
000000a0: fef9 343e d55c 1fbe 1aa8 663d c6e4 2cbe
000000b0: eda4 12be cb0a a73d f461 15be 23aa 98bd
000000c0: fa81 cdbd 6e64 b6bc 01ae 25be 1913 1d3d
000000d0: 7f2d c23d 45c5 073e 3179 8e3d 4d92 be3d
000000e0: bbaa 6f3e 1f91 3d3d 8073 ac3d 5180 44be
000000f0: cb96 fa3d 4337 44be b9e2 dabd fe0b 6e3d
00000100: 6295 2e3d c972 b9bc b9c7 9ebb b192 e9bd
00000110: 915d 5ebc f0db 303e 97df a63b db13 7fbc
00000120: 6d5e 0f3c 29e4 bbbd c71f 123e 6e18 8f3d
00000130: 4589 183e b82b efbd 1c15 ab3d f9bf 5f3d
00000140: b710 72bd
0.077846184 -0.08072919 -0.029688155 -0.13197225 0.091676295 0.021756092 0.061663993 -0.12948477
0.15405254 -0.017069925 0.16089052 0.083108045 -0.15765122 -0.008485236 -0.038048282 -0.03673648
0.14166602 0.007085505 -0.13871637 0.089055724 0.07174982 -0.0014591436 0.08741101 -0.077183925
0.17739646 0.022270396 0.19394508 0.07661161 0.06253282 0.17469203 -0.14097728 0.042104095
0.11889792 -0.1542512 0.08030195 -0.058590353 -0.039680626 -8.353306e-05 0.031755403 0.007954074
0.1767349 -0.15562756 0.056312658 -0.16884145 -0.14320727 0.081563555 -0.14588147 -0.07454326
-0.10034557 -0.022264685 -0.16179658 0.03834829 0.09481334 0.13258846 0.06956709 0.093052484
0.23404972 0.046280976 0.084204674 -0.19189574 0.12235793 -0.19161706 -0.10687775 0.058116905
0.04262293 -0.022637742 -0.004845586 -0.11404932 -0.013572113 0.172714 0.005092572 -0.015568699
0.00875054 -0.091743775 0.14269935 0.069870815 0.14896114 -0.116782606 0.08353636 0.05462644
-0.05909797

bias f4 [3]
00000000: a8ca d73d 27ed 023e bcf4 1a3e
0.105367005 0.12785779 0.15132421

weight f4 [3, 3, 3, 3]
00000000: fdf2 303e f1c8 25be ca2a 93bd 3428 d8bd
00000010: 6ed8 cb3d 6aa1 8f3d 27f0 a5bd 304e 1bbc
00000020: 4b3f a8bd 2878 18be 67fd fb3d 1ebd 86bc
00000030: 4bfc dc3d 70bd 43be 997d 4abd 1d30 683d
00000040: 347e ca3d 0481 bd3d 6a3f 13be cf9c e1bd
00000050: 01d1 f53d 6766 363d cedd d6bc 3fe7 353e
00000060: 440d 9e3c 4adf 173e 0200 2bbe 2e05 433e
00000070: c874 013e 0fde 0abe 074f 7abd 4480 383e
00000080: 2c1f 01be 85f1 2ebd 1b82 10be d994 db3d
00000090: 4b03 28be b862 c2bc 5646 313e 2fdc 35be
000000a0: 5596 213e 7abd b53d 63c3 233e a0eb 12be
000000b0: ea06 a63d 78dd e0bd 5b39 9a3d ed96 053e
000000c0: d390 6dbc 887c e83d ea2b 163e 8e6c febd
000000d0: 9d68 0bbe e4e1 3abe a8ff 9abd 10cb 083e
000000e0: 0da7 b4bd 25ce e33d cf03 4e3d b58a 13be
000000f0: 7584 dc3c 09ff 48be 9ffc 0cbe b305 123e
00000100: 3a82 38bd a1f5 0ebd 757d 113d 6202 c0bd
00000110: b42d 9e3b 7440 c5bd f950 b1bd 75d6 863d
00000120: 6d5c 50bd 7e32 8b3d 7904 1dbe c764 8bbd
00000130: 0b9a 34bd 6f57 a83d 5dbd d0bd 8354 293e
00000140: 9b70 96bd
0.17280193 -0.16189934 -0.07185896 -0.10554543 0.0995339 0.07013209 -0.08102446 -0.009479091
-0.08215197 -0.14889586 0.12304192 -0.0164476 0.107903086 -0.19115233 -0.049436186 0.05668651
0.098873526 0.092531234 -0.1437966 -0.11016237 0.12002755 0.044531252 -0.026228812 0.17763995
0.019293435 0.14831272 -0.16699222 0.19044945 0.12642205 -0.13561271 -0.061110523 0.1801768
-0.12609547 -0.0427108 -0.14112131 0.1072175 -0.16407506 -0.023728713 0.17311987 -0.17759775
0.15780003 0.088740304 0.15992503 -0.14347696 0.081067875 -0.10979742 0.07530471 0.13045855
-0.014499861 0.113518775 0.1466519 -0.12423049 -0.13614126 -0.18250233 -0.07568294 0.13358712
-0.08820925 0.11123303 0.0502966 -0.14408381 0.02691863 -0.19628538 -0.13768242 0.14259987
-0.04504607 -0.03490222 0.035520036 -0.093754545 0.0048272256 -0.09631434 -0.086580224 0.06583873
-0.050869394 0.0679674 -0.15333737 -0.06806331 -0.04409222 0.08219802 -0.10192368 0.16536145
-0.073456965

bias f4 [3]
00000000: cfab 9e3d 41ed 0ebe 9867 453c
0.07747614 -0.13957693 0.012048624

weight f4 [3, 3, 3, 3]
00000000: 712a d7bd 3aff 54be 52fc 613d 9a31 0cbe
00000010: 9470 ecbd 788d 9dbe 5f6f 9d3d f43d 85be
00000020: a496 593d dbe8 aa3d 7d0f b3bd bef7 fabd
00000030: e1b5 c03d d5fb 5f3e 182c 1e3e a2f1 633d
00000040: ce65 47bc 48d9 f23d ed49 adbd bd48 a43d
00000050: 549a bf3d 8a00 15be 2ea2 dd3d 9985 1fbc
00000060: 5fd7 4e3b 0a5c f5bd 7be9 f43d c411 a83c
00000070: 37e8 63be a8b1 443d a620 4bbc 1898 053e
00000080: 2376 11be 9d2c 9d3c 3b91 f3bd dba8 9c3d
00000090: 6143 1b3c 7d57 bb3d 7364 763d 0af9 de3d
000000a0: 011d 28be d096 b93d 6c35 ab3d f178 e6bd
000000b0: 5425 2cbc ce2b 59bd eb3b dd3c d493 1a3e
000000c0: 5426 0f3d 59b3 263e 3381 183e 3711 af3c
000000d0: b47f 2ebe c9a3 c93d 82d2 3e3c 3121 a33d
000000e0: 65c0 6ebe d636 cd3d aa53 14be 81f0 f4bd
000000f0: 40e6 17bc 1459 7bbd a439 7e3d 5f1a ebbd
00000100: e3cc 10be 8d66 33be f6cc 233e 91df 50be
00000110: 5e5f 1fbd 4c82 083d 12fe f3bd ae03 86bd
00000120: aea2 193e 65b9 29be ce5d 323e 8a70 0a3e
00000130: 5cda 353e 5be3 263c 30d4 25be 390f 9c3d
00000140: c287 54bd
-0.10506142 -0.20800486 0.055172272 -0.13690796 -0.1154491 -0.30771995 0.07687258 -0.2602383
0.053122178 0.08345195 -0.087431885 -0.12254284 0.09409691 0.2187341 0.15446508 0.05565036
-0.012170268 0.11857849 -0.08461366 0.08021686 0.09355608 -0.14550987 0.10821949 -0.009736442
0.0031561477 -0.11980446 0.11958595 0.020516284 -0.22256552 0.04802099 -0.012397921 0.130463
-0.14205222 0.019186312 -0.11892935 0.07649394 0.009476514 0.091475464 0.06015439 0.10887344
-0.16417314 0.09061968 0.08359799 -0.112535365 -0.010506947 -0.05302029 0.02700611 0.15095454
0.034948662 0.16279353 0.14893036 0.021370513 -0.17040902 0.09845693 0.011646869 0.07965315
-0.2331558 0.10020225 -0.1448504 -0.11959935 -0.0092712045 -0.06136425 0.06206669 -0.11479639
-0.14140658 -0.17519589 0.15996155 -0.20397784 -0.03890931 0.033327386 -0.119136944 -0.065436706
0.15003464 -0.16574629 0.17418596 0.13519493 0.17759079 0.010186042 -0.16194224 0.07620091
-0.05188728

bias f4 [3]
00000000: d22e 47bd 8314 acbd 799b 4fbe
-0.048628636 -0.0840235 -0.20274152

weight f4 [3, 3, 3, 3]
00000000: 4ae0 ac3d b321 2e3e dd03 0e3e 6827 963c
00000010: 037d 3a3e fee8 a33d 8dd3 443e 6a5a 8bbd
00000020: f05a 293c 029c a5bd f8b2 b93c d7df 333e
00000030: c510 acbd 3efc 933d 10d8 443d c812 ad3c
00000040: 680f b93c e70b 06be cd47 0bbe 1818 003d
00000050: 409b f1bc e01a 0bbd 5316 2b3e 8042 05bc
00000060: 1401 b9bd cb4c 013e 6bbd 013e 1057 17bc
00000070: 4007 06bd 3849 e4bc 0850 82bc d469 1b3d
00000080: 5827 a23c a080 7cbd 748d babd e831 273d
00000090: 56be 883d 2ab9 c13d a8e9 b5bc 0056 ee3c
000000a0: 0300 133e a269 34be 4062 813b 92c4 15be
000000b0: 4a38 8bbd b084 6e3c cd6d 3b3e 91be 36be
000000c0: 668a 20be 4c56 663d 34d0 38be 240b 1e3d
000000d0: 0252 913d f09a d83c f7d2 0c3e e95c 243e
000000e0: 05d2 1a3e 4e10 f63d a8dd 1fbe c4b2 13be
000000f0: 00d8 59bd c02b cc3b e7e1 2abe 8e2a f63d
00000100: 28c2 2fbd dc4e 1abe d870 53bd 3eac 89bd
00000110: f435 563d 2e6e e53d 9004 59bc fc24 89bd
00000120: 1e01 88bd 20df 79bc 9c61 76bd 8ae4 993d
00000130: 1898 2fbe 602a 4d3d 1290 18be 2464 2f3d
00000140: f1bf d4bd
0.08441217 0.17005043 0.13868661 0.018329337 0.1821175 0.08003424 0.19221325 -0.068043545
0.010336623 -0.08086397 0.022668347 0.17565857 -0.08401636 0.07225846 0.048057616 0.02112712
0.022590354 -0.13090478 -0.13601609 0.031272978 -0.029492974 -0.033961177 0.16707735 -0.008133531
-0.09033409 0.1262695 0.12669913 -0.009237066 -0.032721758 -0.027866945 -0.015907302 0.037942722
0.019794151 -0.061646104 -0.09109011 0.04081908 0.06676929 0.09459145 -0.022206143 0.029093742
0.14355473 -0.1761842 0.00394848 -0.14625767 -0.06797846 0.014558002 0.18303604 -0.17846133
-0.15677795 0.056234643 -0.18048173 0.038584843 0.0709572 0.026441067 0.13752352 0.16051067
0.15119179 0.120148286 -0.15611899 -0.14423662 -0.05318451 0.0062308013 -0.16687737 0.120198354
-0.04290977 -0.15069145 -0.051621288 -0.06722306 0.052297547 0.11202656 -0.013245717 -0.06696507
-0.06640838 -0.015250951 -0.06015168 0.075142935 -0.17147863 0.05008924 -0.14898708 0.04282011
-0.103881724

bias f4 [3]
00000000: 12aa 11be dba0 95bd d912 3d3e
-0.14225033 -0.07306071 0.18464221
