Results/EDSR_SSIM_model.pt (torch, 26579 bytes, 30 tensors)

weight f4 [3, 3, 1, 1]
1.0 0.0 0.0 0.0 1.0 0.0 0.0 0.0
1.0
00000000: 0000 803f 0000 0000 0000 0000 0000 0000
00000010: 0000 803f 0000 0000 0000 0000 0000 0000
00000020: 0000 803f

bias f4 [3]
-0.4488 -0.4371 -0.404
00000000: 1dc9 e5be 92cb dfbe 17d9 cebe

weight f4 [3, 3, 1, 1]
1.0 0.0 0.0 0.0 1.0 0.0 0.0 0.0
1.0
00000000: 0000 803f 0000 0000 0000 0000 0000 0000
00000010: 0000 803f 0000 0000 0000 0000 0000 0000
00000020: 0000 803f

bias f4 [3]
0.4488 0.4371 0.404
00000000: 1dc9 e53e 92cb df3e 17d9 ce3e

weight f4 [3, 3, 3, 3]
-0.08621128 0.18465102 -0.0979604 0.1295538 0.27190048 0.22885595 0.1038204 0.20661949
0.17848662 0.0114915045 0.060332194 -0.033695523 -0.03712651 -0.01761597 0.038808323 0.00021612288
0.11980011 -0.08989176 -0.034190506 0.07072239 -0.008754305 0.07863841 0.021335546 -0.10601024
-0.11228808 -0.08017013 -0.11340438 -0.13028347 0.108869806 0.09489154 0.16745907 0.21282795
-0.15111428 -0.17977057 0.10703381 -0.13528754 -0.04455478 0.07372287 -0.057003383 0.21133807
0.31172734 0.19251354 0.07677768 -0.04129175 -0.03205307 -0.05693301 0.078637175 -0.08182129
0.04707811 -0.01209118 0.10189329 0.06210214 -0.15638456 0.14915541 -0.030466903 0.09355767
0.075525686 0.102262035 0.059148744 -0.09228204 -0.060081195 -0.090030834 0.09054934 -0.018167336
-0.13269863 -0.14284365 0.0032880043 0.118765175 0.1363548 -0.037826277 -0.045959875 -0.09058522
0.15205112 -0.025409127 0.02355703 -0.025983732 0.42809185 0.22237504 0.12391695 0.028991558
0.025501471
00000000: 8a8f b0bd 2815 3d3e 769f c8bd c0a9 043e
00000010: 8a36 8b3e 3759 6a3e ca9f d43d 0f94 533e
00000020: 32c5 363e dd46 3c3c e41e 773d 5104 0abd
00000030: f811 18bd 5e4f 90bc 7af5 1e3d 0b9f 6239
00000040: c359 f53d 2c19 b8bd 580b 0cbd e7d6 903d
00000050: 376e 0fbc 2d0d a13d e2c7 ae3c e61b d9bd
00000060: 4bf7 e5bd 3d30 a4bd 8e40 e8bd 0869 05be
00000070: 22f7 de3d 7f56 c23d 647a 2b3e 92ef 593e
00000080: b4bd 1abe c715 38be 8b34 db3d d188 0abe
00000090: 137f 36bd 04fc 963d 617c 69bd 0269 583e
000000a0: ba9a 9f3e 4522 453e 9e3d 9d3d 8a21 29bd
000000b0: 144a 03bd 9732 69bd 870c a13d ec91 a7bd
000000c0: fad4 403d 161a 46bc 6ead d03d d05e 7e3d
000000d0: 4623 20be 32bc 183e ba95 f9bc 2a9b bf3d
000000e0: 36ad 9a3d c26e d13d f445 723d 5efe bcbd
000000f0: b317 76bd 1662 b8bd ef71 b93d aad3 94bc
00000100: 26e2 07be 9b45 12be 8f7b 573b 283b f33d
00000110: 98a0 0b3e baef 1abd 6c40 3cbd be84 b9bd
00000120: 4ab3 1b3e cd26 d0bc acfa c03c d6db d4bc
00000130: db2e db3e 48b6 633e 2bc8 fd3d b47f ed3c
00000140: 76e8 d03c

bias f4 [3]
-0.12980153 0.11676972 0.019245772
00000000: b1ea 04be f724 ef3d 4fa9 9d3c

weight f4 [3, 3, 3, 3]
-0.09631733 0.15790187 -0.2511457 0.0919231 -0.013805515 0.018624293 0.15320937 0.05819362
-0.09655048 -0.16414657 -0.07910641 -0.252295 -0.011671937 0.0030075873 0.04773933 0.13820657
0.19648607 0.07403278 0.05890518 -0.19858797 0.028268546 0.21290924 -0.1303088 -0.17995895
0.2611554 0.008702877 -0.052275214 -0.08063268 0.073715985 -0.17527248 -0.068540305 -0.01734027
-0.18455803 -0.012035232 -0.1868469 -0.08201624 -0.02605575 -0.0018222589 -0.087152086 -0.021039145
-0.06037831 -0.08377506 -0.09754211 -0.1356601 -0.017785579 -0.07995625 0.040653583 -0.16042101
-0.084665574 -0.12444528 -0.015853299 0.15487693 -0.10945602 0.12375642 -0.10124077 0.11529391
-0.15189321 -0.120808184 0.11677589 0.12287525 -0.05268598 0.010409149 -0.043776896 -0.015560435
0.16714379 0.05415196 0.03487943 0.2156006 0.1226816 -0.051813863 0.0044275955 -0.026931673
-0.122841425 -0.05894896 0.16550054 0.0046931556 -0.060199387 0.110365056 -0.032817725 0.024706723
0.028243372
00000000: 0542 c5bd 07b1 213e 2b96 80be 2e42 bc3d
00000010: 8730 62bc f991 983c ebe2 1c3e 6f5c 6e3d
00000020: 42bc c5bd 0a16 28be 8b02 a2bd cf2c 81be
00000030: a73b 3fbc f11a 453b 518a 433d 0686 0d3e
00000040: a533 493e 809e 973d 8f46 713d a55a 4bbe
00000050: 7093 e73c e104 5a3e ac6f 05be 2947 38be
00000060: 29b6 853e 8396 0e3c 891e 56bd bf22 a5bd
00000070: 68f8 963d a17a 33be dc5e 8cbd 2f0d 8ebc
00000080: c8fc 3cbe 6c2f 45bc cb54 3fbe 21f8 a7bd
00000090: de72 d5bc ddd8 eeba cb7c b2bd 495a acbc
000000a0: 3f4f 77bd 4292 abbd 28c4 c7bd 7bea 0abe
000000b0: 10b3 91bc 1ac0 a3bd 5f84 263d 6845 24be
000000c0: 2565 adbd 2bdd febd c7de 81bc 0f98 1e3e
000000d0: 7a2a e0bd 0274 fd3d 5257 cfbd 371f ec3d
000000e0: e589 1bbe 486a f7bd 3328 ef3d 05a6 fb3d
000000f0: 41cd 57bd 238b 2a3c 674f 33bd 32f1 7ebc
00000100: be27 2b3e 72ce 5d3d bcdd 0e3d 67c6 5c3e
00000110: 7e40 fb3d c63a 54bd 5d15 913b d09f dcbc
00000120: 4994 fbbd 7774 71bd f978 293e 0bc9 993b
00000130: a293 76bd 1307 e23d e16b 06bd c165 ca3c
00000140: a55e e73c

bias f4 [3]
-0.0022975635 -0.053194325 0.1023758
00000000: b892 16bb 4be2 59bd 67aa d13d

weight f4 [3, 3, 3, 3]
-0.010272724 0.027398031 0.034035143 -0.0062574935 0.008141737 0.042146213 0.050054364 -0.05795301
0.024691574 0.17709252 0.012632486 0.18935767 -0.054651108 -0.067051485 -0.13108948 0.02181226
0.18984994 0.17609714 0.14530383 -0.02039011 -0.011516622 -0.08308784 0.048191797 -0.10050312
-0.09029827 0.1657097 -0.15392983 -0.06518441 0.030630108 -0.10782759 -0.14979345 -0.073061556
-0.21086285 -0.14752391 -0.14456028 -0.044232246 0.20962133 -0.062458128 0.20916848 0.07442459
0.14061141 -0.051311426 -0.15631524 0.068828404 0.056480702 -0.101860955 9.352058e-05 -0.17891212
0.060260557 0.062437467 -0.11308834 0.05336572 -0.13398951 -0.11053543 -0.04930672 -0.06792279
0.0110934535 0.045806024 -0.18296477 -0.015357652 0.06271019 -0.045351986 0.03023433 0.089357525
-0.120714456 0.052448817 0.17378259 0.0803023 0.06259651 0.14765656 -0.0030526572 0.12861149
-0.021162387 -0.10427123 0.14224699 0.0023497848 -0.069338 -0.07642526 -0.094623625 0.20767778
0.0020079226
00000000: ed4e 28bc d671 e03c 6f68 0b3d a90b cdbb
00000010: ec64 053c 82a1 2c3d ce05 4d3d 2360 6dbd
00000020: fc45 ca3c be57 353e 7df8 4e3c fae6 413e
00000030: d7d9 5fbd 4a52 89bd 523c 06be a0af b23c
00000040: 0668 423e cf52 343e 87ca 143e 2909 a7bc
00000050: 37b0 3cbc f529 aabd c364 453d 94d4 cdbd
00000060: 4dee b8bd ceaf 293e c89f 1dbe 677f 85bd
00000070: feeb fa3c b6d4 dcbd 7463 19be 4ca1 95bd
00000080: 6eec 57be 8210 17be 9c07 14be df2c 35bd
00000090: f9a6 563e 18d4 7fbd 4330 563e eb6b 983d
000000a0: 70fc 0f3e ee2b 52bd 1a11 20be e8f5 8c3d
000000b0: 4f58 673d 7a9c d0bd 7b20 c438 bd34 37be
000000c0: c6d3 763d 6ebe 7f3d dc9a e7bd 0396 5a3d
000000d0: 8c34 09be 6660 e2bd d8f5 49bd 1b1b 8bbd
000000e0: 51c1 353c 199f 3b3d 1e5b 3bbe a99e 7bbc
000000f0: 336e 803d 01c3 39bd fcad f73c 1401 b73d
00000100: 2439 f7bd 92d4 563d 10f4 313e 8875 a43d
00000110: 9932 803d 4833 173e 170f 48bb bbb2 033e
00000120: be5c adbc 288c d5bd 32a9 113e d9fe 193b
00000130: 1501 8ebd d984 9cbd 08ca c1bd 7ca9 543e
00000140: 5a97 033b

bias f4 [3]
0.049720883 -0.1636575 0.1720454
00000000: 20a8 4b3d d595 27be ab2c 303e

weight f4 [3, 3, 3, 3]
0.117413126 0.04840536 0.07620715 0.09455951 0.026480792 -0.13951157 -0.148319 0.11834612
-0.19288842 0.15123518 0.11355822 -0.03290423 -0.08606016 -0.08583981 0.05746243 0.0707536
-0.049956385 -0.17517653 0.12663987 0.031334143 0.06008183 -0.10261856 -0.14303143 -0.04581861
0.20577645 -0.07411914 -0.034520127 -0.036402173 -0.14951804 -0.088671714 -0.07125956 -0.13987674
0.10908967 0.0395226 0.16902965 -0.10299703 0.100336075 0.030009957 0.033688724 -0.11324481
-0.02899997 -0.23626338 0.072884075 -0.038782924 0.012806782 0.16013935 0.05092908 0.19106542
-0.08822986 0.04376595 0.2896223 -0.13983472 -0.08725782 0.09606271 0.069037184 -0.12952004
0.028963005 0.22288564 0.009810481 0.31431708 0.1234841 -0.04081114 0.23898289 0.07488317
-0.0019538114 0.15646808 0.105825156 0.0399285 0.10519524 0.15923823 0.046549276 0.015189283
-0.032204974 -0.15105672 0.2532512 0.06768706 0.04464134 0.13650495 0.1459249 -0.053881183
-0.09788803
00000000: 4b76 f03d b344 463d 7f12 9c3d 6ba8 c13d
00000010: 3fee d83c 1fdc 0ebe f0e0 17be 735f f23d
00000020: 8b84 45be 65dd 1a3e 3691 e83d 96c6 06bd
00000030: 4f40 b0bd c8cc afbd ba5d 6b3d 43e7 903d
00000040: 119f 4cbd 7a61 33be e2ad 013e 3b58 003d
00000050: 5d18 763d ae29 d2bd d576 12be 4bac 3bbd
00000060: 10b7 523e c7cb 97bd fa64 0dbd 721a 15bd
00000070: 421b 19be 8499 b5bd 88f0 91bd d93b 0fbe
00000080: 686a df3d 73e2 213d 1c16 2d3e 1bf0 d2bd
00000090: 007d cd3d 71d7 f53c 30fd 093d e5ec e7bd
000000a0: 5891 edbc 07ef 71be 3f44 953d d8da 1ebd
000000b0: 89d3 513c 92fb 233e 039b 503d a7a6 433e
000000c0: dbb1 b4bd ed43 333d 6049 943e d530 0fbe
000000d0: 3ab4 b2bd 87bc c43d 5e63 8d3d e7a0 04be
000000e0: d343 ed3c 223c 643e 24bc 203c 2bee a03e
000000f0: 3be5 fc3d 9529 27bd eeb7 743e 595c 993d
00000100: 840b 00bb 2b39 203e dcba d83d 118c 233d
00000110: 9a70 d73d 590f 233e 74aa 3e3d 78dc 783c
00000120: 5de9 03bd 9dae 1abe 24aa 813e 839f 8a3d
00000130: d6d9 363d f4c7 0b3e 566d 153e 84b2 5cbd
00000140: 8579 c8bd

bias f4 [3]
-0.009497491 -0.026724115 0.14336923
00000000: 5d9b 1bbc 88ec dabc 62cf 123e

weight f4 [3, 3, 3, 3]
-0.23130418 -0.09620804 -0.04565958 -0.23223335 -0.09189051 -0.13557743 -0.06047004 -0.05081959
-0.13903153 0.04468738 0.15840942 -0.042108595 0.18947342 0.11581341 -0.12876695 0.04656164
0.013668915 0.017737256 -0.10322123 -0.24473418 -0.053730004 0.10183464 0.034983877 0.003919436
-0.044716757 -0.15177937 -0.23641592 -0.112589374 -0.037315615 -0.07378096 -0.10454795 -0.17075264
-0.030039342 -0.11581505 -0.13688007 -0.08917112 -0.13293308 -0.066623285 0.10273789 0.15751672
-0.122353785 0.055501845 0.13563256 0.09529876 -0.13050894 -0.06731047 -0.18043935 -0.04408966
0.007041556 -0.058906026 0.052021608 0.0839772 0.026613714 -0.15982753 -0.08082624 -0.10588335
-0.19294912 -0.08747337 -0.06350248 0.07751809 -0.14859335 -0.184768 -0.106950805 -0.20404582
0.017861323 -0.09575587 -0.22152849 0.10919347 0.13588664 0.07137889 0.136322 -0.19324394
0.15147577 0.044079207 -0.0134065095 -0.24239318 0.029879406 -0.13266979 -0.024241647 -0.023009162
-0.205313
00000000: 01db 6cbe b908 c5bd 8a05 3bbd 94ce 6dbe
00000010: 1731 bcbd cfd4 0abe 6faf 77bd 3428 50bd
00000020: 485e 0ebe 1d0a 373d 1436 223e 107a 2cbd
00000030: 5205 423e 952f ed3d 7cdb 03be 6bb7 3e3d
00000040: 96f3 5f3c b94d 913c a765 d3bd 999b 7abe
00000050: fe13 5cbd ae8e d03d 414b 0f3d 9d6e 803b
00000060: eb28 37bd 0d6c 1bbe 0417 72be 4295 e6bd
00000070: 42d8 18bd 791a 97bd 3c1d d6bd c8d9 2ebe
00000080: 1115 f6bc 7130 edbd 4a2a 0cbe 599f b6bd
00000090: 9c1f 08be ca71 88bd 3e68 d23d 104c 213e
000000a0: 9f94 fabd e755 633d 43e3 0a3e ff2b c33d
000000b0: 23a4 05be 12da 89bd 18c5 38be 5c97 34bd
000000c0: dabc e63b 7247 71bd 9c14 553d 3dfc ab3d
000000d0: 0105 da3c d4a9 23be 3a88 a5bd 5fd9 d8bd
000000e0: 7494 45be 3d25 b3bd 970d 82bd cec1 9e3d
000000f0: db28 18be d333 3dbe 0609 dbbd 63f1 50be
00000100: e951 923c a71b c4bd 5dd8 62be d3a0 df3d
00000110: de25 0b3e 182f 923d ff97 0b3e bde1 45be
00000120: 771c 1b3e 668c 343d faa6 5bbc eb35 78be
00000130: a8c5 f43c 97da 07be 6b96 c6bc b67d bcbc
00000140: 923d 52be

bias f4 [3]
0.11970813 0.05292278 0.124092326
00000000: 8929 f53d 8fc5 583d 1e24 fe3d

weight f4 [3, 3, 3, 3]
-0.20933576 -0.14375533 0.12121847 -0.09571766 0.14606526 0.11753341 0.06026014 0.1207968
0.114214964 -0.15191062 -0.09824293 0.075726114 0.09407022 0.14069995 -0.15611158 0.012305567
-0.18483551 0.04701706 0.096412174 0.0028606737 0.017998794 0.15882805 0.1954021 -0.14423956
-0.08225971 -0.17508402 -0.12569658 -0.23181926 -0.21370462 -0.120191626 0.065570354 -0.10191445
-0.18049929 0.14357044 0.102453455 -0.17265637 -0.09534991 -0.11064131 -0.16968064 -0.21603738
-0.06844066 -0.21040447 0.024665855 -0.04214972 0.18493868 -0.12543061 -0.09489218 0.17988694
-0.0132201575 -0.108467646 -0.07800381 0.13432047 -0.004000195 -0.05322128 0.12872696 -0.12881748
0.07291716 -0.1331903 0.03971267 0.22104496 -0.118006386 0.029795943 0.08748542 -0.034296878
-0.1221546 -0.04210763 0.0119345235 0.11701554 0.21470192 -0.062195465 0.00042530452 -0.08465295
-0.13893038 0.17621168 0.22717641 -0.09313392 -0.036476646 0.18269405 0.09548744 -0.11719025
0.17763485
00000000: 1d5c 56be 9934 13be 6441 f83d 9f07 c4bd
00000010: 2292 153e 5bb5 f03d 56d3 763d 5064 f73d
00000020: 89e9 e93d 758e 1bbe 9733 c9bd 4b16 9b3d
00000030: e3a7 c03d a613 103e b7db 1fbe 4a9d 493c
00000040: 8545 3dbe f694 403d bf73 c53d 247a 3b3b
00000050: 3572 933c d2a3 223e 7d17 483e 89b3 13be
00000060: c777 a8bd 3a49 33be 9bb6 00be 0762 6dbe
00000070: 62d5 5abe 0727 f6bd c049 863d 86b8 d0bd
00000080: ced4 38be 2104 133e 1ed3 d13d d5cc 30be
00000090: d046 c3bd e997 e2bd c3c0 2dbe e738 5dbe
000000a0: 9e2a 8cbd 4574 57be 0c10 ca3c 2fa5 2cbd
000000b0: 9160 3d3e e270 00be d556 c2bd 4834 383e
000000c0: 5c99 58bc 4924 debd 76c0 9fbd 4e8b 093e
000000d0: 1114 83bb 8ffe 59bd 00d1 033e bbe8 03be
000000e0: 9855 953d 0a63 08be c1a9 223d 9c59 623e
000000f0: 55ad f1bd 9f16 f43c 8e2b b33d e27a 0cbd
00000100: 312c fabd 0d79 2cbd 0589 433c d8a5 ef3d
00000110: d2da 5b3e acc0 7ebd 68fb de39 875e adbd
00000120: c443 0ebe d670 343e efa0 683e ffbc bebd
00000130: 8968 15bd 2614 3b3e eb8e c33d 7101 f0bd
00000140: e9e5 353e

bias f4 [3]
0.18971929 -0.026360147 -0.038546707
00000000: c645 423e 3cf1 d7bc 27e3 1dbd

weight f4 [3, 3, 3, 3]
0.022510411 -0.025257977 -0.21655749 -0.048611913 -0.06593456 -0.027704198 -0.14181763 0.14066733
-0.011479974 -0.068054885 0.0011741102 0.0068916106 0.047423664 0.060973756 0.12705187 -0.032399196
0.20050812 0.11975908 0.14046186 0.038980156 0.11589501 0.14377846 -0.049596682 -0.120999694
0.018587561 0.28346917 0.2581833 -0.071742915 0.03662817 0.18016072 -0.10053061 0.18396455
0.02066418 0.11627735 0.1106469 -0.012911669 -0.09433291 0.093575574 -0.016855089 0.19780283
0.07376886 0.15363817 0.077433914 0.19580919 0.15464975 0.06881942 0.060745597 0.035303578
0.04891027 0.027888682 -0.03436969 -0.14884192 -0.048336834 0.22097616 0.05492958 0.1615013
-0.036709864 -0.14066535 -0.13588047 -0.016948726 0.025374135 -0.09433461 0.059445094 0.059360936
-0.010089293 -0.04439943 0.06704425 0.08023123 0.049924914 -0.005943938 0.17577656 0.06793312
-0.107003875 0.1305028 -0.14184053 -0.06025923 0.07691084 -0.023312641 -0.14030185 -0.0113897165
0.16141254
00000000: c167 b83c d1e9 cebc 3fc1 5dbe 491d 47bd
00000010: b308 87bd eaf3 e2bc a438 11be 190b 103e
00000020: 8016 3cbc 5c60 8bbd 9ae4 993a 05d3 e13b
00000030: 513f 423d 9ebf 793d e319 023e 05b5 04bd
00000040: 0052 4d3e 4044 f53d 3cd5 0f3e a8a9 1f3d
00000050: 5d5a ed3d a93a 133e e425 4bbd b0ce f7bd
00000060: f144 983c df22 913e 9a30 843e f3ed 92bd
00000070: 6c07 163d 0d7c 383e fee2 cdbd 3461 3c3e
00000080: ed47 a93c d222 ee3d d89a e23d 778b 53bc
00000090: 9d31 c1bd 8da4 bf3d af13 8abc d38c 4a3e
000000a0: 2114 973d 5353 1d3e ac95 9e3d 3482 483e
000000b0: 815c 1e3e 32f1 8c3d 60d0 783d 7c9a 103d
000000c0: 2356 483d ce76 e43c 3bc7 0cbd 046a 18be
000000d0: d8fc 45bd 9347 623e d7fd 603d 9960 253e
000000e0: 155d 16bd 940a 10be 4024 0bbe 0ed8 8abc
000000f0: 6bdd cf3c 8132 c1bd b37c 733d 7424 733d
00000100: 904d 25bc 2ddc 35bd 7f4e 893d 4550 a43d
00000110: 117e 4c3d 5ec5 c2bb c5fe 333e 8520 8b3d
00000120: d924 dbbd 87a2 053e a53e 11be 62d2 76bd
00000130: 6e83 9d3d 27fa bebc 4aab 0fbe ef9b 3abc
00000140: 5449 253e

bias f4 [3]
0.02338208 -0.1523133 0.18728875
00000000: c78b bf3c 05f8 1bbe 9fc8 3f3e

weight f4 [3, 3, 3, 3]
-0.050461423 0.049589742 0.15138997 -0.08488084 0.006272579 0.083438314 0.01644682 0.16100761
-0.16182339 -0.12332954 -0.03031566 -0.020170595 -0.03985264 0.014342062 0.101348475 0.102213785
-0.08006004 -0.11799907 0.08353386 -0.038703963 0.15708572 0.22210124 0.025310436 -0.010615277
0.17759107 -0.06311955 -0.055769715 -0.075301886 0.07921133 -0.03654447 -0.06573627 -0.07855323
-0.006835787 0.0420003 -0.08245662 0.12340267 0.21778418 0.07530472 -0.07431801 0.006435818
0.04807455 0.033327892 0.12455697 0.1439522 0.22272445 -0.12455859 -0.03627645 0.0045981947
0.122860275 -0.10266613 -0.13272992 0.090100564 -0.029975904 0.08891244 0.02633019 -0.025214758
0.056356575 0.22091763 -0.009639783 -0.017887149 -0.0023185783 0.091489516 0.08096115 -0.005964219
0.12132235 0.02363057 -0.15188567 -0.14732496 0.13168676 -0.123995334 -0.014070936 0.090403475
-0.1239807 -0.000637829 0.18576288 0.011964157 0.105785325 -0.13868576 0.008792505 0.13803983
0.1580363
00000000: a3b0 4ebd 9d1e 4b3d f905 1b3e 01d6 adbd
00000010: 358a cd3b b5e1 aa3d 7bbb 863c 2edf 243e
00000020: 08b5 25be 3394 fcbd 8c58 f8bc ce3c a5bc
00000030: 863c 23bd f8fa 6a3c ca8f cf3d 7655 d13d
00000040: 85f6 a3bd 7fa9 f1bd cd13 ab3d 0c88 1ebd
00000050: 14db 203e 826e 633e d557 cf3c b3eb 2dbc
00000060: 6fda 353e d344 81bd c96e 64bd e037 9abd
00000070: 8d39 a23d a7af 15bd bda0 86bd 84e0 a0bd
00000080: bdfe dfbb 8208 2c3d 04df a8bd 8aba fc3d
00000090: d102 5f3e 5c39 9a3d 0a34 98bd 8ee3 d23b
000000a0: d2e9 443d d482 083d ba17 ff3d 3568 133e
000000b0: e111 643e 9318 ffbd 9d96 14bd 74ac 963b
000000c0: 2b9e fb3d 9f42 d2bd 5aea 07be a586 b83d
000000d0: 0790 f5bc ba17 b63d 69b2 d73c 2e8f cebc
000000e0: 27d6 663d 3b38 623e 2ef0 1dbc 1288 92bc
000000f0: 4af3 17bb db5e bb3d f6ce a53d 7f6f c3bb
00000100: da77 f83d e694 c13c eb87 1bbe 5bdc 16be
00000110: e5d8 063e 44f1 fdbd c889 66bc 7525 b93d
00000120: 98e9 fdbd fb33 27ba a038 3e3e 5005 443c
00000130: faa5 d83d a403 0ebe 700e 103c 505a 0d3e
00000140: 45d4 213e

bias f4 [3]
-0.14058259 0.19266818 0.17310004
00000000: e2f4 0fbe cf4a 453e 2341 313e

weight f4 [3, 3, 3, 3]
-0.13956946 -0.012950998 0.2173858 -0.16452387 -0.07110461 -0.09894826 0.12732437 0.17297031
-0.057775073 0.17760439 0.08934131 0.08730413 0.3841126 0.19107182 -0.051070433 0.16862917
0.11125695 0.06648449 0.13285731 0.17176782 0.06417404 0.074631065 0.105502695 -0.004910329
0.084700204 -0.19334333 -0.041093115 -0.16992846 0.07329623 -0.015821794 0.007189007 -0.0147633385
0.16629322 0.0024479625 -0.13130528 0.039339967 -0.10250135 0.20634435 -0.00036306377 -0.06925458
0.13590632 0.22195019 -0.26773635 -0.122611664 0.12995033 0.19719262 0.03105296 0.12338809
0.105948165 0.05682013 -0.05262907 0.081838675 -0.11217117 -0.027298724 -0.18046252 0.054411534
-0.22647175 -0.01541125 -0.09629645 0.14259829 -0.06056513 0.08760665 -0.012815003 -0.17878081
0.1358906 -0.041237425 0.14495018 -0.095542945 0.049110323 -0.07667419 -0.022061963 0.023881717
0.15990657 -0.0669232 0.085100874 -0.04950391 -0.07826888 0.08033411 -0.13209338 -0.046884604
0.024074437
00000000: 4ceb 0ebe 6c30 54bc 629a 5e3e f278 28be
00000010: 4b9f 91bd 63a5 cabd 5261 023e 211f 313e
00000020: 8ea5 6cbd eddd 353e 94f8 b63d 82cc b23d
00000030: 68aa c43e 55a8 433e 3b2f 51bd 20ad 2c3e
00000040: afda e33d 0529 883d bf0b 083e e7e3 2f3e
00000050: ae6d 833d 2cd8 983d cc11 d83d d3e6 a0bb
00000060: 4d77 ad3d cbfb 45be 4151 28bd ba01 2ebe
00000070: 551c 963d b59c 81bc c391 eb3b eee1 71bc
00000080: c548 2a3e ff6d 203b e474 06be f222 213d
00000090: 3aec d1bd ef4b 533e 9859 beb9 58d5 8dbd
000000a0: 072b 0b3e e946 633e bd14 89be d31b fbbd
000000b0: b311 053e ddec 493e c762 fe3c e5b2 fc3d
000000c0: 5afb d83d 3abc 683d 9491 57bd 099b a73d
000000d0: 00ba e5bd 93a1 dfbc 2bcb 38be a1de 5e3d
000000e0: 36e8 67be 787f 7cbc 1337 c5bd 4905 123e
000000f0: 2413 78bd 1e6b b33d 05f6 51bc 5112 37be
00000100: e826 0b3e 93e8 28bd d26d 143e 05ac c3bd
00000110: e827 493d 5c07 9dbd 4abb b4bc 97a3 c33c
00000120: 8cbe 233e 080f 89bd 5e49 ae3d 9dc4 4abd
00000130: 6f4b a0bd 3686 a43d 7d43 07be 120a 40bd
00000140: c137 c53c

bias f4 [3]
-0.1344569 -0.12628332 0.07039383
00000000: 12af 09be 6a50 01be a42a 903d

weight f4 [3, 3, 3, 3]
0.09869765 -0.112128615 -0.23405507 -0.19726907 -0.08928267 0.12234888 -0.11863365 0.088871345
-0.0069616 -0.2271322 -0.21660273 0.04111547 -0.04092515 -0.044838235 0.06109449 -0.027081106
0.093343385 0.08166486 0.13858245 -0.017176569 0.21585754 0.11621097 -0.12317706 0.095332466
0.17944156 -0.1344453 -0.03931527 -0.16960575 -0.061125945 0.15334609 -0.10978894 0.119935036
-0.13329327 -0.14677374 0.17074215 0.02882793 -0.03817729 0.11433331 0.0058852355 0.022732485
0.14502983 0.08160052 0.13456675 -0.17525083 -0.18725954 0.012628612 -0.15730605 0.1724504
-0.1682426 -0.14734913 -0.13954754 0.063851416 0.13675958 0.041958604 0.18203622 0.062273223
-0.054747064 0.15742332 0.314591 0.066576004 -0.058491945 -0.022738717 0.15804286 0.17822495
0.08101154 -0.12111424 0.16965753 0.20598488 0.245006 -0.12270238 -0.10939821 -0.108777
0.063565366 0.00725812 0.042155493 -0.07206246 0.2387753 0.08096163 -0.140612 -0.17362879
-0.15558067
00000000: fe21 ca3d b0a3 e5bd 22ac 6fbe e700 4abe
00000010: d5d9 b6bd 0d92 fa3d 33f6 f2bd 2e02 b63d
00000020: 221e e4bb 5895 68be 1bcd 5dbe b268 283d
00000030: 21a1 27bd 4ca8 37bd 373e 7a3d 32d9 ddbc
00000040: d12a bf3d e83f a73d 8fe8 0d3e e0b5 8cbc
00000050: c209 5d3e 0400 ee3d 4144 fcbd ab3d c33d
00000060: 87bf 373e 07ac 09be 0c09 21bd 21ad 2dbe
00000070: 335f 7abd c206 1d3e 06d9 e0bd 80a0 f53d
00000080: 087e 08be db4b 16be 08d7 2e3e 8d28 ec3c
00000090: ca5f 1cbd 9527 ea3d efd8 c03b 7a39 ba3c
000000a0: b382 143e 2c1e a73d decb 093e f474 33be
000000b0: f7c0 3fbe 3de8 4e3c d614 21be d696 303e
000000c0: ca47 2cbe b1e2 16be 8de5 0ebe 88c4 823d
000000d0: b40a 0c3e c9dc 2b3d b467 3a3e 3512 7f3d
000000e0: 753e 60bd 9433 213e 1212 a13e 0059 883d
000000f0: 4095 6fbd 8c46 babc fdd5 213e 9a80 363e
00000100: 61e9 a53d be0a f8bd b4ba 2d3e b3ed 523e
00000110: dae2 7a3e 634b fbbd 2b0c e0bd 7ac6 debd
00000120: 8f2e 823d 86d5 ed3b 3dab 2c3d 7c95 93bd
00000130: 8381 743e 36cf a53d 98fc 0fbe bfcb 31be
00000140: 8a50 1fbe

bias f4 [3]
-0.13445996 0.11039568 0.17697063
00000000: dfaf 09be 2117 e23d ca37 353e

weight f4 [3, 3, 3, 3]
0.0053040353 0.070165515 0.06157281 0.09370177 0.13950782 -0.095534995 0.006458932 0.11717764
0.11714952 0.16684872 -0.124104716 0.07104564 -0.20515782 0.066980846 0.014993861 -0.07090574
0.019974736 -0.015673133 0.20888892 -0.051018212 -0.02036653 -0.22406866 -0.1921804 -0.0097947605
0.21071231 0.06027225 0.1327644 0.09336746 -0.13589312 -0.19987334 0.060036313 -0.019133704
-0.14722636 0.019832093 -0.007223482 0.0024042737 0.12863643 0.18560392 0.0783894 -0.023581512
0.03996862 0.26064637 -0.05299406 0.041414894 0.11293544 0.091692515 0.07646189 -0.05092396
-0.10144277 -0.15766966 -0.25053048 0.14581564 0.02229771 0.04685664 0.056225233 -0.1117111
-0.022624373 -0.13368587 -0.07723107 -0.11264814 -0.12007374 0.026090572 0.19043018 0.09137092
-4.3261873e-05 -0.07010941 0.13751137 0.16893736 -0.08512071 0.01877677 -0.051560305 0.13232742
-0.087931536 0.17682754 -0.037824765 -0.34353402 -0.4250069 -0.114035666 -0.105936244 -0.2364388
-0.15619808
00000000: 79cd ad3b f0b2 8f3d c533 7c3d b7e6 bf3d
00000010: 23db 0e3e daa7 c3bd 73a5 d33b d5fa ef3d
00000020: 16ec ef3d 64da 2a3e 9d2a febd 6080 913d
00000030: e414 52be 412d 893d d0a8 753c 0737 91bd
00000040: 0fa2 a33c f164 80bc fae6 553e 79f8 50bd
00000050: b6d7 a6bc 4172 65be f0ca 44be 347a 20bc
00000060: f8c4 573e 09e0 763d 64f3 073e 7037 bf3d
00000070: 9127 0bbe 99ab 4cbe a3e8 753d 49be 9cbc
00000080: 82c2 16be ea76 a23c f5b2 ecbb 0591 1d3b
00000090: 45b9 033e f40e 3e3e 9f8a a03d 042e c1bc
000000a0: 23b6 233d 7173 853e 4d10 59bd aaa2 293d
000000b0: b24a e73d 49c9 bb3d 0d98 9c3d a495 50bd
000000c0: 3ac1 cfbd 2874 21be 8845 80be b250 153e
000000d0: b0a9 b63c c0ec 3f3d 6e4c 663d cac8 e4bd
000000e0: c056 b9bc f3e4 08be 532b 9ebd 11b4 e6bd
000000f0: 39e9 f5bd e5bb d53c 2100 433e ad20 bb3d
00000100: 1574 35b8 8695 8fbd c8cf 0c3e eafd 2c3e
00000110: c453 aebd bed1 993c e630 53bd d780 073e
00000120: 7315 b4bd 4712 353e 24ee 1abd b1e3 afbe
00000130: 819a d9be 888b e9bd 1af5 d8bd 031d 72be
00000140: 64f2 1fbe

bias f4 [3]
-0.05618488 -0.1151755 0.038128637
00000000: 1e22 66bd 22e1 ebbd c62c 1c3d

weight f4 [3, 3, 3, 3]
0.11227768 0.2651492 0.14894944 0.11752344 0.0175623 -0.13629825 0.049949877 0.0844598
-0.081971295 0.15917177 -0.05666585 -0.021946337 0.018521668 0.046228986 0.26995218 -0.0076811174
0.08462205 -0.01583364 -0.080640815 -0.042538818 0.11721765 0.10610397 0.052777596 0.058940165
0.008897807 0.20716897 -0.11658694 -0.03250839 -0.09012459 -0.100977175 -0.006836608 -0.028665582
-0.07121023 -0.02377253 0.06021507 -0.016361494 0.11641348 0.028675953 -0.0638459 -0.16869548
0.19357957 0.18039156 0.18367763 0.20424818 0.0636959 0.11084371 0.0046189027 -0.21956928
-0.13645065 -0.1495951 -0.19861439 0.14200683 -0.0193638 0.16568281 -0.020245276 0.033301573
-0.07241616 0.044166066 0.14292063 -0.15259074 0.0016470808 0.15307844 -0.11731087 0.15586522
0.17017566 0.13633929 0.035873618 -0.056230742 0.19814147 0.113603555 0.09035687 -0.08964872
0.1610658 0.060595214 -0.07420374 -0.17168316 -0.08909332 -0.13741101 0.04534592 0.07671682
0.032513253
00000000: d7f1 e53d a3c1 873e 3486 183e 21b0 f03d
00000010: d0de 8f3c c591 0bbe 3e98 4c3d 42f9 ac3d
00000020: 91e0 a7bd edfd 223e 731a 68bd cec8 b3bc
00000030: c1ba 973c 9b5a 3d3d 2c37 8a3e e2b1 fbbb
00000040: 534e ad3d 8db5 81bc 0327 a5bd 2f3d 2ebd
00000050: cf0f f03d 0a4d d93d 522d 583d 3e6b 713d
00000060: 1cc8 113c 1a24 543e 22c5 eebd 8427 05bd
00000070: 3e93 b8bd 1fcd cebd a005 e0bb 15d4 eabc
00000080: abd6 91bd 9cbe c2bc 14a4 763d 8a08 86bc
00000090: 316a ee3d d5e9 ea3c a4c1 82bd 82be 2cbe
000000a0: b939 463e 91b8 383e fd15 3c3e 6f26 513e
000000b0: ff72 823d 0702 e33d 2a5a 973b c5d6 60be
000000c0: b8b9 0bbe 752f 19be 9261 4bbe 3d6a 113e
000000d0: d5a0 9ebc c1a8 293e 6cd9 a5bc 3b67 083d
000000e0: ec4e 94bd 7ae7 343d c959 123e bf40 1cbe
000000f0: dce2 d73a 98c0 1c3e ae40 f0bd 229b 1f3e
00000100: 8742 2e3e 879c 0b3e 37f0 123d 3552 66bd
00000110: 99e5 4a3e fba8 e83d 060d b93d c099 b7bd
00000120: 6fee 243e b032 783d 21f8 97bd b6cd 2fbe
00000130: 8f76 b6bd 79b5 0cbe a5bc 393d b51d 9d3d
00000140: 9e2c 053d

bias f4 [3]
0.101409025 0.15988642 0.18000682
00000000: 89af cf3d 44b9 233e b553 383e

weight f4 [3, 3, 3, 3]
-0.03324619 0.14967398 0.101435676 0.1499535 -0.18525709 0.117706135 -0.14092028 -0.060466036
-0.02401784 -0.14544183 0.11863829 0.1491759 -0.13466407 -0.09675214 0.0020573735 0.05692689
-0.09497643 -0.15921363 -0.011300743 0.1554975 -0.17600371 0.009203181 0.09589566 0.022912398
0.16728033 0.00915359 0.02484186 -0.05047503 0.02606915 0.025378793 0.12940012 -0.11602094
0.1447687 -0.029652327 -0.09579998 -0.014642537 0.08405648 -0.17532323 0.119379476 0.09768446
0.041551113 -0.120374545 0.108346894 0.1141441 0.06080295 -0.11353788 -0.06812269 0.14199154
0.123512134 -0.1410621 0.13218097 -0.00843966 0.14972769 -0.05916363 0.08313541 -0.043358356
0.0901299 -0.0008969307 0.07810585 0.05526209 0.011797056 -0.004611537 -0.18029238 -0.0012516379
0.083838776 -0.1499216 -0.1189159 -0.075797796 0.013799578 -0.18087086 0.17778488 0.0370221
0.12002905 -0.17670444 -0.19236381 0.06382011 -0.1134693 0.12498702 0.14569618 0.050287843
-0.13605286
00000000: 282d 08bd 2344 193e 82bd cf3d 698d 193e
00000010: 09b4 3dbe ea0f f13d 684d 10be 3cab 77bd
00000020: 10c1 c4bc b4ee 14be a2f8 f23d 91c1 183e
00000030: 61e5 09be fc25 c6bd 00d5 063b 2c2c 693d
00000040: 0183 c2bd e608 23be c026 39bc bd3a 1f3e
00000050: 513a 34be f0c8 163c f264 c43d c8b2 bb3c
00000060: 894b 2b3e f0f8 153c 2881 cb3c e8be 4ebd
00000070: f88e d53c 30e7 cf3c 7781 043e 639c edbd
00000080: 3f3e 143e 70e9 f2bc c832 c4bd 40e7 6fbc
00000090: ce25 ac3d ef87 33be 3a7d f43d ca0e c83d
000000a0: 8031 2a3d ee86 f6bd fae4 dd3d 62c4 e93d
000000b0: 840c 793d 8c86 e8bd e983 8bbd 3b66 113e
000000c0: eef3 fc3d 9572 10be 735a 073e 8046 0abc
000000d0: 3752 193e 9055 72bd e642 aa3d 8898 31bd
000000e0: 0696 b83d 0020 6bba f6f5 9f3d 805a 623d
000000f0: 7048 413c 601c 97bb 919e 38be 000e a4ba
00000100: aab3 ab3d 0c85 19be 2e8a f3bd e03b 9bbd
00000110: a017 623c 3636 39be 3d0d 363e 7ca4 173d
00000120: cad1 f53d 02f2 34be 05fb 44be 1eb4 823d
00000130: 9862 e8bd 32f9 ff3d 6131 153e a0fa 4d3d
00000140: 7151 0bbe

bias f4 [3]
-0.13355835 -0.10561608 -0.14803955
00000000: 85c3 08be 3e4d d8bd ae97 17be
