Results/Pytorch_0.pt (torch, 24111 bytes, 26 tensors)

weight f4 [3, 3, 1, 1]
000000 00 00 80 3f 00 00 00 00 00 00 00 00 00 00 00 00
       1.0 0.0 0.0 0.0
000010 00 00 80 3f 00 00 00 00 00 00 00 00 00 00 00 00
       1.0 0.0 0.0 0.0
000020 00 00 80 3f
       1.0

bias f4 [3]
000000 1d c9 e5 be 92 cb df be 17 d9 ce be
       -0.4488 -0.4371 -0.404

weight f4 [3, 3, 1, 1]
000000 00 00 80 3f 00 00 00 00 00 00 00 00 00 00 00 00
       1.0 0.0 0.0 0.0
000010 00 00 80 3f 00 00 00 00 00 00 00 00 00 00 00 00
       1.0 0.0 0.0 0.0
000020 00 00 80 3f
       1.0

bias f4 [3]
000000 1d c9 e5 3e 92 cb df 3e 17 d9 ce 3e
       0.4488 0.4371 0.404

weight f4 [3, 3, 3, 3]
000000 cc 19 2f 3e b3 c8 da 3c 27 b4 b0 3d d8 71 3f 3e
       0.17099684 0.026707029 0.08628111 0.18695772
000010 83 4b 17 3e 39 6e 46 3d 8a 8d 13 be 77 12 36 3e
       0.14774899 0.04844496 -0.14409462 0.17780481
000020 cf 6b 1e 3e a4 69 93 bd 70 74 b1 bd 40 14 07 bd
       0.15470813 -0.07197884 -0.08664787 -0.032978296
000030 7c 42 bc bc 00 be 88 3d bb 9b 67 3d e8 57 1f be
       -0.022980921 0.066768646 0.056545 -0.15560877
000040 df 91 1c bd 5e 67 27 3e be 58 83 3c 45 b8 31 bd
       -0.03822505 0.16348025 0.016033527 -0.043388624
000050 8f bb 93 3c 72 02 b8 bd 30 df 67 bd f3 52 e4 3d
       0.01803377 -0.089848414 -0.056609333 0.11148634
000060 4a b5 1b 3d 4e 5c 4a bd 37 fb 28 3e 02 29 84 bd
       0.038014688 -0.049404435 0.16502081 -0.06453134
000070 5b 18 28 3e 73 f7 dc 3d 84 9f ee bd 4f 15 97 3d
       0.16415541 0.10789385 -0.11651519 0.07377111
000080 5f 93 b4 bd 03 88 dc 3d ac 86 12 3e a4 40 51 3d
       -0.08817171 0.1076813 0.14309186 0.051087037
000090 1d ab 8c 3d 5d ed af bd bd 38 3d 3e 20 40 2e be
       0.06868575 -0.08590195 0.18478675 -0.17016649
0000a0 aa 4b 08 be 22 3e 1a be 5a 1a 5c 3d a9 8b 30 3e
       -0.13310114 -0.15062764 0.05373607 0.17240776
0000b0 ab 34 bd 3d df 3c 0d 3e d6 5b aa bb 4d c1 20 3e
       0.09238561 0.13792752 -0.005198936 0.15698738
0000c0 c6 02 f6 3d 18 f1 0d be 3d fb 3a 3e b7 c3 41 3e
       0.12012248 -0.13861501 0.18259902 0.18922316
0000d0 9f 80 2d be 00 97 3a 3e 2c ea 9a bb ef 84 39 be
       -0.16943596 0.18221664 -0.0047276225 -0.18117116
0000e0 33 bd 9c bd 6f e7 52 bc 72 7b 36 3e ee 68 3c 3e
       -0.076532744 -0.012872561 0.17820528 0.18399402
0000f0 91 14 d6 bd e3 f3 a1 bc 62 e1 81 bd aa ba 6b bd
       -0.104531415 -0.019769615 -0.063418165 -0.057551064
000100 59 84 2a 3e 7a 44 08 be 68 fc b1 3d e9 04 46 bd
       0.16652049 -0.13307372 0.08690721 -0.048344526
000110 d8 75 4b bb dc a1 76 bd 20 4c 06 be ce b0 79 3c
       -0.0031045582 -0.060212955 -0.13114977 0.015239907
000120 6c 89 1b 3e 9e 55 9c bd 70 eb 3d 3e 24 1f bb bd
       0.15189141 -0.07633518 0.18546844 -0.09136799
000130 df e2 e5 bd c9 02 3b 3d 2c 51 ac bd 4b 67 85 3d
       -0.11224913 0.045656953 -0.0841392 0.06513842
000140 fa 5d 45 bd
       -0.048185326

bias f4 [3]
000000 da 8d 12 3d 79 8c 77 3d 5c 84 f1 bd
       0.03577981 0.0604367 -0.11792824

weight f4 [3, 3, 3, 3]
000000 f3 ab 4c bd bf a8 27 3c 25 f4 e9 bc 02 c9 67 bc
       -0.04996867 0.010233103 -0.0285588 -0.014147045
000010 7a 64 19 be cb c2 a9 bb 9b c3 30 3e 41 54 3b bd
       -0.14979735 -0.005180692 0.17262118 -0.045734648
000020 f6 46 38 3e 07 9a 0b 3d 21 5f 3c 3e b3 09 79 bd
       0.1799582 0.03408244 0.18395664 -0.060800266
000030 c3 d6 8d 3c 08 59 bd 3d 25 13 a3 bd 20 dd 04 be
       0.01731432 0.09245497 -0.07962636 -0.12974977
000040 ee e4 21 bc f2 c8 43 be fb 02 31 3e a3 7f d0 bd
       -0.009881241 -0.19119623 0.17286293 -0.10180595
000050 f3 6b 16 3e f5 e7 a9 bc 56 c4 f8 bd d5 83 b2 3d
       0.14689617 -0.020740489 -0.12146823 0.08716551
000060 f5 81 fe bc 65 29 46 3e 89 8f 55 bd 0c dd ff bd
       -0.031067828 0.19351728 -0.05213884 -0.12493333
000070 6a 79 30 3e bd 3c 0f 3e cf ba 18 be d7 d0 f0 3c
       0.17233816 0.13988014 -0.14915012 0.029396458
000080 e8 64 e7 bd 9d fc 1c 3c 27 af ed 3d a5 b7 28 be
       -0.11298543 0.009581712 0.11605673 -0.16476305
000090 dd 99 19 3d f7 01 c5 3d d9 4e 0c bd ac 66 a1 3d
       0.03750025 0.096195154 -0.034254882 0.07880911
0000a0 3a 46 85 bd 3e 68 6d 3d 35 60 03 be 04 03 25 be
       -0.06507535 0.05796074 -0.12829669 -0.16114432
0000b0 f6 12 18 3e ba ac d8 bc 1b 91 07 be 57 bb e3 bd
       0.14850983 -0.02644955 -0.13238947 -0.111197166
0000c0 72 79 2f be a2 e8 9b 3d a4 a6 19 3d f1 d6 fd 3d
       -0.17136171 0.076127306 0.037512437 0.123945124
0000d0 9a fe 2e 3d c5 f3 14 3e ce cc 2c be d2 2f 1e 3e
       0.042723276 0.14546116 -0.16875002 0.1544793
0000e0 5a 54 1a be 4e bf 08 bd e6 e8 3f 3d 7c 27 e7 bd
       -0.1507124 -0.033385567 0.04685297 -0.11286828
0000f0 60 12 1b 3e 00 a6 08 be 03 84 12 be 59 3c 5d bc
       0.15143728 -0.13344574 -0.14308171 -0.0135031575
000100 fd 59 f7 bd 49 9f d6 bd f1 c2 8c bd 6c a9 bb 3c
       -0.12077711 -0.104796 -0.068731196 0.022907935
000110 f5 19 41 bd 00 fd fd bd de d9 cf 3d 6d 58 00 be
       -0.047143895 -0.124017715 0.10148977 -0.12533732
000120 49 94 22 3e 5b 92 24 be 4b e3 40 3e 2d 6b 16 3e
       0.15876879 -0.16071455 0.18836705 0.14689322
000130 34 88 28 be af cc 9c 3d f3 68 8d 3c d3 28 f9 3c
       -0.16458207 0.07656228 0.017261958 0.030414974
000140 40 32 07 3e
       0.13202763

bias f4 [3]
000000 47 9d 4a 3d 8d a3 08 3e 88 79 c4 bc
       0.049466398 0.1334364 -0.023983732

weight f4 [3, 3, 3, 3]
000000 4a 8b c0 bd 10 69 15 3e d2 06 35 3e 71 11 af 3d
       -0.09401567 0.1459086 0.17678383 0.085482486
000010 00 cb 30 bd e7 9c 40 be b4 50 ff bd 8f 04 81 3d
       -0.043162346 -0.18809853 -0.12466565 0.062996976
000020 13 70 1f bc da 1e a2 bc 55 cd c6 3d 0d f6 32 3e
       -0.00973131 -0.019790102 0.09707133 0.17476673
000030 12 dd 0e be 87 9e 3a 3c de cd 92 bd c5 92 1d 3e
       -0.13951519 0.011390335 -0.07168172 0.1538802
000040 b2 b9 2c be 13 cd ff bd d3 15 d5 bc 6a 55 0e bd
       -0.16867712 -0.12490287 -0.026011383 -0.034749426
000050 c4 42 a0 3d 54 4f 21 3d 92 b1 59 bd 28 53 ef bd
       0.078252345 0.039382294 -0.05314786 -0.11685783
000060 fb e8 80 bd ef a8 e6 bd d1 54 5b bd da 7d ad bd
       -0.062944375 -0.1126269 -0.053547684 -0.0847127
000070 ba f2 61 3d e0 7e 30 bd 9d 87 6b bc 0f 46 ff bc
       0.055163123 -0.043089747 -0.014375594 -0.031161336
000080 03 76 85 bd fc ea c1 3d 2c 08 5f 3d 6b f2 3d be
       -0.065166496 0.09468648 0.054451153 -0.18549506
000090 eb 60 3a 3b 52 e6 dd bc 40 5b 48 bd b2 0a b3 bc
       0.0028439115 -0.027087364 -0.048915148 -0.021855686
0000a0 8b ff 33 3e a1 0a 20 3e 43 df dc 3d 8f 79 84 bd
       0.1757795 0.15629055 0.10784771 -0.06468498
0000b0 21 82 2f 3d 63 df c9 3d 73 1f f8 3d 91 ec be 3c
       0.04284871 0.09857061 0.121153735 0.023306163
0000c0 1b 84 04 3e 7a 32 8b ba c3 24 b6 bd 23 9e 37 be
       0.12941019 -0.0010619902 -0.088937305 -0.17931418
0000d0 47 1c ae 3d bd 8a 24 3e c9 f4 1f bd 7f 53 0a 3e
       0.08501487 0.1606855 -0.039051805 0.13508414
0000e0 21 61 b2 bd 54 d9 07 3d a0 df 19 3e 72 7d 6e bd
       -0.08709932 0.033166245 0.15026712 -0.058225103
0000f0 69 8a e8 3d 96 75 3d 3e 7a 49 d9 ba 9e 5f fd bd
       0.11354525 0.18501887 -0.0016577684 -0.12371753
000100 cc 88 fe 3d 83 20 02 be 75 6d 8d 3d fe 59 42 3d
       0.12428436 -0.12707715 0.06905643 0.047449104
000110 65 ae 1e 3e 53 29 41 bd d4 34 a6 bd 61 34 f2 bd
       0.15496214 -0.04715855 -0.08115545 -0.11826397
000120 27 7c 27 3e 29 0c 2b 3e 94 54 88 3d 95 6b 37 3e
       0.16355954 0.16703857 0.06656757 0.17912133
000130 63 bc 04 be af 3d b1 bd 59 8d aa bd 25 e5 c2 bd
       -0.12962489 -0.08654343 -0.08327741 -0.09516362
000140 22 de 2d 3d
       0.04244817

bias f4 [3]
000000 c6 91 a6 bc b6 06 2c be 02 c3 24 be
       -0.020333182 -0.16799435 -0.16090015

weight f4 [3, 3, 3, 3]
000000 54 82 cf bd 82 d9 1e 3b a6 f7 17 be b4 a9 b6 bd
       -0.1013228 0.0024238531 -0.14840564 -0.08919087
000010 d8 d1 f1 bd af 49 8f 3d 90 f3 25 3e 77 6b 3c be
       -0.11807603 0.06996476 0.16206193 -0.1840037
000020 15 15 0e 3d 3f 36 24 be e4 26 f4 bc e1 72 8f 3d
       0.034688074 -0.16036318 -0.0298037 0.07004333
000030 ca 39 07 be 7d 83 bf 3d 01 90 1a be 7d 7f 5b bc
       -0.13205639 0.09351251 -0.15093996 -0.013397095
000040 41 f3 cc bc 87 ff 16 be 11 f3 34 be 8f ba 01 3e
       -0.025018336 -0.14745913 -0.17670847 0.12668823
000050 2b 70 34 3e 43 ed 2f be 67 28 fb bd 48 14 22 3e
       0.17620914 -0.17180352 -0.122635655 0.15828049
000060 84 b7 14 be ba d6 dc 3d cf 66 92 3d 4e 3e 9f 3d
       -0.1452313 0.10783143 0.071485154 0.077755556
000070 b7 e8 32 bd ab 96 2f bc 78 b8 dd 3c d8 27 0a be
       -0.043678965 -0.010717074 0.0270655 -0.13491762
000080 76 f4 30 be c6 19 4f 3c 07 1a 26 3d be a5 e0 3d
       -0.17280754 0.012640422 0.040552165 0.10969113
000090 b3 bd 12 be 2a 86 3a be 77 d9 97 bd 98 bc bb 3c
       -0.14330177 -0.18215242 -0.07414525 0.022917077
0000a0 69 7d 91 bd d4 e5 d0 3c 48 93 e3 3d ca 74 55 bd
       -0.07103998 0.025500216 0.11112076 -0.05211333
0000b0 bf 1f bf 3d e8 87 3a 3e 7a 67 10 3d ff 99 2b be
       0.09332227 0.18215907 0.035254933 -0.16757964
0000c0 66 12 80 bd 25 35 98 bb cc 89 37 be 19 69 3d be
       -0.06253509 -0.004645007 -0.17923659 -0.18497123
0000d0 eb 89 22 3e 7a 56 fa 3b 91 8e 17 be b5 bf 32 be
       0.15872924 0.0076397033 -0.14800479 -0.17455943
0000e0 2a ed 1d 3e 06 62 20 bd 26 9d 12 3d 58 f0 23 be
       0.15422502 -0.039155982 0.0357944 -0.16009653
0000f0 57 e4 c8 3d 05 56 3f be 05 34 93 3d 5e 1b d0 bd
       0.09809177 -0.18685158 0.07187656 -0.1016147
000100 7a ff 1d 3e 38 f5 90 bd 38 f1 d6 bd 40 f1 23 3d
       0.15429488 -0.07078022 -0.104952276 0.040024996
000110 db aa e8 bd 0f 60 01 be b6 76 11 be 9e 88 a5 3b
       -0.11360713 -0.126343 -0.14205441 0.0050516864
000120 b5 48 1b 3e b7 d6 47 3d b6 74 f2 3c a2 e6 23 3b
       0.15164454 0.048788752 0.029596668 0.0025009294
000130 ac b7 09 3e b2 46 85 3c f5 b9 2a 3c 8a a3 16 3e
       0.13448972 0.016269062 0.010420312 0.14710823
000140 4f 75 54 bb
       -0.0032418554

bias f4 [3]
000000 db 8b 41 3e 4f 07 08 be 39 4c e2 3d
       0.18901007 -0.13284038 0.110496946

weight f4 [3, 3, 3, 3]
000000 92 9b 53 bd 07 59 03 be 18 cc e3 3d e7 a2 7c bd
       -0.051662035 -0.1282693 0.11122912 -0.061678793
000010 c4 50 32 bd 5f b6 73 bd 89 bf 09 bd b1 d1 5c bd
       -0.043534055 -0.059500095 -0.033629928 -0.053910915
000020 b0 e3 07 3d ad 8c 07 3e 05 e8 41 3e 2d b5 3d be
       0.033176124 0.13237257 0.18936165 -0.18526144
000030 a2 77 93 3d 7b 08 17 be 46 b2 d1 bd d3 fc df 3d
       0.072005525 -0.14749329 -0.10239081 0.10936894
000040 14 df 5d bd 3f f8 e4 bd 7f 47 3a be c0 68 25 3e
       -0.054167822 -0.11180162 -0.18191336 0.1615324
000050 51 41 1e be cb c8 c4 bd df d4 38 be c7 0b 1e be
       -0.15454604 -0.09608611 -0.18049954 -0.1543418
000060 3e 6e 44 bd a3 61 20 be 4c d2 e2 bd 0b a1 30 bd
       -0.047956698 -0.15662245 -0.11075267 -0.043122333
000070 43 e8 5d 3c ee 6b 9f 3c e1 5e af bd ff 31 36 3e
       0.013544145 0.019460645 -0.085630186 0.1779251
000080 3e b5 95 bd 54 30 dc 3d 86 95 08 3e fa ff 93 bd
       -0.0730996 0.10751405 0.13338289 -0.07226558
000090 14 ef 2f 3e 97 1f 3b be 5b 61 d6 3d 4c 54 00 bd
       0.17181045 -0.1827377 0.10467788 -0.03133039
0000a0 64 28 03 3e 07 44 15 bd d5 2a c8 3d 5a 89 2a 3e
       0.12808377 -0.03644183 0.097737946 0.16653958
0000b0 f7 9c 95 bd 04 26 d5 bd 9b 44 f4 3d 61 35 19 be
       -0.07305329 -0.104076415 0.11927148 -0.14961769
0000c0 cc cc 03 bd 32 5e 0f 3e e9 24 06 3e e7 1f 8d bd
       -0.03217773 0.14000776 0.13100018 -0.068908505
0000d0 43 92 3d be 72 7d c3 bb 79 58 00 3e db 29 d0 bd
       -0.18512826 -0.005965882 0.1253375 -0.10164233
0000e0 22 50 9d 3d 7f 12 a1 3d f0 41 94 3d f9 92 3a 3b
       0.076813 0.07864856 0.07239139 0.002846895
0000f0 70 f2 8e bd f3 b7 22 bd ce 05 05 3e 6d b3 0f be
       -0.06979835 -0.03972621 0.12990496 -0.14033289
000100 0d 65 8c 3d ae 40 c5 bd 73 ae 65 bc 7c 69 6a bd
       0.068552114 -0.09631477 -0.014018643 -0.057229504
000110 be a9 cb bd e3 bd 9e 3a 36 12 2a 3c 6c 11 3e bd
       -0.09944485 0.0012111034 0.010380318 -0.046403334
000120 77 68 18 3c 62 b8 50 bd e0 75 cc bd aa 56 8e 3d
       0.00930225 -0.05095709 -0.0998342 0.069501236
000130 4a ac 39 be 56 5b e2 3d 8c f2 75 3c c6 62 09 3d
       -0.1813213 0.11052577 0.015011441 0.033541463
000140 b4 9b 3c bd
       -0.046046928

bias f4 [3]
000000 b3 bf f2 3c ca 62 2c 3e 4a f4 bc 3d
       0.029632425 0.1683456 0.09226282

weight f4 [3, 3, 3, 3]
000000 51 b6 2f 3e 3d 25 cd 3d 46 48 5e 3d 36 0b a9 bd
       0.17159392 0.10016868 0.054268144 -0.082540914
000010 78 0e ce 3d 5a 57 08 be 17 e4 28 bd 4e 9f 85 bd
       0.100613534 -0.13314572 -0.04123315 -0.065245256
000020 92 74 1e bd 26 3d 01 3e cf 84 19 be 88 35 b7 3d
       -0.03868539 0.12620983 -0.14992069 0.08945757
000030 2b b1 e6 3d 86 81 09 3e a0 40 03 be 21 87 40 3e
       0.11264261 0.13428316 -0.12817621 0.18801548
000040 8a a1 c4 3c 4c 33 cb 3d 06 54 b2 bc 01 6a 2f 3e
       0.02400281 0.099218935 -0.021768581 0.17130281
000050 a1 18 2e 3d 51 69 bb 3d e3 07 ec bc 13 6f df 3d
       0.042503957 0.09150947 -0.028812354 0.109098576
000060 9d 37 14 bd 90 ea e2 bc 33 d0 23 be a6 93 3b be
       -0.03618585 -0.027699739 -0.1599739 -0.18318042
000070 db a5 4d 3c a5 c6 3d be 5b 63 49 bb 42 d4 8d bd
       0.01255175 -0.18532808 -0.0030729386 -0.069252506
000080 50 5d e4 bd 25 17 27 3d 0f cf 29 3e a9 53 5a 3d
       -0.111506104 0.040793557 0.16582893 0.05330244
000090 74 ab cd 3c 67 61 e9 3d 88 fa 32 bc a1 f5 c7 3c
       0.02510617 0.11395531 -0.010923989 0.024409117
0000a0 c0 03 07 be 6f 3b f5 3c a1 3f fa bc 44 09 f0 3d
       -0.13185024 0.029935567 -0.030547919 0.11720517
0000b0 bb f6 3d 3d 45 3d 67 bd 86 1c 0d 3e 64 d9 c9 bd
       0.04637788 -0.056454916 0.13780412 -0.09855917
0000c0 a1 7f d4 3d e9 26 32 be 49 44 38 bd cb 6d f6 bd
       0.10375906 -0.17397656 -0.044986997 -0.1203266
0000d0 80 8d 3f be c1 24 8d 3d 8d 4f 9f bd 5a eb dd bd
       -0.18706322 0.06891776 -0.07778845 -0.108359054
0000e0 10 76 0c 3e 63 2d 32 3d 4e a4 88 3d 55 24 05 be
       0.13716912 0.043500315 0.06671964 -0.13002141
0000f0 47 5f 64 3d b0 5f ad 3d c4 09 14 3e b6 93 33 bd
       0.055754926 0.084655166 0.1445685 -0.04384204
000100 67 76 1c be 8f 01 1d 3d 38 83 6d bc 30 86 92 bd
       -0.15279542 0.038331565 -0.014496617 -0.071545005
000110 b8 83 3d 3e 90 e5 d6 bd cf 40 14 3e c0 2f 14 be
       0.18507278 -0.10493004 0.14477848 -0.1447134
000120 34 8a de 3d 33 ce 26 be 90 f0 35 be 53 2c 13 3a
       0.10866204 -0.16289596 -0.17767549 0.000561421
000130 e6 30 22 3e 92 07 2a bc 6b 8f 0b be cf df 4e bd
       0.15838966 -0.010377781 -0.13628928 -0.05050641
000140 73 f6 11 be
       -0.14254169

bias f4 [3]
000000 1b 94 d1 bd 8d 46 22 3e dd f0 3d be
       -0.10233327 0.15847225 -0.18548913

weight f4 [3, 3, 3, 3]
000000 84 b6 43 bd f3 f8 86 3d 96 6f 09 3d 57 19 a6 bc
       -0.047781482 0.06590452 0.033553682 -0.020275755
000010 17 52 91 3d 8d aa 06 3e 3a e9 b6 bd cc ed a9 3d
       0.070957355 0.13150997 -0.08931203 0.08297309
000020 f4 c1 06 3e 3c 5f 83 3d 42 0f 34 3e 59 a7 fa 3d
       0.13159925 0.06414649 0.17583945 0.1223895
000030 6f 9a ae bd db 22 8a bd 5d cb 35 bd 06 ba 2f be
       -0.085255496 -0.067449294 -0.044383395 -0.17160806
000040 3e 76 00 3e 00 03 69 bd 55 95 43 bd bf 6f 71 3d
       0.12545106 -0.056887627 -0.047749836 0.05894446
000050 1a 68 3f be 40 92 a9 bd 21 ab 46 3c 2d 4b 91 bd
       -0.18692055 -0.08279848 0.012125761 -0.07094417
000060 94 56 e9 3d cf ba 35 3d 7c 60 41 be f3 3f c1 3d
       0.113934666 0.044367608 -0.18884462 0.094360255
000070 a2 6e 26 3d 97 aa d9 bd 55 36 39 be be 8c e6 bd
       0.04063285 -0.106282406 -0.18087132 -0.11257313
000080 f5 97 9b 3c 5b 86 a9 3d a0 5d 95 3d 9e 1a 29 be
       0.018993357 0.082775794 0.07293248 -0.1651406
000090 b2 33 94 3d 51 69 c3 bd 61 c7 e4 bd e3 1d 92 3d
       0.072364226 -0.09541572 -0.11170841 0.07134607
0000a0 ee d0 90 3d db 15 36 be df 01 d7 bd 71 e8 90 bd
       0.070711 -0.17781775 -0.10498404 -0.07075585
0000b0 89 b1 d0 bd d1 b3 ee 3d 99 a9 0e 3e fc 16 0d 3e
       -0.10190112 0.11655391 0.13931884 0.13778299
0000c0 16 86 2f be b4 95 be bb ba 47 14 bd 9b 3e 5b 3c
       -0.17140993 -0.005816186 -0.036201216 0.0133816255
0000d0 bd c2 3b be d0 9f 96 3d 41 22 3e be ac a3 29 bd
       -0.18336006 0.073547006 -0.18567754 -0.041415855
0000e0 1d b8 0e 3e 66 b8 2c 3e 5e de 7c bd 6f b2 f9 bd
       0.13937421 0.16867217 -0.061735503 -0.12192237
0000f0 e4 39 a2 3d 56 a0 1d 3e 75 43 23 3e 42 1e dd ba
       0.07921198 0.15393195 0.15943702 -0.001686998
000100 de 41 28 3e a1 42 42 bd 05 17 17 be 8e 07 ac bd
       0.16431376 -0.047426824 -0.14754875 -0.083998784
000110 6f 60 b6 3d 14 be 37 3e 54 4d 62 bd ac 52 b0 3d
       0.08905112 0.17943603 -0.055249527 0.086095184
000120 10 52 23 3e 2f d2 37 3e 6a 88 da 3c 81 ba 9b 3d
       0.15949273 0.17951272 0.026676375 0.07603932
000130 e5 56 45 be 83 79 1e be 8f 43 11 3d 82 ce d1 bd
       -0.19271429 -0.1547604 0.03546482 -0.10244466
000140 77 38 3f be
       -0.18673883

bias f4 [3]
000000 28 dd 12 be 82 ab 7c 3d 51 7a 10 3e
       -0.14342177 0.061687 0.1410916

weight f4 [3, 3, 3, 3]
000000 59 1f 0e be b4 75 fd bd 0b f9 09 be ac 6a 27 3e
       -0.13879146 -0.12375966 -0.13473909 0.16349286
000010 8a 21 3f be 80 07 c3 3d 73 c1 54 bd 0a b3 ab bd
       -0.18665138 0.09522915 -0.0519423 -0.08383758
000020 c9 3e 30 3d 75 3d 98 3d ab fa 8f 3d d7 f0 d3 3d
       0.043028627 0.07433597 0.07030233 0.10348671
000030 a9 a5 50 bd 33 f6 88 3d 25 3a 7b 3d 9a bd 3e be
       -0.050939236 0.06687584 0.061334748 -0.18627015
000040 cb 06 a1 bd 11 65 7d 3b 95 85 21 3e 4e 5e 37 be
       -0.07862624 0.0038664977 0.15773614 -0.17907068
000050 d9 d4 12 3e 74 4b de 3b cc c5 88 bd aa a3 ef bb
       0.14339007 0.006783897 -0.06678352 -0.0073132114
000060 18 a5 75 bd 47 0a 13 be 68 d4 32 3e a6 80 97 3d
       -0.0599719 -0.14359389 0.17463839 0.073975846
000070 d2 55 f2 bc 30 88 9b bb cb f6 ff bc a4 4b 0a 3d
       -0.029581938 -0.0047464594 -0.03124561 0.033763543
000080 fc e4 19 3d 7e cb 13 3d 0d 2b a0 bc c1 83 83 bd
       0.037571892 0.036082737 -0.019551778 -0.064216144
000090 b4 b0 9b 3d 47 39 d0 bd e9 4f ee bd c6 38 1c be
       0.07602063 -0.10167175 -0.116363354 -0.15256032
0000a0 16 2c c9 bc 32 e2 be 3c 8c 53 ea 3d 15 2d 38 be
       -0.024557155 0.023301218 0.114417166 -0.17985947
0000b0 af 64 c8 3a 76 07 73 3d 14 31 29 be 84 33 de 3d
       0.0015288795 0.059333287 -0.16522628 0.108496696
0000c0 0c 73 e8 bc 7a 98 8f 3d 06 d9 89 3c da bf 19 3e
       -0.028375171 0.070115045 0.016827118 0.15014592
0000d0 dc 34 24 bd 0c 56 a7 3c 49 ef f0 bd 2c e6 08 3b
       -0.040089473 0.020426773 -0.1176439 0.0020889146
0000e0 7f a1 12 be 5a 4d 03 be 66 60 37 3e 5f 35 26 be
       -0.14319418 -0.12822476 0.17907867 -0.16231297
0000f0 4c b1 ee 3c 47 c1 08 be f4 8e 46 be ba 7b d8 3d
       0.029137276 -0.1335498 -0.1939047 0.10570474
000100 3b 63 40 be 81 05 29 3d 8d 1d ff 3d 95 04 3f 3e
       -0.18787853 0.041265015 0.12456808 0.18654092
000110 f4 c0 40 3e 9a 21 1f 3e 52 80 42 be 70 d3 02 bc
       0.18823606 0.15540162 -0.18994263 -0.007984981
000120 13 67 93 3c 1d de 26 3e 54 7f 49 bd d5 d5 35 3e
       0.017993486 0.16295667 -0.049193695 0.17757352
000130 fc 25 cb bc 03 8b 92 3c ea 09 c0 bd fe 6d e4 bd
       -0.024798386 0.017888552 -0.09376891 -0.11153792
000140 48 a4 c1 bd
       -0.09455162

bias f4 [3]
000000 2a 4c 81 3d 4a fc 98 3d da 51 b4 3d
       0.06313355 0.07469995 0.088046744

weight f4 [3, 3, 3, 3]
000000 52 24 05 be 8b 8d 3a be 8f a8 42 3c 67 c1 35 be
       -0.13002136 -0.18218057 0.011881008 -0.17749558
000010 85 b2 37 bd 65 90 14 be e7 6e f5 3d f3 1d 0c bd
       -0.044847984 -0.14508207 0.119840436 -0.03420825
000020 c9 3a 43 be 0c c8 2b be 96 8e 9b bd 95 ee 9b 3d
       -0.19065394 -0.1677553 -0.075955555 0.07613865
000030 81 4c 62 3d 42 91 a3 3d 6c d8 d2 3c e1 65 c0 bc
       0.05524874 0.0798669 0.025737964 -0.02348608
000040 cb 44 46 be 93 e6 e6 bd b6 1c 17 be 3a f6 3f 3e
       -0.1936218 -0.11274447 -0.14757046 0.18746272
000050 46 9e 1a 3e 09 85 2a be 2e bc 07 bd 53 da 20 be
       0.15099439 -0.16652311 -0.033138447 -0.15708284
000060 70 25 b7 bb 2d d0 1b 3e 2b 67 1d 3e ae 4f 18 be
       -0.0055891797 0.15216132 0.15371387 -0.14874145
000070 9e a6 e4 bd a6 20 fb bd 5d dc 21 3e d4 95 b0 3d
       -0.11164592 -0.122620866 0.15806718 0.086223274
000080 99 e7 c9 3d 24 01 37 3d 3a 25 04 3e ba 41 06 3e
       0.09858627 0.044678822 0.12904826 0.1311101
000090 df fc 13 3d 67 a2 60 3d 10 da a7 3c b0 64 30 3e
       0.03612983 0.05484238 0.020489722 0.17225909
0000a0 f3 15 a0 bd 14 e4 f9 3d 54 2c d0 3d d3 3f 18 bd
       -0.078166865 0.122017056 0.10164705 -0.037170243
0000b0 a5 09 38 3e 9c 81 22 be 5b 04 25 bd b7 c2 1c 3d
       0.17972429 -0.15869755 -0.040287357 0.038271632
0000c0 07 89 12 3d 79 e9 2c 3e 19 72 02 bd 9f 85 16 be
       0.03577521 0.16885938 -0.031847093 -0.1469941
0000d0 3f 89 08 be d8 05 97 3d fb 69 8a 3d 90 b4 ff bc
       -0.13333605 0.073741615 0.067584954 -0.031214029
0000e0 f1 31 a7 bd 93 0c 09 be 67 9e 16 3e b8 e0 55 bd
       -0.081638224 -0.13383703 0.14708863 -0.05221626
0000f0 7e 3e fd 3d a3 80 a3 3c e5 30 82 bd 87 50 9d bd
       0.12365435 0.0199588 -0.06356982 -0.07681375
000100 16 a8 ab bd a4 6c 1c be 62 0d 31 be 91 7a bb 3c
       -0.08381669 -0.15275818 -0.17290261 0.022885593
000110 62 af 06 be 9a f2 44 be e3 b5 e7 3d e8 f4 0b 3e
       -0.1315284 -0.1923317 0.11313989 0.13667643
000120 af 79 3c 3e 8c 32 38 be 58 c6 18 bd 5e 8c 86 bd
       0.18405794 -0.17988032 -0.03729853 -0.06569742
000130 df 06 98 bd 6f 99 0c 3e 48 d3 4e bd 95 c8 73 3d
       -0.074231856 0.13730405 -0.050494462 0.05951746
000140 7d 3d cd bc
       -0.025053734

bias f4 [3]
000000 c7 da 42 bd b2 2d 13 3d 63 cb dd bd
       -0.047571924 0.03593225 -0.108298086

weight f4 [3, 3, 3, 3]
000000 a4 c7 3f be 55 23 02 be 4a 5e 1a 3e 44 a7 da bc
       -0.187285 -0.1270879 0.15075031 -0.026691087
000010 38 1c 28 3e 88 4e 0f 3e ee e3 57 bd 0d 64 a3 3d
       0.16417015 0.13994801 -0.052707605 0.079780675
000020 5e b0 c3 3d 2c 4e 28 be 25 a2 5c 3c ff 72 d0 bd
       0.09555124 -0.1643607 0.013466393 -0.10178184
000030 99 a1 99 3d d3 d3 21 3e b9 f2 08 3e 8e bd 36 3e
       0.075015254 0.15803461 0.13373841 0.17845747
000040 fb e0 be 3d 63 b2 ed bd 46 48 b0 3d 89 b3 d1 bd
       0.09320255 -0.1160629 0.08607535 -0.10239322
000050 a2 4d 81 bd d0 c7 11 be a9 9f ed 3d 66 af 61 bc
       -0.063136354 -0.14236379 0.116027184 -0.013774728
000060 a9 60 5c bd 29 ee 3b 3e 67 31 8f 3d 28 4e 5c bc
       -0.05380312 0.1835257 0.069918446 -0.013446368
000070 70 5c 3e be 69 a5 47 bc ab 9f f8 3d 4f 0f 70 bd
       -0.1858995 -0.012185433 0.12139829 -0.05860835
000080 47 ad 9a bd e1 47 39 3d 68 6e 28 3e 41 f3 89 bd
       -0.07552581 0.045234565 0.16448367 -0.0673585
000090 61 51 d0 bc a1 97 23 bd 0e c1 b5 3c de 7c 22 be
       -0.02542943 -0.039939526 0.022186782 -0.15867946
0000a0 e8 d7 63 bd 9c c4 67 3d e9 b2 1a 3e b6 98 b0 bd
       -0.055625826 0.056583986 0.15107311 -0.08622877
0000b0 cb 2b c6 bd 4a 93 b4 bd 5d 77 18 3e e5 e5 01 3e
       -0.096763216 -0.08817156 0.14889283 0.12685354
0000c0 f5 a1 0c 3d 91 32 5d bd 84 86 38 3e c0 cd 01 3e
       0.03433414 -0.054003302 0.18020064 0.12676144
0000d0 00 d3 c5 3d ab 63 4e bd 5e 3a d0 bd 27 19 22 3c
       0.09659386 -0.05038802 -0.10167383 0.009893692
0000e0 c1 9d 6c bd 16 ca 2c 3e 6e 0f 31 bd c2 b2 20 3e
       -0.057767633 0.16873965 -0.043227606 0.1569319
0000f0 d6 0b ca bc 0f 21 8e bd bf 34 46 3d cd d3 47 bd
       -0.024663847 -0.06939899 0.048390146 -0.048785973
000100 e5 57 0a be 13 a7 07 be 94 af 3b 3e 6c 94 13 3e
       -0.13510092 -0.13247328 0.18328696 0.14412087
000110 63 56 33 3e db b8 3f 3e 11 e8 16 be a5 83 2e 3e
       0.17513423 0.1872286 -0.14736964 0.17042406
000120 da 1b 0f 3e 74 d3 1e 3e 3f 0d 2c 3e 6a c4 12 3e
       0.13975468 0.1551035 0.16801928 0.14332739
000130 7b e4 3e 3e 44 d4 b5 3d d3 aa 46 3d 4d 80 d0 3d
       0.18641846 0.08878377 0.048502754 0.101807214
000140 0e 81 a9 bd
       -0.08276568

bias f4 [3]
000000 75 d9 40 be 45 e3 8b 3d 1d a8 1a be
       -0.18832953 0.068304576 -0.15103193

weight f4 [3, 3, 3, 3]
000000 0d 5b cf bd d6 ce 8f 3d 5e bc 82 3d 96 b6 0a be
       -0.101247884 0.07021873 0.063835844 -0.13546214
000010 00 71 32 be a8 aa e6 3c 0f 13 10 be c0 5b d6 3c
       -0.17425919 0.028157547 -0.1406977 0.026166797
000020 f5 ea e1 bd 78 1d 92 bc d0 3c e3 3c 36 6b c6 3d
       -0.110311426 -0.017836317 0.027738959 0.096884176
000030 8b 0f 1b be 4b bc 39 3e a8 7a 04 bd 0c e9 88 bd
       -0.15142648 0.18138234 -0.032343537 -0.06685075
000040 ee f3 02 be 00 ea 2f bc c0 3c 18 be b8 a0 b6 bc
       -0.12788364 -0.010736942 -0.14866924 -0.022293434
000050 10 ab 11 3c ab db 12 3e 10 6c 88 3c 18 23 20 3d
       0.008890882 0.14341609 0.01665309 0.039095968
000060 01 2d e2 bd 90 15 21 be 1c bc 54 bd 64 77 10 be
       -0.1104374 -0.15730882 -0.051937208 -0.14108044
000070 12 8f ff 3d 10 c1 2d 3d 54 a3 7a 3d 89 08 1f be
       0.1247846 0.042420447 0.061190918 -0.155306
000080 d0 67 07 bc a5 a3 01 3e cf 4d df bd 92 78 1c be
       -0.008264497 0.12660082 -0.10903513 -0.15280369
000090 ff d9 0c be b6 26 c1 3d 10 98 6a bc 9e 0b 99 3d
       -0.13755034 0.09431212 -0.014318481 0.07472919
0000a0 2b c4 96 bd 82 b1 fb 3d 72 00 c5 3d 7b af 1a 3e
       -0.07361635 0.12289716 0.096192256 0.15106003
0000b0 81 37 18 3e 60 57 83 bd 21 20 ee bd f2 40 d4 3d
       0.14864923 -0.0641315 -0.11627222 0.1036395
0000c0 84 c8 2a 3d 88 90 28 3d ee 70 fd bd f3 c1 0b 3e
       0.041695133 0.04115346 -0.12375055 0.13648205
0000d0 7f a1 2d 3e 72 c3 98 bd a3 c2 12 3e d2 79 8e 3d
       0.16956137 -0.07459153 0.1433206 0.06956829
0000e0 7b 74 08 3e 2f 4f 27 3e 3a be c9 3d c0 23 69 3b
       0.13325684 0.163388 0.09850736 0.0035574287
0000f0 20 ab 6c 3c 79 f6 cc bd 0c b9 22 3d fd c0 2a be
       0.014445096 -0.100079484 0.039727256 -0.16675182
000100 6b 7f 01 3e 53 d9 fc bd 80 53 d3 3a 64 00 42 be
       0.12646262 -0.12346139 0.0016122907 -0.18945462
000110 86 8c 9c 3d 47 c5 fe bd a8 e1 e6 bd 26 14 04 be
       0.0764399 -0.124399714 -0.11273509 -0.12898311
000120 a1 74 ce bd d3 09 0d 3e c0 e3 03 be 80 1b a3 bc
       -0.10080839 0.13773279 -0.12879848 -0.019910574
000130 76 2f d4 3d ed 34 37 3e 14 1f 53 bd fa 22 c3 3d
       0.10360615 0.17891283 -0.05154331 0.095281556
000140 52 27 b7 3d
       0.08943047

bias f4 [3]
000000 a3 2f 2b 3e 38 b6 84 3c 80 4c 86 bd
       0.1671739 0.01620017 -0.0655756
