Results/UNET_SSIM_model.pt (torch, 632649 bytes, 118 tensors)

weight f4 [4, 3, 3, 3]
0	0xbd80d053	-0.06289735
1	0xbe6fccb8	-0.23417938
2	0x3da943de	0.08264898
3	0xbdd68ebf	-0.104764454
4	0x3d03385d	0.032036174
5	0xbda42664	-0.08015135
6	0xbe2556a5	-0.16146334
7	0x3c1c700c	0.009548198
8	0x3d382d27	0.044964936
9	0xbe533962	-0.20627359
10	0xbd389d2b	-0.045071762
11	0x3d13c817	0.036079492
12	0xbd95bc44	-0.073112994
13	0xbdff3c26	-0.12462644
14	0xbe1263de	-0.14295909
15	0x3e040383	0.12891965
16	0xbe283c09	-0.16429152
17	0x3d346389	0.044040237
18	0xbe15affa	-0.14617911
19	0xbe02b013	-0.1276248
20	0xbced04f9	-0.028933035
21	0xbe1e623f	-0.15467165
22	0xbe12cbb4	-0.14335519
23	0x3e073476	0.13203606
24	0xbe075471	-0.13215806
25	0x3e2e551a	0.17024651
26	0xbd017264	-0.031603232
27	0x3d5719a4	0.052514687
28	0xbd0b440b	-0.034000438
29	0xbd370a6b	-0.04468767
30	0xbd679e69	-0.056547556
31	0xbd8f31fb	-0.06991955
32	0x3ca2037d	0.019777054
33	0xbc10d0b2	-0.008838819
34	0x3d202478	0.03909728
35	0xbd0dc623	-0.034612786
36	0x3e181f11	0.14855601
37	0xbe231d19	-0.15929069
38	0x3dcb517d	0.09927652
39	0x3e100e1f	0.14067887
40	0xbe571421	-0.21003772
41	0xbe557438	-0.20845115
42	0xbd91bed7	-0.07116478
43	0x3caa171e	0.020762976
44	0x3dac6289	0.084172316
45	0x3ddce18a	0.10785206
46	0xbdbc28ef	-0.09187495
47	0x3d8822b9	0.06647248
48	0xbda955ad	-0.082682945
49	0xbe700559	-0.2343954
50	0xbcf58faf	-0.02997574
51	0x3d006a62	0.031351455
52	0x3e185402	0.14875796
53	0xbd2b6806	-0.04184725
54	0xbde4b89b	-0.11168023
55	0x3e2430e6	0.16034278
56	0xbcdd3aee	-0.027005639
57	0xbcfa7d84	-0.030577429
58	0x3e84d84e	0.25946277
59	0x3db30af5	0.08742324
60	0x3bcd620b	0.006267791
61	0xbdd4acf0	-0.10384548
62	0x3c543dca	0.012954185
63	0xbde229d6	-0.11043136
64	0x3e18810e	0.1489298
65	0xbc421665	-0.01184616
66	0xbd93fc99	-0.072259136
67	0x3e8123bc	0.25222576
68	0x3e65e56f	0.22450803
69	0x3c5f0c9f	0.013613849
70	0xbaf135ca	-0.0018402871
71	0xbe104f6b	-0.14092796
72	0xbdde4621	-0.1085322
73	0x3e043b38	0.12913215
74	0xbb886b7c	-0.0041632038
75	0xbbb36076	-0.0054741455
76	0x3e894a8b	0.26814684
77	0x3d908a44	0.07057622
78	0xbc454643	-0.0120406775
79	0xbdf6101a	-0.1201479
80	0x3cfcab6c	0.03084346
81	0x3cdb0ec3	0.026740437
82	0xbc41d7a1	-0.011831195
83	0x3cc93835	0.024562934
84	0xbc2b791c	-0.010465886
85	0xbe289a32	-0.16465071
86	0xbde6e120	-0.11273408
87	0x3dc67a9b	0.09691354
88	0xbca81ac6	-0.02052058
89	0x3d722cc6	0.05912473
90	0x3e065764	0.13119274
91	0xbe28d80b	-0.16488664
92	0x3d898067	0.06713944
93	0xbcd45dd3	-0.025923645
94	0xbe989410	-0.29800463
95	0xbdc2fb33	-0.09520569
96	0x3d097db1	0.033567134
97	0x3db3d95f	0.087816946
98	0x3e060f91	0.13091876
99	0x3d2f4a9e	0.04279577
100	0xbdd4507a	-0.10366912
101	0x3c93c930	0.01804027
102	0x3dddd312	0.10831274
103	0xbe1f483b	-0.15554897
104	0xbd1d5da0	-0.038419366
105	0x3d791064	0.060806647
106	0xbd83dce6	-0.064386174
107	0x3ca93291	0.020653995

bias f4 [4]
0	0xbe237a94	-0.15964729
1	0x3cf10ee8	0.029426053
2	0xbe1cc9bc	-0.1531133
3	0xbdde292b	-0.10847696

weight f4 [4]
0	0x3f5de9c1	0.86684805
1	0x3f7312fd	0.9495085
2	0x3f866597	1.0499753
3	0x3f7420bb	0.9536244

bias f4 [4]
0	0xbebbcf72	-0.36681706
1	0x3d303c21	0.043026093
2	0xbd696234	-0.05697842
3	0x3d41b37b	0.047290307

running_mean f4 [4]
0	0xbf7270cb	-0.9470336
1	0xbe4615a0	-0.19344187
2	0x3e8c9352	0.27456146
3	0xbe9928c0	-0.29913902

running_var f4 [4]
0	0x3dcf8548	0.10132843
1	0x3c0c5936	0.008566191
2	0x3cfe1c96	0.03101949
3	0x3bdccb64	0.0067381132

weight f4 [4, 4, 3, 3]
0	0xbda63a83	-0.08116629
1	0x3dfd68cc	0.12373504
2	0xbe25fabd	-0.1620893
3	0xbc83bf6b	-0.016082486
4	0xbdac6b26	-0.084188744
5	0x3ca47930	0.020077318
6	0x3d0489dc	0.032358035
7	0xbccea485	-0.025224933
8	0xbcb46f24	-0.022025652
9	0xbd54e0e4	-0.051972285
10	0x3d03c91b	0.03217421
11	0x3c804111	0.015656026
12	0x3c920220	0.017823279
13	0xbe4c0fb8	-0.19927871
14	0xbc0f89ab	-0.00876085
15	0x3a301331	0.0006716727
16	0xbdad35bf	-0.08457517
17	0x3cdbdc05	0.026838312
18	0xbc0061df	-0.007835834
19	0xbd868ecb	-0.06570204
20	0xbc33bae5	-0.010969852
21	0x3dacbe57	0.08434742
22	0x3ebdc1da	0.3706196
23	0x3c544be7	0.01295755
24	0xbd83e23c	-0.06439635
25	0x3e233f91	0.15942217
26	0xbdf3dc6c	-0.119072765
27	0x3cfbc959	0.030735658
28	0x3c3ba4ce	0.011452867
29	0xbcdc8a8a	-0.02692153
30	0xbd6e941d	-0.05824672
31	0xbe2df28c	-0.16987056
32	0x3c974449	0.018465178
33	0x3d360156	0.044434868
34	0xbcf61ec2	-0.030043963
35	0x3cfab021	0.030601563
36	0x3c623001	0.01380539
37	0xbc97914b	-0.018501898
38	0x3bc8d959	0.0061294255
39	0x3d380f03	0.04493619
40	0x3e216562	0.1576133
41	0x3e5a033f	0.21290301
42	0xbc0ebd1d	-0.00871208
43	0xbd08513a	-0.03328059
44	0x3e4a07ce	0.1972954
45	0xbe142570	-0.14467406
46	0x3c880da0	0.01660806
47	0x3dc25437	0.09488719
48	0xbd4e1cfa	-0.050320603
49	0x3e56ede0	0.2098918
50	0x3d5d290d	0.053994227
51	0x3d0c9b9d	0.034328092
52	0x3d19ee92	0.037581034
53	0xbddfbee3	-0.109250806
54	0xbd2ad283	-0.041704666
55	0x3cff8fe3	0.03119654
56	0xbdb512ae	-0.088414535
57	0xbe285c15	-0.16441377
58	0x3c49451a	0.0122845415
59	0xbd8b4898	-0.068009555
60	0xbdd23f88	-0.10266024
61	0xbdcdf4c6	-0.100564525
62	0xbb322da0	-0.002718784
63	0x3c869679	0.016429173
64	0x3df6e1ce	0.120547876
65	0xbe089ad6	-0.13340315
66	0x3dd47daf	0.10375535
67	0x3e81b5db	0.25334057
68	0xbd54d536	-0.051961146
69	0x3d08785f	0.03331792
70	0x3d4ebf69	0.05047551
71	0xbd9f95ad	-0.0779222
72	0x3decf0c3	0.11569359
73	0x3c8d1321	0.017221035
74	0xbbcb341d	-0.0062012807
75	0x3d6a03f5	0.05713268
76	0x3e0b575f	0.13607548
77	0xbdaa138e	-0.08304511
78	0xbd10b793	-0.03533132
79	0x3e407b8e	0.18797132
80	0xbdb9f98a	-0.09080799
81	0x3e05a653	0.13051729
82	0x3d26be75	0.040708978
83	0xbd145d30	-0.036221683
84	0x3d026250	0.03183204
85	0x3e9b0edc	0.30284774
86	0x3e04a336	0.12952885
87	0x3d032faf	0.032027896
88	0xbe16b0b2	-0.14715841
89	0xbc8631a1	-0.016381087
90	0xbc1a7d8f	-0.00942935
91	0xbd99434d	-0.0748354
92	0xbe0f45f2	-0.13991526
93	0xbe03b705	-0.12862785
94	0x3da995eb	0.08280548
95	0xbe227a56	-0.1586698
96	0xbe04851d	-0.12941404
97	0x3cdeef77	0.027213795
98	0x3e070d6d	0.13188715
99	0x3da30cf4	0.07961455
100	0x3e43ee50	0.19133878
101	0x3c6e6690	0.01455082
102	0x3be1c791	0.0068902452
103	0x3dd074ce	0.10178529
104	0x3d2dff3a	0.04247973
105	0x3c5ce15d	0.013481465
106	0xbd7b653e	-0.06137585
107	0xbd549f5c	-0.05190979
108	0x3c044deb	0.008075218
109	0x3e083b69	0.13303913
110	0xbda29d23	-0.07940128
111	0x3c92f79f	0.01794034
112	0x3da1d5c4	0.07902101
113	0x3e451c09	0.19248976
114	0x3d8eaaeb	0.06966194
115	0xbda45314	-0.080236584
116	0x3da68bb2	0.081321135
117	0x3dce01e1	0.10058952
118	0x3e681d83	0.22667508
119	0xbdafd5cc	-0.085857004
120	0x3d36e7a1	0.044654492
121	0xbbbe25ef	-0.005802862
122	0x3c14adbb	0.009074624
123	0xbcfd2d07	-0.03090526
124	0x3ccfdec3	0.025374776
125	0xbcc1297d	-0.023579353
126	0xbcc22db1	-0.023703428
127	0xbd8fcd42	-0.07021572
128	0x3c2e6313	0.010643738
129	0xbe25aff8	-0.16180408
130	0xbdda2fe4	-0.10653666
131	0x3c43eb1a	0.011957908
132	0xbe2fd30d	-0.17170353
133	0x3c806338	0.015672311
134	0x3d89009a	0.06689568
135	0x3db5814b	0.08862551
136	0x3e8482e4	0.25881112
137	0xbd440164	-0.04785289
138	0xbe30a7f5	-0.1725157
139	0xbb89180a	-0.004183774
140	0x3e1f1583	0.1553555
141	0xbd172c66	-0.036907576
142	0x3b922a93	0.0044606416
143	0xbc7dc4fc	-0.015488859

bias f4 [4]
0	0x3e0ca705	0.13735588
1	0xbe0eb078	-0.13934505
2	0x3d401ea5	0.046904225
3	0xbe231391	-0.15925433

weight f4 [4]
0	0x3f85b963	1.04472
1	0x3f6ca7d6	0.924436
2	0x3f5e0279	0.8672252
3	0x3f55fe36	0.8359102

bias f4 [4]
0	0x3e388845	0.18020733
1	0xbcf5fb60	-0.030027092
2	0xbd75726d	-0.059923578
3	0xbcf1804a	-0.029480118

running_mean f4 [4]
0	0x3d8ee6e2	0.06977631
1	0xbd0b58b5	-0.034020144
2	0x3e918072	0.28418308
3	0xbd153e0f	-0.036436137

running_var f4 [4]
0	0x3e56ebf3	0.20988445
1	0x3ef61568	0.48063207
2	0x3f0eb169	0.55739456
3	0x3ec1cd42	0.37851912

weight f4 [8, 4, 3, 3]
0	0xbd1935cf	-0.03740483
1	0x3d6c5d47	0.057706144
2	0x3c9701d8	0.018433496
3	0x3bffb536	0.0078035844
4	0xbd84afdc	-0.06478855
5	0xbc7bc559	-0.015366876
6	0xbd34284a	-0.043983735
7	0xbc5af612	-0.013364332
8	0xbe0d78da	-0.13815632
9	0xbd20c943	-0.039254438
10	0xbe27ad5c	-0.16374725
11	0x3d39b8f0	0.045342386
12	0x3d821d6a	0.063532665
13	0xbd37317a	-0.04472492
14	0x3e5afa1d	0.21384473
15	0xbd24266b	-0.0400757
16	0xbc471a1c	-0.012152221
17	0x3db13e56	0.08654468
18	0x3e0b253d	0.13588424
19	0xbe352494	-0.17689735
20	0xbc5d4a61	-0.013506503
21	0xbde9360f	-0.11387264
22	0x3dbd2e9b	0.09237405
23	0x3bf87397	0.0075821388
24	0xbd6c5dae	-0.057706527
25	0x3e14906a	0.14508215
26	0x3da2c70f	0.07948124
27	0xbdd12b2c	-0.102133125
28	0xbd8e4a27	-0.06947737
29	0x3dc90f38	0.09817356
30	0xbe583d13	-0.21117048
31	0xbd677b2b	-0.056513947
32	0xbd65597f	-0.055993553
33	0x3d2b281e	0.041786306
34	0x3e27f1bc	0.16400808
35	0x3d4b6509	0.0496569
36	0xbd89fe72	-0.06737985
37	0x3db1dba9	0.08684475
38	0x3d4feaa8	0.050760895
39	0x3e1f7f68	0.15575945
40	0xbd9fb76d	-0.077986576
41	0xbe08868d	-0.13332577
42	0x3df0528b	0.11734494
43	0xbe43cd48	-0.19121277
44	0xbd84a2b3	-0.06476345
45	0xbdebc67c	-0.11512467
46	0x3d9438c9	0.072373934
47	0x3d3753cb	0.044757646
48	0x3dd03141	0.101656444
49	0xbde4142e	-0.111366615
50	0xbd91618e	-0.07098685
51	0x3d1fd747	0.039023664
52	0x3e623437	0.22090231
53	0xbd295cc4	-0.041348234
54	0xbd963335	-0.07333986
55	0x3db405f5	0.08790199
56	0xbd15d44f	-0.036579426
57	0xbe03dfb7	-0.12878309
58	0x3d65d654	0.056112602
59	0x3d73ebc6	0.059551023
60	0xbcc12bd3	-0.023580467
61	0x3bf604dd	0.007507904
62	0xbccaf1be	-0.024773475
63	0x3d339859	0.043846462
64	0x3e1405a8	0.14455283
65	0xbd41f877	-0.047356095
66	0xbd0c647c	-0.034275517
67	0xbcc1690b	-0.023609659
68	0xbe22e876	-0.1590899
69	0x3dc54313	0.09631934
70	0x3e49286a	0.19644323
71	0xbe04f507	-0.12984096
72	0x3d4445d3	0.047918152
73	0x3b7e1ca3	0.0038774393
74	0xbdda6fb5	-0.10665838
75	0xbd57cedf	-0.052687522
76	0xbdd82beb	-0.10555252
77	0xbca7263d	-0.020403976
78	0x3d41837c	0.047244534
79	0xbd3f99bf	-0.046777483
80	0x3e1f821f	0.15576981
81	0xbc0f133f	-0.008732616
82	0x3db63d0e	0.08898364
83	0xbe0f7fea	-0.14013639
84	0xbd8de634	-0.069286734
85	0x3dd57d1b	0.104242526
86	0x3e2c04b1	0.16798665
87	0xbc3c718c	-0.011501681
88	0xbd9d63b0	-0.076850295
89	0xbd1062da	-0.035250522
90	0x3d09dc16	0.033657156
91	0xbd0955d8	-0.033529133
92	0xbddf0790	-0.10890114
93	0x3dd7933e	0.10526131
94	0x3d4ed65d	0.0504974
95	0xbc1c7755	-0.009549935
96	0xbe2dc085	-0.16967972
97	0x3e21b3cd	0.15791245
98	0x3deea75b	0.11653014
99	0x3db6cf86	0.08926301
100	0xbca5d954	-0.020245232
101	0xbda391e7	-0.07986813
102	0xbe1596e6	-0.14608344
103	0x3dbb0c17	0.09133165
104	0xbd384c33	-0.044994544
105	0xbd80c405	-0.06287388
106	0x3d9ce3d4	0.07660642
107	0x3d37b62b	0.044851463
108	0x3d99147e	0.07474612
109	0x3dd72c83	0.10506537
110	0x3d9d3f88	0.07678133
111	0xbdc6fc1b	-0.09716054
112	0x3e061a1d	0.13095899
113	0x3e079214	0.13239318
114	0xbd0af5d0	-0.03392583
115	0xbdf618a7	-0.12016421
116	0x3daf2d34	0.08553544
117	0x3e5fbfa2	0.21850446
118	0x3dd5b983	0.10435774
119	0x3d96ba46	0.073597476
120	0x3df683ad	0.12036834
121	0x3dc3ea83	0.09566214
122	0xbbeb8568	-0.007187534
123	0xbe186906	-0.14883813
124	0xbdd59e20	-0.104305506
125	0x3d82dba1	0.06389547
126	0x3c227d3d	0.009917554
127	0x3e37260e	0.1788561
128	0x3d4d3bd6	0.050105892
129	0x3e54f00d	0.20794697
130	0x3c7caa9a	0.015421534
131	0x3ceb9baf	0.02876076
132	0x3c98dc21	0.018659653
133	0x3ac90555	0.0015336672
134	0xbd070f06	-0.03297331
135	0x3c73e1c4	0.01488537
136	0x3d3b6176	0.045747243
137	0xbd0f56c7	-0.034994867
138	0x3e46205b	0.1934828
139	0x3e4f9a31	0.20273663
140	0x3d0c745b	0.034290653
141	0x3d75dd13	0.060025286
142	0x3da8a51d	0.08234618
143	0xbdc2b77f	-0.09507655
144	0xbe4d8881	-0.20071603
145	0xbd24b724	-0.04021372
146	0xbe022a28	-0.12711394
147	0xbe05e4d2	-0.1307557
148	0x3e37ca4e	0.17948267
149	0x3e38d6df	0.18050717
150	0xbd109767	-0.03530064
151	0xbcc4e577	-0.024035199
152	0x3d98df02	0.0746441
153	0xbd81da9e	-0.06340526
154	0xbde726c6	-0.11286692
155	0xbbc91725	-0.0061367922
156	0xbdb00e13	-0.085964344
157	0xbe1eab7a	-0.154951
158	0xbdf6015b	-0.12011977
159	0x3db8028f	0.08984863
160	0xbcecf2e0	-0.028924406
161	0xbc571cca	-0.013129422
162	0xbda4e854	-0.080521256
163	0x3e007907	0.12546168
164	0x3df174d6	0.11789863
165	0x3d53f529	0.051747475
166	0x3e1eaacd	0.15494843
167	0x3e2345ae	0.1594455
168	0xbdda99cc	-0.10673866
169	0x3d9e429e	0.0772755
170	0x3b9292d3	0.004473069
171	0x3d07c157	0.033143368
172	0x3dbb9cdf	0.0916078
173	0x3d8d7ad8	0.06908196
174	0xbd8c5d14	-0.06853691
175	0xbc5c724e	-0.013454987
176	0xbd3dc3fc	-0.046329483
177	0xbdd6b1fb	-0.10483166
178	0xbe2d5ffc	-0.16931146
179	0xbd41c9fa	-0.04731176
180	0xbe0e5a93	-0.13901739
181	0xbd113116	-0.035447203
182	0xbd55d04e	-0.052200608
183	0xbe09e2ed	-0.13465472
184	0xbe333648	-0.17501175
185	0x3e52d49e	0.2058892
186	0x3daabb65	0.08336524
187	0xbc836928	-0.016041353
188	0x3d328a74	0.04358907
189	0xbd17bdfc	-0.037046418
190	0x3e1e83fe	0.15480039
191	0xbdbbfbdc	-0.09178898
192	0xbd93978f	-0.07206642
193	0x3df44829	0.11927826
194	0x3da3a971	0.07991303
195	0xbcd055eb	-0.025431594
196	0xbd04a0de	-0.032379977
197	0xbdb89e54	-0.09014574
198	0x3cdef022	0.027214114
199	0xbd3bd0c8	-0.045853406
200	0x3dda2c87	0.10653024
201	0x3e049dfd	0.12950893
202	0x3e564f39	0.20928659
203	0x3e1da4ff	0.15394972
204	0xbd16c2bf	-0.036806818
205	0x3b05348b	0.0020325508
206	0x3c94ff62	0.018188182
207	0xbdcbc05e	-0.099488005
208	0x3bcaa5cf	0.0061843167
209	0x3cd3e315	0.025865117
210	0x3d75b7cd	0.05998974
211	0xbd52a7af	-0.051429447
212	0xbe09453e	-0.1340532
213	0xbc9613f1	-0.018320056
214	0x3c27e184	0.010246638
215	0xbe17c8b6	-0.14822659
216	0x3e179b66	0.14805374
217	0x3e205f70	0.15661407
218	0xbdfc58d6	-0.123216316
219	0xbe14c2b7	-0.14527403
220	0x3e160a83	0.14652447
221	0x3d17a8b7	0.037026133
222	0xbd79b2fa	-0.0609617
223	0xbe5f0969	-0.21780933
224	0x3dbe247b	0.09284302
225	0x3ddbd42d	0.10733829
226	0xbdfd4558	-0.12366742
227	0xbd6cbe6b	-0.057798784
228	0x3dccd349	0.10001237
229	0xbda692a0	-0.08133435
230	0x3e1052cd	0.14094086
231	0x3d322219	0.04348955
232	0xbdbf6016	-0.09344499
233	0xbda58f96	-0.080840275
234	0x3c63ba31	0.013899372
235	0x3d2842ef	0.041079458
236	0xbd0c74c4	-0.034291044
237	0xbd68293e	-0.056679957
238	0xbc02345e	-0.007947056
239	0xbb854e18	-0.0040681474
240	0x3c20fb7d	0.0098255845
241	0x3e0a3ea7	0.13500462
242	0xbd289c5a	-0.041164733
243	0x3c510efc	0.01275992
244	0xbdbc19d6	-0.09184615
245	0x3e25b869	0.16183628
246	0xbda065e1	-0.07831932
247	0x3d91b32d	0.07114253
248	0xbd8e9c69	-0.069634266
249	0xbe13c832	-0.14431837
250	0xbc839cad	-0.01606592
251	0xbc0fa2c5	-0.008766835
252	0x3d513a8a	0.051081218
253	0x3e423c9d	0.18968435
254	0xbd0fe522	-0.035130627
255	0xbd8d2ded	-0.06893525

bias f4 [8]
0	0x4047074d	3.1098206
1	0x4040e7be	3.0141444
2	0x403fcc55	2.9968464
3	0x404c34fc	3.190734
4	0x4056644d	3.3498719
5	0x404435c0	3.0657806
6	0x404ffcb4	3.2497988
7	0x40521f22	3.2831502

weight f4 [8]
0	0x3f7fd4df	0.9993419
1	0x3f702353	0.938039
2	0x3f7d91de	0.990507
3	0x3f6ef3b7	0.9334063
4	0x3f704044	0.9384806
5	0x3f8087e1	1.0041467
6	0x3f8861b1	1.0654813
7	0x3f865c67	1.0496949

bias f4 [8]
0	0xbd6c52bf	-0.0576961
1	0xbca277ac	-0.019832455
2	0xbbccacb2	-0.006246173
3	0xbe54f16f	-0.20795225
4	0x3e030a62	0.1279693
5	0x3d3d1bfc	0.046169266
6	0xbc98f7a3	-0.01867277
7	0x3d8a47ee	0.06752001

running_mean f4 [8]
0	0x40404b84	3.004609
1	0x4040127c	3.0011282
2	0x403fb1d7	2.9952295
3	0x407b09dd	3.922477
4	0x404b2469	3.1740973
5	0x404192f1	3.0245936
6	0x404d9474	3.2121859
7	0x40541792	3.3139386

running_var f4 [8]
0	0x3d859137	0.06521838
1	0x3d1c47fe	0.038154595
2	0x3cd8ff64	0.026488967
3	0x3f1f41f3	0.62210006
4	0x3d2be6a4	0.041968003
5	0x3d9fd5d9	0.0780446
6	0x3c87b581	0.01656604
7	0x3d20a531	0.03922004

weight f4 [8, 8, 3, 3]
0	0xbd33c83b	-0.043892127
1	0xbc30fce1	-0.0108024785
2	0x3ced6822	0.028980318
3	0xbdbecd3a	-0.093164876
4	0xbda2db15	-0.07951943
5	0x3d94b0bc	0.07260272
6	0xbc06d7c7	-0.008230156
7	0x3e2fe9e5	0.17179067
8	0xbd06a823	-0.03287519
9	0xbccfa94e	-0.025349285
10	0xbc8e9000	-0.017402649
11	0xbdc65165	-0.096834935
12	0xbd241cdc	-0.040066585
13	0xbc691686	-0.014226561
14	0x3d1ef539	0.03880808
15	0x3c951ba0	0.01820165
16	0xbdebc133	-0.11511459
17	0xbcf15e4c	-0.02946391
18	0x3d0f50d5	0.034989197
19	0xbe20c7c5	-0.15701206
20	0x3d4b07dd	0.049568046
21	0xb9df4734	-0.00042586925
22	0xbd342b6b	-0.04398672
23	0xbcbb3d85	-0.022856483
24	0xbc5273c9	-0.012844988
25	0xbdc2307d	-0.09481905
26	0x3d31577f	0.043296333
27	0x3dbbc5d9	0.09168596
28	0xbd89c2c3	-0.06726601
29	0x3c4a4cff	0.012347459
30	0x3db58d77	0.08864873
31	0x3cb3af1c	0.021934085
32	0xbc4ff3f6	-0.012692442
33	0xbcc07824	-0.023494788
34	0x3d9cbc5c	0.07653114
35	0x3971966c	0.00023039588
36	0xbc820abe	-0.015874263
37	0xbd657712	-0.056021757
38	0x3c709a75	0.014685263
39	0x3d5a04c9	0.05322722
40	0x3d696a0f	0.05698591
41	0xbd266de7	-0.040632155
42	0x3d8b2b46	0.06795363
43	0xbd2d1e20	-0.042265058
44	0xbdc6f6cc	-0.097150415
45	0x3d14ca3e	0.036325686
46	0xb8c0a781	-9.1864735e-05
47	0xbd0df3dd	-0.034656394
48	0xbd05f139	-0.03270075
49	0xbde4263f	-0.11140107
50	0x3cc36b2d	0.023854816
51	0xbd7bbf69	-0.06146184
52	0xbd4ea7f8	-0.050453156
53	0xbd2a3c9e	-0.041561715
54	0x3c2106f8	0.009828322
55	0x3d668582	0.056279667
56	0xbda31fc5	-0.07965044
57	0xbd1c3d4c	-0.038144395
58	0x3c4ed485	0.012623911
59	0xbd5a8e2f	-0.053358253
60	0xbc047d19	-0.008086466
61	0x3e45f43d	0.19331451
62	0x3c891acf	0.016736416
63	0x3d2f888f	0.04285484
64	0x3d0126aa	0.031531014
65	0x3d002bc2	0.03129173
66	0xbdc14555	-0.09437052
67	0x3db12d9d	0.08651278
68	0x3dc63668	0.09678346
69	0xbb402f34	-0.002932501
70	0x3e101d38	0.14073646
71	0x3c9ba3e3	0.018999046
72	0x3de97a0b	0.11400231
73	0x3d019b7f	0.031642433
74	0x3c00c7b2	0.007860111
75	0x3e0e7e2e	0.13915321
76	0xbd9a0642	-0.07520725
77	0xbd23f54e	-0.040028863
78	0xbc066e9f	-0.008205085
79	0xbe1766a8	-0.14785254
80	0xbc9adb8c	-0.018903516
81	0x3c9e1025	0.019294808
82	0x3cdb0af4	0.026738621
83	0x3d084c89	0.033276115
84	0xbcb76b9f	-0.022390185
85	0x3cf6b620	0.03011614
86	0xbe035ed2	-0.1282914
87	0x3c4d78ac	0.012540977
88	0x3d339412	0.043842383
89	0x3b8b4480	0.004250109
90	0x3e09c611	0.13454463
91	0xbc76131e	-0.015019206
92	0xbd28202b	-0.041046303
93	0xbd0fd743	-0.0351174
94	0x3c6a53ac	0.0143021755
95	0x3c6de93c	0.014520939
96	0xbd599b37	-0.05312654
97	0x3e03ebe2	0.12882951
98	0x3d3dfc50	0.046383202
99	0xba7d27bf	-0.0009657107
100	0x3de5cf6b	0.112212025
101	0x3d89672c	0.067091316
102	0x3e2eb861	0.17062522
103	0x3e1043b6	0.1408833
104	0x3dbdd798	0.09269637
105	0xbc9e5bce	-0.019330885
106	0x3d5f9fc5	0.054595727
107	0x3e17cdca	0.14824596
108	0x3d93a5ca	0.07209356
109	0x3c322fed	0.010875684
110	0x3dde74aa	0.10862096
111	0x3d1cc6fa	0.038275696
112	0x3d603864	0.05474128
113	0xbba88737	-0.005143072
114	0xbcc43419	-0.023950623
115	0xbcd74d93	-0.026282107
116	0x3d4e28e7	0.050331976
117	0x3dab01cb	0.08349951
118	0xbbad3172	-0.0052854354
119	0xbdc5e466	-0.09662704
120	0xbd707715	-0.058707315
121	0xbc62c38e	-0.013840569
122	0xbe13ec1c	-0.14445537
123	0x3d402c19	0.046917055
124	0x3d22e98c	0.03977351
125	0xbbc36cc8	-0.0059638955
126	0xbdcc9ec6	-0.09991221
127	0xbccb474e	-0.024814274
128	0xbc16729a	-0.009182597
129	0xbc823ce0	-0.015898168
130	0x3d00a738	0.031409472
131	0xbd8ad51b	-0.06778928
132	0xbda69b8b	-0.08135136
133	0xbd605c0a	-0.054775275
134	0xbdb40be7	-0.08791333
135	0xbdcfb021	-0.10141016
136	0x3dee8bb8	0.11647743
137	0x3d8a1070	0.067414165
138	0x3d55cdec	0.052198336
139	0xbb469652	-0.0030302
140	0x3c264250	0.010147646
141	0xbd550bdf	-0.052013274
142	0xbc1ff3d7	-0.009762726
143	0x3d3ac168	0.045594603
144	0x3d84009d	0.064454295
145	0xbd8c9ede	-0.06866239
146	0x3c9be1ef	0.019028632
147	0xbdd1a151	-0.10235847
148	0x3d79bcaf	0.06097096
149	0xbd8a041d	-0.06739066
150	0xbcec44fb	-0.028841486
151	0x3d21b8c0	0.039482832
152	0x3cd098df	0.02546352
153	0xbcb53dc5	-0.02212418
154	0xbbd92b48	-0.006627474
155	0x3d2b6a08	0.041849166
156	0xbd43763e	-0.047720186
157	0xbdd4e420	-0.10395074
158	0xbbea0a1b	-0.007142318
159	0x3de0814b	0.10962161
160	0xbb15c816	-0.0022854856
161	0xbc9ae4c8	-0.01890792
162	0xbd139af8	-0.03603646
163	0x3d34e533	0.044163894
164	0x3c834d39	0.016028034
165	0xbd5720ff	-0.052521702
166	0xbe2af2a0	-0.16694117
167	0x3d60ec13	0.054912638
168	0x3cfb9fb0	0.030715793
169	0xbd553442	-0.05205179
170	0x3c121f61	0.008918614
171	0xbdc18ee3	-0.094510816
172	0xbdc8b516	-0.098001644
173	0x3d820125	0.063478746
174	0xbd15b97a	-0.036553837
175	0x3c416414	0.011803646
176	0xbe021511	-0.12703349
177	0xbc1125e7	-0.008859134
178	0xbdda79af	-0.106677406
179	0x3cc40cf0	0.02393195
180	0xbde30000	-0.110839844
181	0xbdf3dbda	-0.11907168
182	0x3d5e2be9	0.054241095
183	0x3cdb7118	0.026787326
184	0x3dd601ca	0.1044956
185	0xbd0c2118	-0.03421125
186	0x3c284d89	0.010272392
187	0xbc8f96c3	-0.017527943
188	0xbaab5a66	-0.0013073205
189	0xbd9cfb6c	-0.076651424
190	0xbda7f359	-0.08200712
191	0x3db6f1ad	0.08932815
192	0x3d624faf	0.055251773
193	0xbc313b00	-0.010817289
194	0xbd8faa71	-0.07014931
195	0xbdb1ebf8	-0.086875856
196	0xbd98fc6e	-0.07470022
197	0xbd861f3c	-0.06548926
198	0x3de60335	0.112310804
199	0xbdc70091	-0.09716905
200	0xbd60f8f4	-0.05492492
201	0xbd58ef28	-0.052962452
202	0xbdd05f71	-0.10174454
203	0xbdee7e4c	-0.11645183
204	0x3d956732	0.072950736
205	0xbda8fba8	-0.082511246
206	0x3c931525	0.017954418
207	0x3d248d30	0.04017371
208	0xbca1c2d9	-0.01974623
209	0x3cacfa88	0.021115556
210	0xbcfeef72	-0.031120036
211	0xbd9b259d	-0.075755335
212	0xbd0ecfb7	-0.03486606
213	0x3c2c2485	0.010506754
214	0x3dbb9933	0.0916008
215	0x3d4b5f7b	0.049651604
216	0x3b56a443	0.0032751716
217	0xbcf25859	-0.029583143
218	0xbd8c6789	-0.06855685
219	0x3df6fe65	0.12060241
220	0x3e3885f7	0.18019854
221	0xbd9b199e	-0.075732455
222	0x3c6b0e30	0.014346644
223	0xbe0ae758	-0.13564813
224	0xbda6a62b	-0.08137163
225	0xbab0142b	-0.0013433745
226	0x3dba344f	0.09092008
227	0xbd0cb06d	-0.03434794
228	0xbe09d856	-0.13461432
229	0xbccc0db1	-0.024908872
230	0xbc7749af	-0.015093251
231	0xbddd8bb7	-0.10817664
232	0xbd09aeb6	-0.033613883
233	0x3be77a93	0.0070641725
234	0x3d875799	0.06608505
235	0xbbf6caa9	-0.007531483
236	0xbd6b3e90	-0.05743271
237	0x3e270983	0.16312222
238	0x3dfb20b2	0.122620955
239	0xbc6624d9	-0.014046871
240	0xbdc811a2	-0.09768988
241	0xbbc35ada	-0.005961758
242	0x3b2677c2	0.002540097
243	0xbd9b59b3	-0.07585468
244	0xbd3be87f	-0.045876022
245	0x3d1218b6	0.035668097
246	0x3c2bcab9	0.010485345
247	0xbd5c034b	-0.053714078
248	0x3dc49a5d	0.09599755
249	0x3dcea7a1	0.100905664
250	0xbba2d8ce	-0.004969693
251	0x3d980c2f	0.07424199
252	0xbd9cb125	-0.07650975
253	0xbc676d60	-0.014125198
254	0x3c4a50ec	0.012348395
255	0x3d296385	0.041354675

bias f4 [8]
0	0x40494930	3.145092
1	0x40463d08	3.097475
2	0x40452e7d	3.0809624
3	0x404cb95f	3.1988142
4	0x404c7143	3.194413
5	0x404cfb11	3.2028239
6	0x40442dcd	3.0652955
7	0x4047dffc	3.123046

weight f4 [8]
0	0x3f782d88	0.96944475
1	0x3f6b5e57	0.91940826
2	0x3f802acf	1.0013064
3	0x3f7af3e9	0.9802843
4	0x3f7eb7eb	0.99499387
5	0x3f7701c4	0.9648707
6	0x3f79db29	0.97600037
7	0x3f74ab5b	0.9557397

bias f4 [8]
0	0xbceceeb6	-0.02892242
1	0xbd99f600	-0.07517624
2	0xbc5a014d	-0.013305974
3	0x3cc54cb5	0.024084428
4	0x3e4809c3	0.19534974
5	0x3da4ce8e	0.0804721
6	0xbb96eb0f	-0.004605658
7	0x3c803c3d	0.015653724

running_mean f4 [8]
0	0x4046a9ac	3.104106
1	0x4055afc2	3.3388524
2	0x402791ba	2.6182694
3	0x403c9881	2.946808
4	0x4047c67d	3.1214898
5	0x40359c2e	2.8376575
6	0x40530fd3	3.2978408
7	0x40461360	3.0949326

running_var f4 [8]
0	0x3e8aedc8	0.27134538
1	0x3eb17738	0.3466127
2	0x3ea03085	0.31287017
3	0x3e1f76a9	0.15572609
4	0x3dceae00	0.100917816
5	0x3e920fcc	0.28527677
6	0x3fa75002	1.3071291
7	0x3dd42751	0.103590615

weight f4 [16, 8, 3, 3]
0	0x3d08449b	0.033268552
1	0x3d6a4269	0.05719224
2	0xbdd7e31e	-0.10541366
3	0x3d0fb34f	0.03508311
4	0xbc4aab03	-0.012369874
5	0xbcad0418	-0.021120116
6	0xbd567187	-0.05235436
7	0x3d6258a3	0.05526031
8	0xbcf4a7dd	-0.0298652
9	0xbd8d4d41	-0.06899501
10	0xbc9ab531	-0.018885227
11	0xbdc897e5	-0.097945966
12	0x3d176d96	0.036969744
13	0x3d727f74	0.05920358
14	0xbd19a2df	-0.03750884
15	0xbdd26c39	-0.10274548
16	0xbb3e208d	-0.00290111
17	0x3db218e8	0.08696157
18	0x3e018616	0.12648806
19	0x3cd75fe3	0.02629084
20	0xbcf71708	-0.03016235
21	0x3bf644f5	0.0075155445
22	0xbd47a4aa	-0.04874102
23	0x3db809fb	0.089862786
24	0xbe0f5b96	-0.13999781
25	0x3d526320	0.051364064
26	0x3dbd082a	0.09230073
27	0x3d397833	0.045280647
28	0xbdbc91de	-0.092075095
29	0x3daa2bd3	0.0830914
30	0xbdc406d7	-0.09571617
31	0x3da05218	0.07828158
32	0x3de30ff4	0.11087027
33	0x3d811ce5	0.06304339
34	0xbe06a2bc	-0.13148016
35	0xbde16bf5	-0.11006919
36	0x3d27eb97	0.04099616
37	0x3db390ad	0.08767829
38	0xbdbda5cf	-0.09260141
39	0x3d2f396b	0.042779367
40	0x3c815962	0.015789691
41	0xbdfba805	-0.122879066
42	0xbd917200	-0.07101822
43	0x3dc08326	0.094000146
44	0xbd4db36f	-0.05021995
45	0xbca9db16	-0.020734351
46	0xbb206a28	-0.0024477337
47	0x3da23d6c	0.079218715
48	0xbddf4e6c	-0.1090363
49	0xbddf4bcb	-0.10903128
50	0xbd097501	-0.03355885
51	0x3daf66fe	0.08564566
52	0x3dbc38e9	0.09190542
53	0xbc818b43	-0.015813475
54	0xbbb53467	-0.0055299285
55	0x3d874368	0.066046536
56	0x3cec31d4	0.028832354
57	0x3ca764e2	0.020433847
58	0x3db4d70e	0.08830081
59	0x3db2a0e7	0.08722096
60	0xbdbeb589	-0.09311969
61	0x3dd7be3f	0.105343334
62	0x3dcd1bdb	0.10015079
63	0xbbe5dd0b	-0.0070148758
64	0xbd226dc9	-0.03965548
65	0x3d3fd461	0.0468334
66	0x3c286235	0.010277321
67	0xbc901895	-0.017589847
68	0x3b9bcbad	0.0047545047
69	0x3a4dd8c8	0.00078524323
70	0xbd13712f	-0.035996612
71	0xbe1dbaee	-0.1540334
72	0x3db04784	0.086073905
73	0x3ce0ef8b	0.027457973
74	0xbd18894a	-0.037240304
75	0x3dc11a60	0.09428859
76	0xbc467190	-0.012112036
77	0x3d4276ad	0.04747646
78	0xbd46f927	-0.048577454
79	0x3d42bcda	0.047543384
80	0xbddf35ce	-0.10898934
81	0x3dcdf390	0.100562215
82	0xbcf2e94b	-0.029652258
83	0x3d5c6521	0.05380738
84	0x3c1bd53a	0.009511286
85	0xbd8f7392	-0.07004465
86	0xbc835745	-0.016032824
87	0x3da2ef03	0.07955744
88	0xbd7f404c	-0.062317178
89	0x3d702c23	0.058635842
90	0xbc872b0f	-0.016500024
91	0xbda7b6b0	-0.08189142
92	0xbd8d310d	-0.06894121
93	0xbd8804c9	-0.06641538
94	0xbd1c44a5	-0.038151402
95	0xbdd3f019	-0.10348529
96	0xbd041819	-0.032249544
97	0x3d5ee23c	0.054414973
98	0x3db14997	0.08656614
99	0xbaac9e7f	-0.0013169794
100	0x3d0948a8	0.033516556
101	0xbd9534cf	-0.07285463
102	0x3d640d02	0.055676468
103	0xbe0e751b	-0.1391186
104	0xbc1b9abc	-0.009497341
105	0xbcdc32e0	-0.026879728
106	0x3d15c80b	0.03656773
107	0xbd2f6e54	-0.042829826
108	0x3d7af54f	0.0612691
109	0xbdc4fa54	-0.09618059
110	0xbbe8a985	-0.0071002864
111	0x3d19d34f	0.037555035
112	0xbe8461ca	-0.25855857
113	0xbdaf76a2	-0.08567549
114	0xbcf7ab14	-0.030232944
115	0xbda64754	-0.081190735
116	0x3d54924c	0.051897332
117	0xbc27fb04	-0.010252718
118	0xbc03d049	-0.0080452645
119	0x3dedfe7f	0.11620807
120	0xbaac989d	-0.0013168041
121	0xbd8290d0	-0.06375277
122	0x3d8c8bbc	0.0686259
123	0xbd9890b9	-0.07449479
124	0x3cfb5edf	0.030684887
125	0x3cd6b2b9	0.026208268
126	0xbd98baa9	-0.074574776
127	0x3d966a93	0.07344546
128	0x3d9c1f51	0.07623161
129	0x3d483a4e	0.04888373
130	0x3d35e63a	0.044409014
131	0x3d239155	0.03993352
132	0xbd7d8e4e	-0.06190329
133	0xbe10048c	-0.14064234
134	0x3c34b7db	0.011030163
135	0x3d59baf6	0.053156815
136	0xbd57cc1b	-0.052684885
137	0x3d8b2d87	0.06795793
138	0xbe3813db	-0.17976324
139	0xbdf0a8aa	-0.1175092
140	0xbe4c94e6	-0.19978675
141	0xbd82fa8b	-0.063954435
142	0xbe56ee7b	-0.2098941
143	0xbd417951	-0.047234837
144	0xbda5cc22	-0.08095576
145	0xbdb53a50	-0.08849013
146	0x3d9ba2b2	0.07599391
147	0x3be77e95	0.0070646503
148	0xbd92b9c2	-0.07164337
149	0x3c5a15e7	0.013310886
150	0xbc9a9413	-0.018869435
151	0x3d31e38f	0.043429907
152	0xbd6c0a2e	-0.057626896
153	0xbc8a2af5	-0.016866187
154	0xbcfbbec7	-0.030730618
155	0xbcbf60d6	-0.023361605
156	0x3d3d8dcf	0.046277817
157	0xbd2d69c2	-0.042337187
158	0xbd06ad3e	-0.03288006
159	0xbbc77587	-0.0060870084
160	0x3cbeeb10	0.023305446
161	0x3ca9c492	0.020723615
162	0xbdbbab52	-0.09163536
163	0xbdbb7789	-0.09153659
164	0x3d8f38c1	0.06993247
165	0x3d0413ce	0.03224545
166	0x3cd0ee89	0.025504367
167	0xbdbc1405	-0.09183506
168	0x3d8faf8d	0.070159055
169	0xbcf2fbad	-0.029661024
170	0xbda6ac9f	-0.081383936
171	0xbd88d7ad	-0.06681762
172	0xbe0970cc	-0.13421935
173	0x3d5a06eb	0.053229254
174	0xbd86ced8	-0.06582421
175	0x3beab2b7	0.0071624178
176	0x3d795590	0.060872614
177	0x3c42e596	0.011895558
178	0x3b2d1ec2	0.0026416038
179	0x3d7bb28d	0.061449576
180	0xbd4c9395	-0.049945433
181	0xbcd869d9	-0.02641766
182	0x3d9e10f5	0.07718078
183	0xbdecf0cf	-0.11569368
184	0x3cee0a09	0.02905752
185	0xbc70d5aa	-0.014699379
186	0xbdd686d5	-0.10474936
187	0x3d7d2564	0.061803237
188	0xbc964986	-0.018345606
189	0x3d686bb0	0.056743324
190	0xbd2c9872	-0.04213757
191	0xbd98a53e	-0.074533924
192	0x3de89b5a	0.11357756
193	0x3c5dba59	0.013533198
194	0x3de47eea	0.111570194
195	0xbdf6d37e	-0.12052058
196	0xbe0a563e	-0.13509461
197	0x3d5faa36	0.054605685
198	0xbc907f91	-0.017638953
199	0xbcd08cb9	-0.025457727
200	0xbd9f0647	-0.07764869
201	0x3cc60a1e	0.024174746
202	0x3dfa3da7	0.122187905
203	0x3db254d5	0.08707587
204	0xbd91e2e0	-0.07123351
205	0x3d525973	0.051354837
206	0xbdafae61	-0.08578182
207	0x3daadc99	0.08342857
208	0xbcc21188	-0.02369
209	0xbcd97972	-0.026547167
210	0xbda16aa4	-0.07881668
211	0xbdac703a	-0.08419843
212	0x3dba77f2	0.09104909
213	0x3cca649f	0.024706183
214	0x3ddd5335	0.10806886
215	0xbe054259	-0.13013591
216	0x3b01d56a	0.0019811043
217	0xbddd82c0	-0.10815954
218	0x3ca35f35	0.01994286
219	0xbdb8d12f	-0.090242736
220	0xbddcfe0e	-0.107906446
221	0xbda6c8bd	-0.081437565
222	0x3c99ad44	0.018759377
223	0xbcecbaf1	-0.028897734
224	0xbd6e602e	-0.058197193
225	0x3d62be1e	0.05535709
226	0x3d051a01	0.032495502
227	0x3b2f4221	0.0026742297
228	0xbcc5921f	-0.024117528
229	0xbdbd0663	-0.09229734
230	0x3d53af70	0.051680982
231	0x3c7f8e0d	0.015597832
232	0xbcffeea3	-0.03124172
233	0xbda5ff36	-0.08105318
234	0x3de6aa86	0.112629935
235	0x3df11e9a	0.11773415
236	0xbd3f0f3c	-0.046645388
237	0x3c79f12e	0.015255256
238	0xbbfb0133	-0.007660055
239	0x3d088280	0.03332758
240	0x3c98391f	0.018581925
241	0x3d405628	0.046957165
242	0xbd91e7f3	-0.07124319
243	0xbd7098eb	-0.058739584
244	0xbd105d89	-0.035245452
245	0xbdb60107	-0.08886915
246	0xbcbe9ce7	-0.023268176
247	0xbe1056e8	-0.14095652
248	0x3cbb71b7	0.022881372
249	0xbe0356eb	-0.12826125
250	0xbdb23d70	-0.087031245
251	0x3adbd84a	0.0016772833
252	0xbd3d8e78	-0.046278447
253	0x3d5eeeca	0.054426946
254	0x3c2bbf07	0.010482556
255	0xbbfb05f0	-0.00766062

bias f4 [16]
0	0x40709a49	3.7594168
1	0x406d96a5	3.7123196
2	0x4071c9f5	3.7779515
3	0x40768eae	3.8524585
4	0x40720ddc	3.782096
5	0x40799750	3.8998604
6	0x4073592a	3.8023171
7	0x407134f5	3.7688572
8	0x407e58ab	3.9741619
9	0x4078f45c	3.8899145
10	0x40801166	4.002124
11	0x4078aeac	3.8856611
12	0x406ddf84	3.7167673
13	0x40764d32	3.8484616
14	0x40766d5a	3.8504243
15	0x4075d8df	3.8413618

weight f4 [16]
0	0x3f7ab3e5	0.9793075
1	0x3f8561cf	1.0420474
2	0x3f80696b	1.0032171
3	0x3f7dcd17	0.9914107
4	0x3f87d6b6	1.06124
5	0x3f70f3b1	0.94121844
6	0x3f6a738b	0.91582555
7	0x3f85a993	1.0442375
8	0x3f7d8dc6	0.99044454
9	0x3f7d202f	0.98877233
10	0x3f823d31	1.0174924
11	0x3f74f966	0.9569305
12	0x3f7b0883	0.9805986
13	0x3f866610	1.0499897
14	0x3f84d006	1.0375984
15	0x3f801a26	1.000798

bias f4 [16]
0	0xba7e02e9	-0.00096897647
1	0x3d9c9a7f	0.07646655
2	0x3db2e1ee	0.08734499
3	0xbb9d6def	-0.004804365
4	0x3db23e47	0.08703285
5	0xbb1513d1	-0.0022747407
6	0xbdae8787	-0.085219435
7	0x3d579df0	0.052640855
8	0xbc49077a	-0.012269849
9	0xbcfeb01f	-0.03108984
10	0x3d71a83b	0.058998328
11	0x3d1f2ec0	0.038862944
12	0xbcca8ced	-0.024725402
13	0x3d246c41	0.0401423
14	0x3dbee838	0.09321636
15	0x3dbb13d1	0.09134639

running_mean f4 [16]
0	0x40720f22	3.7821736
1	0x403f8d42	2.9929967
2	0x405a18cc	3.4077635
3	0x4044d69f	3.0755994
4	0x4079b132	3.9014401
5	0x407639ef	3.847286
6	0x40828ab3	4.079431
7	0x4064fa6f	3.5777853
8	0x4073da92	3.8102155
9	0x4089d4a4	4.307207
10	0x40828748	4.079014
11	0x4087db60	4.245529
12	0x408434c5	4.1314416
13	0x405fa0ad	3.4941819
14	0x407f4870	3.9887962
15	0x40616038	3.5214977

running_var f4 [16]
0	0x3dd269dc	0.10274097
1	0x3ecc2089	0.39868572
2	0x3dfe9f41	0.12432719
3	0x3e971fd6	0.29516476
4	0x3e2517f7	0.16122423
5	0x3e616608	0.22011578
6	0x3ea08760	0.31353283
7	0x3e2fab7b	0.17155258
8	0x3e251c55	0.16124089
9	0x3ed1716d	0.4090685
10	0x3e18bf60	0.14916754
11	0x3e564641	0.20925237
12	0x3eafc530	0.3433013
13	0x3eb3059c	0.34965217
14	0x3df65c3b	0.1202931
15	0x3e09c868	0.13455355

weight f4 [16, 16, 3, 3]
0	0x3ce20010	0.02758792
1	0xbd201be7	-0.03908911
2	0xbbb5e2c4	-0.005550714
3	0x3d170c69	0.03687707
4	0xbd4ac758	-0.049506515
5	0xbccfcf73	-0.025367474
6	0xbd425bbf	-0.047450777
7	0xbd964ffc	-0.073394746
8	0x3d290ac5	0.041270036
9	0x3dddafa8	0.108245194
10	0x3d2c0fbc	0.042007193
11	0x3d340b9f	0.043956395
12	0x3d9fb765	0.077986516
13	0x3c497608	0.012296207
14	0xbca828cb	-0.020527264
15	0xbd726c4e	-0.05918532
16	0xbd52a967	-0.051431086
17	0x3c177014	0.00924303
18	0x3d19e931	0.037575904
19	0x3cda571c	0.026652865
20	0xbdb801a7	-0.0898469
21	0x3da3d06f	0.0799874
22	0x3d56f11a	0.052476026
23	0xbced62ed	-0.028977836
24	0x3dcaab20	0.09895921
25	0xbdad57a5	-0.084639825
26	0xbd79ef53	-0.061019253
27	0xbd785774	-0.060630277
28	0xbc2ab316	-0.010418674
29	0xbc1d2435	-0.009591152
30	0xbd8064a2	-0.06269194
31	0x3cc8752c	0.024469934
32	0xbcc571fe	-0.024102207
33	0xbb9ce095	-0.0047875145
34	0xbd1e1ce9	-0.03860179
35	0xbc4be339	-0.012444311
36	0xbd812bbb	-0.06307169
37	0x3d33f2ee	0.043932848
38	0xbc92c5ce	-0.017916586
39	0xbd9d8708	-0.07691771
40	0xbd7da61f	-0.061926004
41	0xbdd0aff8	-0.101898134
42	0xb9c94aaa	-0.00038393337
43	0xbd0d60b1	-0.03451604
44	0x3d7552b6	0.059893332
45	0xbdc148dc	-0.09437725
46	0xbd525d3f	-0.051358458
47	0xbd7262ec	-0.05917637
48	0xbd474990	-0.04865414
49	0x3d95add6	0.07308547
50	0xbcdd89ee	-0.027043309
51	0xbd071bf7	-0.032985654
52	0x3d0991da	0.03358636
53	0xbcb5dc24	-0.022199698
54	0xbd8b76ee	-0.068097934
55	0xbc430c34	-0.011904765
56	0x3d4397ef	0.047752317
57	0x3c2a0425	0.010376965
58	0xbbab1409	-0.0052208942
59	0x3d72bb22	0.059260495
60	0x3cef630f	0.02922204
61	0xbcd6df9a	-0.026229668
62	0x3d606a63	0.05478896
63	0x3cc78485	0.024355182
64	0xbd88128a	-0.06644161
65	0xbcc1e215	-0.023667375
66	0xbc54744b	-0.0129671795
67	0x3d8e9bf8	0.069633424
68	0xbb798161	-0.00380715
69	0x3bd7e510	0.0065885857
70	0xbd169a01	-0.036767963
71	0xbc8ae438	-0.016954526
72	0x3d017823	0.031608712
73	0xbd11c867	-0.03559151
74	0xbd840895	-0.064469494
75	0xbcad8435	-0.021181205
76	0x3dbd5478	0.09244627
77	0x3cc384fc	0.023867123
78	0x3bc59a2d	0.006030342
79	0xbda8c34e	-0.082403764
80	0xbd2ce24c	-0.042208
81	0x3bd2d355	0.006433884
82	0xbd7074f4	-0.058705285
83	0x3d6bb5b2	0.057546325
84	0x3db42c87	0.087975554
85	0x3d0f900b	0.03504948
86	0x3c557077	0.013027302
87	0x3d255fa6	0.04037442
88	0x3c948740	0.018130898
89	0xbd71479f	-0.058906194
90	0x3ca69a67	0.020337297
91	0xbb668f72	-0.0035180715
92	0x3dd6cf2f	0.10488736
93	0x3d9a307d	0.0752878
94	0x3dca043a	0.098640874
95	0x3b6776ea	0.003531868
96	0xbd8c49f9	-0.06850047
97	0x3d195003	0.03742982
98	0xbd191a1a	-0.037378408
99	0x3c4d248b	0.01252092
100	0x3dd536ef	0.104108684
101	0x3d2d8fd4	0.042373493
102	0xbcc5f83f	-0.024166225
103	0xbd8daf56	-0.06918208
104	0xbb9098b3	-0.0044127344
105	0xbcf28222	-0.029603068
106	0xbd9f47a0	-0.07777333
107	0x3c843d7f	0.016142605
108	0xbd906432	-0.07050361
109	0xbd92b311	-0.071630605
110	0xbd2ab3d5	-0.041675407
111	0x3d0de145	0.034638662
112	0xbbf810a2	-0.007570342
113	0xbd3b1d0b	-0.045681994
114	0xbd4e4536	-0.050358973
115	0x3d0e2ff4	0.0347137
116	0x3b127f27	0.002235362
117	0x3d853d8c	0.0650588
118	0x3aadbbca	0.0013254818
119	0x3b72faaa	0.0037075677
120	0x3de61e52	0.11236252
121	0xbd1ee9eb	-0.0387973
122	0xbda21a4e	-0.079151735
123	0x3cf55f78	0.02995275
124	0x3d90fab3	0.07079067
125	0x3dbe039a	0.09278031
126	0xbd7f1316	-0.06227406
127	0x3d50137e	0.05079984
128	0x3d2e2241	0.042513136
129	0xbd263b2a	-0.040583767
130	0xbc1e2418	-0.00965216
131	0x3c3ad66b	0.01140366
132	0xbbab8ffd	-0.0052356706
133	0x3c0a8ad6	0.008455953
134	0xbcd425bd	-0.025896901
135	0xbcba5c65	-0.022749135
136	0xbdd87632	-0.10569419
137	0x3dc0c77f	0.09413051
138	0xbd3ab4bb	-0.045582514
139	0xbd48a09c	-0.048981294
140	0xbde00379	-0.10938162
141	0xbd9e0193	-0.07715144
142	0xbcbdd9d0	-0.02317515
143	0x3c021e91	0.007941858
144	0x3dd1b5b1	0.10239733
145	0x3adcb576	0.0016838748
146	0xbdc98752	-0.098402634
147	0x3def8361	0.116949804
148	0x3cf45d59	0.029829668
149	0x3d167261	0.036730174
150	0xbdb3a66a	-0.08771975
151	0x3c03ef7e	0.008052705
152	0xbd04ee45	-0.032453794
153	0x3c56ebb4	0.013117719
154	0xbd7b202a	-0.06130997
155	0x3c9e7077	0.019340737
156	0x3d122b9f	0.03568613
157	0xbd8beb37	-0.06831973
158	0xbd20f9bb	-0.03930066
159	0x3ddece26	0.108791634
160	0x3dcd93ab	0.10037931
161	0x3d9e57fd	0.07731626
162	0x3dc0d5e8	0.094157994
163	0xbb9e8c06	-0.0048384694
164	0x3cd5194e	0.026013043
165	0xbd5d7a71	-0.054071847
166	0xbda4cd73	-0.08046999
167	0xbcd9486d	-0.026523793
168	0x3d0c94ee	0.034321718
169	0x3d1767bc	0.036964163
170	0xbd6337dd	-0.055473197
171	0xbd8ba2cc	-0.068181604
172	0x3bc55124	0.0060216356
173	0xba14109b	-0.00056482264
174	0xbcfd579d	-0.030925566
175	0xbda09625	-0.07841138
176	0xbd8d2803	-0.06892397
177	0x3e188f37	0.14898382
178	0xbd98f256	-0.07468097
179	0xbd647c9a	-0.05578289
180	0x3dc93c8e	0.09826003
181	0xbd5719a3	-0.052514683
182	0x3ca6585d	0.020305807
183	0x3cb2d622	0.021830622
184	0x3db7ebfb	0.089805566
185	0x3c314207	0.010818965
186	0xbd38b1b1	-0.045091335
187	0x3d23e07e	0.040009014
188	0xbc6fe97e	-0.014643071
189	0x3d9af0de	0.07565473
190	0xbd286985	-0.041116256
191	0xbd0f972f	-0.03505629
192	0x3d4fa772	0.050696798
193	0x3c30fc40	0.010802329
194	0x3d93dc8d	0.07219801
195	0xbd5c2f2b	-0.05375592
196	0x3dd85f13	0.10565009
197	0x3c082626	0.008309877
198	0x3d80f5b7	0.062968664
199	0x3d53641e	0.05160915
200	0x3d4dc336	0.050234996
201	0xbccaf565	-0.024775216
202	0xbd30a345	-0.043124456
203	0x3d92b269	0.07162935
204	0x3cdcb157	0.026940031
205	0x3d4008c0	0.046883345
206	0xbd58e197	-0.052949514
207	0x3d81b01e	0.0633242
208	0x3d836ebd	0.06417606
209	0x3d2d8cf8	0.042370766
210	0xbcb2d477	-0.021829827
211	0xbd53a4c1	-0.051670793
212	0x3c013006	0.007884985
213	0xbc820c59	-0.015875028
214	0xbcebcd4f	-0.028784422
215	0xbe1df637	-0.15425955
216	0x3d244785	0.04010727
217	0xbdc26211	-0.09491361
218	0x3c7a6c51	0.015284614
219	0xbdb41cb0	-0.08794534
220	0x3c65392b	0.013990681
221	0xbcb0cf06	-0.021583091
222	0xbd2fc538	-0.04291269
223	0xbd46d982	-0.048547275
224	0x3cc7e93c	0.024403207
225	0xbd884cbc	-0.06655261
226	0xbd1f74d5	-0.03892978
227	0x3bdf14c1	0.006807894
228	0xbc82e71f	-0.015979348
229	0x3d4248ae	0.047432594
230	0xbd821129	-0.06350929
231	0x3d0e44da	0.03473363
232	0xbddd7e57	-0.10815113
233	0xbdaaa49e	-0.083321795
234	0x3e115f7a	0.14196578
235	0x3cba69b3	0.02275548
236	0x3c576689	0.013147005
237	0xbd226f4a	-0.039656915
238	0x3da5353f	0.080667965
239	0x3dbd66a7	0.09248095
240	0x3cde7a9d	0.027158076
241	0x3d837db9	0.06420464
242	0x3b776f73	0.0037755638
243	0x3bb35798	0.0054730885
244	0xb9dad610	-0.0004173969
245	0x3d382c44	0.04496409
246	0xbd439235	-0.047746856
247	0xbceac9d6	-0.028660696
248	0x3b21fd83	0.0024717755
249	0x3cd1483b	0.025547137
250	0xbd1029e6	-0.035196207
251	0x3cb75b93	0.022382533
252	0xbc865947	-0.016399993
253	0x3d5d1593	0.053975653
254	0x3a87ee16	0.0010370638
255	0xbd8d3502	-0.06894876

bias f4 [16]
0	0x40762d5c	3.8465185
1	0x4075ad17	3.8386896
2	0x4075498e	3.8326144
3	0x4078d062	3.8877187
4	0x40773d60	3.863121
5	0x4079d1f3	3.9034393
6	0x40760434	3.8440065
7	0x4073d077	3.8095987
8	0x40759e56	3.837789
9	0x4076fa25	3.8590176
10	0x40709a62	3.7594228
11	0x4078187b	3.8764942
12	0x4073d1c6	3.8096786
13	0x4077f50f	3.8743322
14	0x407a34d9	3.9094756
15	0x4073e90c	3.811099

weight f4 [16]
0	0x3f7ad701	0.9798432
1	0x3f72ea9a	0.94889224
2	0x3f81097c	1.0081019
3	0x3f8984c2	1.074364
4	0x3f74f180	0.95681
5	0x3f7859fd	0.9701231
6	0x3f7db344	0.9910166
7	0x3f79ac11	0.9752818
8	0x3f80f8e9	1.0075961
9	0x3f88f92c	1.0701041
10	0x3f6b9d9f	0.92037386
11	0x3f71a223	0.94388026
12	0x3f7aa465	0.97907096
13	0x3f7d7f59	0.9902244
14	0x3f80fe9e	1.0077703
15	0x3f751051	0.9572802

bias f4 [16]
0	0x3bb17fa9	0.0054168296
1	0xbd46965d	-0.04848324
2	0x3d2e9830	0.042625606
3	0x3df877af	0.12132203
4	0x3cc2453f	0.02371466
5	0xbd465691	-0.0484224
6	0x3d8d995f	0.06914019
7	0xbdb01295	-0.08597294
8	0x3c735082	0.0148507375
9	0x3c835ceb	0.016035518
10	0xbd8bfdbe	-0.06835507
11	0xbd40f805	-0.04711153
12	0xbd7aadcd	-0.061200906
13	0xbd6acacd	-0.057322312
14	0xbd890d93	-0.06692042
15	0xbd4ca6c6	-0.049963735

running_mean f4 [16]
0	0x4067e253	3.6231887
1	0x406dde8a	3.7167077
2	0x407ba752	3.9320874
3	0x406e8323	3.726754
4	0x40877940	4.233551
5	0x408382fd	4.10974
6	0x40778398	3.8674068
7	0x4068e637	3.6390512
8	0x40724934	3.785718
9	0x4066aac2	3.6041722
10	0x4081750d	4.0455384
11	0x408597b2	4.1747675
12	0x407dc8b4	3.965375
13	0x408ac98f	4.3371043
14	0x405f96f7	3.4935892
15	0x407fbea0	3.9960098

running_var f4 [16]
0	0x3e1207f4	0.14260846
1	0x3eaaae02	0.33335882
2	0x3e9dea4a	0.3084281
3	0x3eb579da	0.35444528
4	0x3e39e7ef	0.18154882
5	0x3e64c74f	0.22341655
6	0x3e46b57d	0.1940517
7	0x3ebaaab1	0.36458352
8	0x3ead42a2	0.338399
9	0x3ebaf6b8	0.36516356
10	0x3f2784e1	0.6543713
11	0x3e3f13c0	0.18659878
12	0x3e974db3	0.29551467
13	0x3e8ccc61	0.2749968
14	0x3e909a3a	0.28242666
15	0x3eb61924	0.35566056

weight f4 [32, 16, 3, 3]
0	0x3d352c01	0.04423142
1	0x3db4510e	0.088045225
2	0x3dc80cfe	0.09768103
3	0xbc7571f7	-0.014980785
4	0x3c9d8d71	0.019232484
5	0xbd46bdc9	-0.048520837
6	0xbd013ae3	-0.0315503
7	0x3db94b7e	0.09047602
8	0x3d93a68c	0.07209501
9	0xbd1f8d88	-0.038953334
10	0xbc7db442	-0.015484871
11	0x3dce0827	0.10060149
12	0xbd353f7f	-0.044250008
13	0x3d0006d7	0.031256523
14	0xbd3f3df0	-0.046689928
15	0xbc835b5a	-0.01603477
16	0xbb88ac83	-0.0041709556
17	0xbd4040e2	-0.046936877
18	0x3d3ac07b	0.04559372
19	0x3d361d4b	0.04446153
20	0xba094459	-0.000523632
21	0xbd622316	-0.05520924
22	0x3da9acf3	0.082849406
23	0xba9e177a	-0.001206144
24	0x3d9147e0	0.07093787
25	0x3c7010fc	0.014652487
26	0x3cfe83e4	0.03106875
27	0x3d502970	0.050820768
28	0x3da8c7c5	0.08241228
29	0xbbcd8654	-0.0062721167
30	0x3ce807b4	0.028323986
31	0xbda91e21	-0.082577
32	0x3ca4b229	0.020104485
33	0xbc27562d	-0.010213417
34	0xbd16fdd9	-0.03686318
35	0x3b50561c	0.0031789606
36	0x398fe9c0	0.00027449243
37	0x3d4f39c2	0.05059219
38	0xbd80530a	-0.062658384
39	0xbcd05944	-0.02543319
40	0x3a508fc5	0.00079559936
41	0x3c54c51c	0.012986448
42	0x3ca43f70	0.02004978
43	0x3cab1878	0.020885691
44	0x3d260d16	0.040539823
45	0xbc2293e8	-0.009922959
46	0x3d8c298a	0.068438604
47	0x3d06c25f	0.03290021
48	0x3cb2f2d6	0.021844309
49	0x3d97aeab	0.07406362
50	0x3b56787c	0.0032725623
51	0x3cbc1f69	0.022964196
52	0xbc8691e6	-0.016426992
53	0xbcdbe2b9	-0.026841508
54	0x3c3a6964	0.011377666
55	0x3da816ed	0.08207498
56	0x3d9fdab0	0.07805383
57	0x3c85fc13	0.01635555
58	0xbcd949af	-0.026524393
59	0xbd561167	-0.05226269
60	0x3d606783	0.054786216
61	0x3c56bd19	0.013106608
62	0x3c804bbb	0.015661111
63	0x3d311a43	0.043237936
64	0x3dde6095	0.10858265
65	0x3d130d98	0.035901636
66	0x3d156dc0	0.03648162
67	0x3cb968bf	0.022632955
68	0x3c31e54f	0.010857894
69	0xbc1d6184	-0.009605769
70	0xbcb48d81	-0.02204013
71	0xbca95e81	-0.020674946
72	0xbe09373c	-0.13399976
73	0x3ce618a9	0.02808793
74	0xbe03047a	-0.12794676
75	0x3d2bc5d3	0.041936707
76	0x3ce84c0b	0.028356573
77	0xbdfbf34b	-0.12302264
78	0xbdea7f2c	-0.11450037
79	0xbda4a795	-0.08039776
80	0xbd40c1da	-0.04705987
81	0xbc83949d	-0.016062075
82	0x3dd6ae99	0.104825206
83	0xbd65d230	-0.056108654
84	0x3d407e5e	0.046995513
85	0x3daeb204	0.085300475
86	0xbd90519f	-0.07046818
87	0xbb36e7f4	-0.002790925
88	0xbd51a6c6	-0.05118444
89	0x3d08f9ec	0.03344147
90	0x3d8fb158	0.070162475
91	0xbd324a82	-0.043528087
92	0xbd4649c0	-0.048410177
93	0xbc91e0a0	-0.017807305
94	0x3d612303	0.05496503
95	0xbdba0c03	-0.09084322
96	0x3c7556de	0.014974324
97	0x3ccb7520	0.024836123
98	0xbd9a9a65	-0.0754898
99	0xbd9e59bb	-0.077319585
100	0x3bdbfbd2	0.006713369
101	0x3c0020d8	0.007820331
102	0xbd81b0ab	-0.06332525
103	0x3c0aac16	0.00846388
104	0xbd9d59bd	-0.07683132
105	0x3d42905b	0.04750095
106	0x3d16883b	0.036751013
107	0xbd9aa843	-0.075516246
108	0x3dc9a200	0.09845352
109	0xbab0bb27	-0.001348351
110	0x3d85c918	0.06532496
111	0x3c8c0cbd	0.017095918
112	0x3d2d52a0	0.042315125
113	0x3d81fa6f	0.063465945
114	0xbd6bd7de	-0.057578914
115	0x3d3e7a4f	0.04650336
116	0x3b794e42	0.003804103
117	0x3ddb09a0	0.10695195
118	0x3deae1ed	0.11468873
119	0x3de9c0ba	0.11413713
120	0xbd0c9260	-0.03431928
121	0xbc8ba264	-0.017045207
122	0xbcd71263	-0.026253885
123	0x3d772caf	0.060345348
124	0x3d8e690c	0.0695363
125	0x3d2bb0cd	0.041916657
126	0xbd0d597c	-0.034509167
127	0x3d452883	0.048134338
128	0xbd1fe6a6	-0.039038323
129	0x3cefc21a	0.02926736
130	0xbd239dc4	-0.03994538
131	0x3d9691ee	0.07352053
132	0xbc67c50b	-0.0141461
133	0xbc2ea33c	-0.010659035
134	0xbd80597a	-0.06267066
135	0x3dac4aa8	0.08412677
136	0x3d06316f	0.032761987
137	0x3deb3ec1	0.11486579
138	0xbc9452a0	-0.018105805
139	0x3de98635	0.11402551
140	0x3ca8dbc6	0.020612609
141	0x3dbc0eec	0.091825336
142	0x3d65ddf4	0.056119874
143	0x3dd15657	0.10221546
144	0x3ca8217e	0.020523783
145	0xbdae9760	-0.08524966
146	0xbd6bccd4	-0.057568386
147	0x3cd1a656	0.02559201
148	0xbd8a6102	-0.06756784
149	0x3d06635f	0.03280961
150	0xbc67956e	-0.014134748
151	0xbce4545e	-0.02787226
152	0x3c61c301	0.013779403
153	0xbc22d7f1	-0.00993918
154	0xbd747ba5	-0.05968823
155	0x3d215692	0.0393892
156	0x3bfe8197	0.007766913
157	0x3d8a8dc4	0.06765321
158	0xbca98ace	-0.02069607
159	0xbdae7ee5	-0.08520297
160	0xbce8c13e	-0.028412458
161	0xbcc3667e	-0.023852583
162	0x3d08f7e0	0.033439517
163	0x3dc3b38c	0.0955573
164	0x3d301781	0.042991165
165	0x3d7bac93	0.061443876
166	0xbdb95979	-0.09050269
167	0xbcddd4c7	-0.027079
168	0xbd483b59	-0.048884723
169	0xbc67600b	-0.0141220195
170	0xbdd7f31b	-0.105444156
171	0xbe02fa08	-0.12790692
172	0xbcf4c2e6	-0.029878091
173	0xbcbbb893	-0.02291516
174	0xbd35192c	-0.04421346
175	0xbd5a3448	-0.053272516
176	0xbbeb4b62	-0.007180617
177	0xbc15d3d4	-0.009144742
178	0x3c7f0958	0.015566193
179	0x3e03bdda	0.12865391
180	0xbd0d618d	-0.03451686
181	0xbc9058a2	-0.017620388
182	0x3cd62e7d	0.026145214
183	0x3d2fd4bf	0.0429275
184	0x3cc491b3	0.023995256
185	0x3d39d44c	0.045368478
186	0xbd2d7eec	-0.04235737
187	0x3d166dd6	0.03672584
188	0x3c9b1c39	0.018934356
189	0x3d7bd927	0.06148639
190	0xbce4c89b	-0.027927687
191	0xbcef8a39	-0.029240714
192	0x3c2b6bde	0.010462729
193	0xbd82c558	-0.063852966
194	0xbd2c3cea	-0.04205028
195	0x3cc3d3f9	0.023904787
196	0xbd308387	-0.043094184
197	0x3d01af62	0.0316614
198	0xbd0617bb	-0.032737475
199	0x3d83ddd1	0.064387925
200	0x3d01b3df	0.03166568
201	0xbbd1b83f	-0.0064001377
202	0xbcdc7b2f	-0.026914207
203	0xbd8dc19b	-0.06921693
204	0x3bd34007	0.0064468416
205	0xbc84efa1	-0.016227545
206	0x3d0342f1	0.032046262
207	0xbbaac6e1	-0.0052116965
208	0xbd53a58d	-0.051671553
209	0x3d0899b8	0.033349723
210	0x3d91a8be	0.07112263
211	0xbc58fb2c	-0.013243478
212	0x3d6b7a19	0.05748949
213	0xbd0a19fc	-0.033716187
214	0x3d9cca00	0.07655716
215	0x3de54031	0.11193884
216	0x3cb8f444	0.022577412
217	0xbd2f16d4	-0.04274638
218	0xbd3dd411	-0.04634482
219	0x3dac2d3a	0.08407064
220	0x3c432c3f	0.011912405
221	0x3e1a9c31	0.15098645
222	0x3d9e4e6e	0.07729803
223	0x3e04dde7	0.12975274
224	0x3d835152	0.06411995
225	0xbcd83c76	-0.026396018
226	0xbd3104b4	-0.043217376
227	0x3b6736b8	0.0035280418
228	0xbd5c9da3	-0.05386127
229	0x3d97ab0e	0.07405673
230	0xbd3bf405	-0.045887012
231	0x3cb885cb	0.022524735
232	0x3d206306	0.039156936
233	0xbabab8c3	-0.0014245737
234	0x3cc53e09	0.024077432
235	0x3da1d4a4	0.07901886
236	0xbc1d9d89	-0.009620079
237	0xbd1b7d27	-0.03796115
238	0xbc818eca	-0.015815157
239	0x3cf71682	0.0301621
240	0x3d3d99ff	0.04628944
241	0xbd82a145	-0.06378416
242	0x3ce351e3	0.027749008
243	0xbb6ef741	-0.0036463293
244	0x3c47295f	0.01215586
245	0xbd881102	-0.06643869
246	0x3d020ae1	0.031748656
247	0xbd9c589b	-0.07634088
248	0x3ca83294	0.02053193
249	0x3da68a48	0.08131844
250	0x3d9cfc08	0.07665259
251	0x3d676157	0.056489315
252	0x3d5f889c	0.05457364
253	0x3c9427dc	0.018085413
254	0x3d8988d0	0.06715548
255	0x3d914c4c	0.070946306

bias f4 [32]
0	0x405c9349	3.4464896
1	0x4061b3ad	3.5265915
2	0x4060c23e	3.5118556
3	0x40685bdd	3.630607
4	0x4059988b	3.3999355
5	0x405b0ee8	3.4227848
6	0x404be71d	3.185981
7	0x405b4a77	3.42642
8	0x4062632f	3.5373037
9	0x405b1571	3.4231837
10	0x4055c4bf	3.3401334
11	0x4061a0c0	3.5254364
12	0x405305cc	3.2972288
13	0x404e05be	3.2191005
14	0x40615992	3.521092
15	0x4059ee45	3.4051678
16	0x40560998	3.3443356
17	0x40634603	3.5511482
18	0x4055518a	3.3331017
19	0x40629fc9	3.5410025
20	0x405e11c0	3.4698334
21	0x4057bea3	3.3710105
22	0x4054a721	3.3227007
23	0x4053b072	3.3076444
24	0x406575bf	3.5853117
25	0x405feaa0	3.4986954
26	0x4053d56b	3.309901
27	0x40540a02	3.3131108
28	0x405d9fe4	3.462884
29	0x40645f01	3.5682986
30	0x405972ad	3.3976243
31	0x405f5645	3.4896405

weight f4 [32]
0	0x3f796639	0.97421604
1	0x3f76094c	0.96107936
2	0x3f74f3e8	0.9568467
3	0x3f8170d2	1.0112555
4	0x3f82f3e2	1.0230677
5	0x3f7169b7	0.94301933
6	0x3f83a997	1.028613
7	0x3f81cd4c	1.0140777
8	0x3f83027b	1.0235132
9	0x3f7db34b	0.99101704
10	0x3f82d5f9	1.0221549
11	0x3f8605df	1.0470542
12	0x3f7de49a	0.99176943
13	0x3f802394	1.0010858
14	0x3f8218dd	1.0163838
15	0x3f77f22f	0.9685392
16	0x3f828cf0	1.0199261
17	0x3f73a2dc	0.9517038
18	0x3f820d99	1.01604
19	0x3f7f4c54	0.9972584
20	0x3f848c70	1.0355358
21	0x3f7dca09	0.99136406
22	0x3f7ec889	0.9952474
23	0x3f77b401	0.9675904
24	0x3f821649	1.0163051
25	0x3f864202	1.0488894
26	0x3f8546e0	1.0412254
27	0x3f739d53	0.9516193
28	0x3f81a11a	1.0127289
29	0x3f82db64	1.0223203
30	0x3f801f7e	1.0009611
31	0x3f771d85	0.9652942

bias f4 [32]
0	0xbdb260c6	-0.08709864
1	0xbd6ca017	-0.05776986
2	0xbdc0cf59	-0.094145484
3	0x3c8105cb	0.015749833
4	0xbd486021	-0.0489198
5	0xbda1ada9	-0.07894451
6	0xbc8ff888	-0.017574564
7	0xbd4953c1	-0.04915214
8	0xbcfd8b1a	-0.030950118
9	0xbcbf6d55	-0.023367563
10	0xbc8d707f	-0.017265556
11	0xbb72aaea	-0.0037028142
12	0x3bcf3925	0.006323951
13	0x3c0935ad	0.008374614
14	0x3b3006e5	0.0026859578
15	0xbd3a9397	-0.04555091
16	0x3c7a2ff5	0.015270223
17	0xbdee6cdd	-0.11641858
18	0x3c6f95f0	0.01462315
19	0xbd66dc27	-0.056362297
20	0x3c84f3b9	0.016229497
21	0xbcfaeebd	-0.030631417
22	0xbd7038a1	-0.058647756
23	0xbca7a971	-0.020466538
24	0xbad96d59	-0.0016588374
25	0x3c4eb77a	0.012616986
26	0x3c32ac3d	0.010905323
27	0xbd9e7078	-0.077362955
28	0xbbf4860f	-0.00746227
29	0x3c7bd064	0.015369508
30	0xbb9b0a22	-0.0047314325
31	0x3c889325	0.016671726
